configs/experiment/best_MM_MNIST_MAE.pth (torch, 50831 bytes, 80 tensors)

cls_token f4 [1, 1, 8]
000000 a3 6d 74 3c b9 5a 54 bc 03 9b 2e 3d 28 bc 36 3b
       0.014918718 -0.012961083 0.0426283 0.0027883146
000010 9e cb 9c bc ec 94 e0 3c 07 5b a7 3c b9 d3 af bb
       -0.019140061 0.027414761 0.020429147 -0.0053658155

mask_token f4 [1, 1, 8]
000000 25 12 9a 3b de 9b d3 3c 5b c5 9c 3b c9 86 b6 3c
       0.00470187 0.02583116 0.004784269 0.022281067
000010 8d 9b 41 3a f0 ac a2 bb 93 60 06 bd 41 ed 83 3c
       0.00073855446 -0.0049644634 -0.032806944 0.016104342

blocks.0.norm1.weight f4 [8]
000000 12 f8 7c 3f 5c 65 7c 3f 70 4d 80 3f 1a e2 7e 3f
       0.98816025 0.9859216 1.0023632 0.99563754
000010 55 37 7e 3f 31 88 7d 3f 35 74 7e 3f 24 68 7c 3f
       0.9930318 0.99035937 0.9939607 0.98596406

blocks.0.norm1.bias f4 [8]
000000 47 45 1b 3b 1a 65 bf 3b cc 48 e8 3b 19 a9 58 3b
       0.0023692416 0.0058409097 0.007088756 0.0033059774
000010 75 f9 8d 3a 83 5b d3 3a ab 63 e5 3a 72 66 dc bb
       0.001083179 0.0016125295 0.0017501017 -0.0067260796

blocks.0.attn.qkv.weight f4 [24, 8]
000000 86 af 21 be 8c b6 b6 3e 00 e0 80 be b1 fc 84 3e
       -0.15789613 0.35686147 -0.25170898 0.25974038
000010 63 2d ca bd 0d ad 0e be b9 f1 ea be 55 36 28 be
       -0.09871938 -0.13933201 -0.45887545 -0.16426976
000020 75 03 bf bd 92 a9 f3 3d d6 e8 0f 3b b0 f7 b9 3c
       -0.09326831 0.11897577 0.002195885 0.022701114
000030 6b 45 c7 bd 2a 39 9d 3d 38 24 15 3e 8e 2f 43 3e
       -0.09730037 0.07676919 0.14564598 0.1906111
000040 70 ea 91 3e da 9d 36 bd 70 ca c9 3d 78 b5 45 3d
       0.28499174 -0.044584133 0.09853065 0.048268765
000050 2b a9 43 be 50 dc 8a be 8c 2b 37 be 1d 70 73 bc
       -0.19107501 -0.2712121 -0.17887706 -0.014858273
000060 ee ec 9f be cd a6 98 3e b2 52 b7 3e 96 9c d0 3e
       -0.3123545 0.2981476 0.3580528 0.40744466
000070 e2 5d d8 3d b9 cb c2 be 69 c7 85 3e a9 90 f2 bd
       0.10564782 -0.38046053 0.261287 -0.11843998
000080 33 5a a0 bc c9 b7 a5 3e 9e ef 8b be d1 82 c0 3e
       -0.01957426 0.3236678 -0.2733125 0.37599805
000090 07 68 dc be fd da 85 be 99 ac 40 3d 47 c2 a6 3e
       -0.43048117 -0.26143637 0.047039602 0.32570097
0000a0 94 bb 47 be 78 35 2e 3e 3a be eb bd ad b1 4d be
       -0.19505149 0.17012584 -0.11510892 -0.20087309
0000b0 ff 31 8f 3d 03 0f d1 be 50 79 a4 3e c3 1b a7 3e
       0.06991958 -0.40831766 0.32123804 0.32638368
0000c0 4f e2 bb 3e 6b 55 be 3d ef 3f 3e 3e ef a0 72 3d
       0.36696097 0.09293636 0.18579076 0.05923551
0000d0 86 6f d0 be 81 80 d7 3e fa d8 c2 3d 98 77 3b bd
       -0.40710086 0.42090228 0.09514041 -0.04576835
0000e0 87 79 b7 3d d2 59 a3 be e2 15 31 3e 64 78 1d be
       0.089587264 -0.31904465 0.17293504 -0.15377957
0000f0 51 2c c4 3e 71 d0 56 be cc 4e a0 3e 5b 68 12 3e
       0.3831506 -0.20977952 0.31310117 0.14297621
000100 fe 2b 85 3e 60 7a 77 bd 65 25 c9 be 01 5c 86 3d
       0.26010126 -0.06041944 -0.39286342 0.06560517
000110 43 bd 35 ba 43 4e db 3e 45 38 1f bd 51 c3 ab be
       -0.0006932804 0.42833146 -0.038872022 -0.33547452
000120 cf a3 2e 3e c2 c9 ee 3d f6 cf c5 bd 74 51 e7 bd
       0.17054676 0.11659576 -0.09658806 -0.11294833
000130 42 70 3a 3e c5 db d1 be b2 a9 25 be 99 f3 b9 3e
       0.18206885 -0.40987983 -0.16178015 0.36318663
000140 9f a4 c5 be 6f 36 74 bc a2 79 a0 be 08 68 72 3e
       -0.38602158 -0.014905556 -0.31342798 0.23672497
000150 05 59 a8 be 6f 79 81 3e 64 af 2d bd 98 7c 61 be
       -0.32880417 0.2528796 -0.042403594 -0.22020185
000160 c2 1f c4 be 8f c8 b9 be 01 7a cf be 60 ab 02 be
       -0.3830548 -0.36285827 -0.4052277 -0.12760687
000170 2c f6 ab bd a8 96 9b 3e c9 9a 8c 3e 5e b8 a5 be
       -0.08396563 0.3038838 0.27461842 -0.32367224
000180 e7 e7 2b 3e 41 7c 2a bd 7d 04 96 3c 93 6b b0 3e
       0.16787682 -0.041622404 0.018312687 0.34457073
000190 82 29 ca be 9f c8 8b be 37 6a cf be 6b dc 66 be
       -0.39484793 -0.273015 -0.40510723 -0.2254502
0001a0 26 50 a2 3e 0a 2c bb be 77 11 9f bd ad f7 6d be
       0.31701773 -0.36557037 -0.07767003 -0.23239012
0001b0 e4 72 b4 3d 6c b9 ca 3e da d2 0c be a3 7f 1e 3e
       0.08810976 0.3959459 -0.13752308 0.15478377
0001c0 71 05 42 3e 81 a3 0e 3e ed e0 d4 3e d3 df 7f 3c
       0.18947388 0.1392956 0.41577855 0.015617329
0001d0 a8 82 99 be 83 c9 d2 be 17 4e bc 3e da 53 c5 3e
       -0.29982495 -0.41169366 0.36778328 0.38540536
0001e0 ad fe fd 3c 1e af 38 bd eb 2d 9f 3e 3d 48 a5 be
       0.031005228 -0.04508888 0.3108972 -0.32281676
0001f0 bf 8a 2d bd d3 6c 90 3e 30 c2 2d 3e a5 96 87 3e
       -0.042368647 0.28208026 0.16968608 0.2648212
000200 73 b1 bb 3e 42 7a 60 3e 68 08 1b 3e f6 16 b6 3e
       0.3665882 0.21921638 0.15139925 0.35564393
000210 a1 09 9c 3e 38 27 b6 be af fa da 3e 0d 55 62 be
       0.30476096 -0.35576797 0.4276938 -0.22102757
000220 6e 3e 1f be 97 33 d8 3e c1 9e 9f 3e a9 c5 75 be
       -0.15551159 0.4222686 0.31175807 -0.24001183
000230 36 ce 83 3e 24 6c 6b be 55 cf b2 3e 95 5d a7 be
       0.25743264 -0.22990471 0.34923807 -0.32688585
000240 72 92 5f be be 5a be be 71 ab c9 be e8 b4 88 be
       -0.21833208 -0.37178606 -0.39388612 -0.2670052
000250 1a ed 49 3e 9e d6 b9 be bd 5d 54 3e 22 50 09 bd
       0.19719353 -0.36296552 0.20738883 -0.033523686
000260 7b dc 0f 3e af 78 09 be 4c f4 81 be 8e 2d cb 3d
       0.1404895 -0.13424943 -0.25381696 0.09920798
000270 01 f2 a5 3e 43 60 94 bd f0 78 dc bd 59 56 17 bd
       0.32411197 -0.07244923 -0.107652545 -0.036947582
000280 d6 fb b3 3e 53 6a 3b bd 91 cf d0 3e 60 dc c2 3e
       0.35153073 -0.045755696 0.4078336 0.38058758
000290 cd 58 12 be 9e de d1 3d 49 b4 12 be 8f ca ac bb
       -0.14291687 0.10247539 -0.14326586 -0.0052731703
0002a0 03 c3 4d 3e 40 d3 a2 3e 59 03 4e be 90 f4 70 3e
       0.20093922 0.31801796 -0.20118465 0.23530793
0002b0 c2 a3 a0 bd 96 4c 56 3e 7d 61 8b 3e e8 b8 ad 3e
       -0.07843734 0.20927653 0.27222815 0.33930135
0002c0 fb 1a b4 3d 65 af 9f be fd ed d9 be 1f 5e cb 3e
       0.087942086 -0.31188503 -0.42564383 0.39720246
0002d0 a0 0b 78 3e 38 ba 87 be 21 4c 49 3e 7d 7d 92 3e
       0.24223185 -0.2650926 0.19657947 0.28611365
0002e0 f9 3b c7 3e 63 f1 1b 3d 52 94 29 3e a8 ad 3a be
       0.38912943 0.038072 0.16560486 -0.18230307
0002f0 f1 af 18 be 0f 25 9a be 1c 1d b8 be d7 b1 99 3e
       -0.14910866 -0.30106398 -0.3595971 0.30018494

blocks.0.attn.qkv.bias f4 [24]
000000 67 1e 0a bd b9 7b c6 bc eb 81 2f bb 57 65 2d bb
       -0.0337204 -0.024228917 -0.0026780318 -0.0026458108
000010 e8 a8 9e 3a 92 d1 37 bc a0 63 ef ba 8d b8 26 bc
       0.0012104781 -0.011219399 -0.0018263943 -0.010175836
000020 ab ef a4 b6 9a 72 d4 37 c3 65 7f 36 8c 6c 83 38
       -4.915482e-06 2.5325735e-05 3.8057194e-06 6.266785e-05
000030 ab 83 c4 38 35 be 0e 39 85 36 0f b7 4f 42 5a b5
       9.3705334e-05 0.00013613033 -8.536158e-06 -8.130782e-07
000040 ee 19 3a 3b d3 d4 8e 3b a9 97 b5 ba ba 50 9d 3a
       0.0028396803 0.0043588667 -0.0013854402 0.0012002208
000050 b6 6f c0 3b 5f 2d 67 b9 3c c2 91 bb 8f b0 13 bc
       0.005872692 -0.00022046779 -0.0044482034 -0.009014263

blocks.0.attn.proj.weight f4 [8, 8]
000000 16 61 19 3f 3a 70 b1 3c 2e db bd 3e 31 1d 7b bc
       0.59913766 0.02165996 0.37081283 -0.015326784
000010 44 d7 c4 3e cf b8 53 be fa e9 1a 3f 5e 8a eb 3e
       0.38445485 -0.20675968 0.6051327 0.46004003
000020 ae 1d ca be 67 16 06 bf ae 08 ec bd 4c 82 a7 3d
       -0.3947577 -0.52377933 -0.11525093 0.08179149
000030 c2 aa 70 3d 79 2c ec 3d ba d7 4a bd f1 9c 9c be
       0.058756597 0.1153192 -0.04952214 -0.30588487
000040 05 c1 cf be 37 24 14 3f 08 82 d8 3e bc 21 82 be
       -0.4057695 0.5786776 0.42286706 -0.25416362
000050 ff ed 60 3e 6b 1e 0f bf 65 4a 84 be 9a 60 f1 be
       0.21965788 -0.5590579 -0.2583801 -0.47144014
000060 d9 af d0 bd 44 26 52 bc 86 67 4f 3e a1 04 12 bf
       -0.1018979 -0.012826506 0.20254335 -0.57038313
000070 15 cf 1d be 4e 24 02 3e c8 75 a0 bb a5 03 1c 3f
       -0.15411027 0.12709162 -0.004896853 0.6094306
000080 71 aa de 3e ed 08 09 bf 4e 86 17 bf 71 8a e8 be
       0.4348941 -0.53529245 -0.5918931 -0.45418122
000090 97 97 cf 3d da d3 83 be b7 a6 6a be 5a e7 54 3e
       0.10136335 -0.25747567 -0.22915159 0.20791379
0000a0 38 84 01 bf 12 52 42 be 70 85 f2 3e ec 1a c0 3d
       -0.50592375 -0.1897662 0.4736743 0.09380135
0000b0 e2 9a ec be c1 58 95 3e 64 09 b9 3e 80 6e 1a bd
       -0.46211916 0.29169276 0.36139977 -0.037703037
0000c0 65 73 c3 be d2 78 13 3f 5c 55 03 3f 96 f2 c8 be
       -0.38173977 0.5760623 0.51302123 -0.39247578
0000d0 ac a4 e1 3e de 47 1c 3f 1f 20 f9 be bf 9e 13 bf
       0.44070947 0.6104716 -0.4865732 -0.576641
0000e0 7f d0 16 bf 54 e2 a3 be 84 b9 dc be a0 8a f8 be
       -0.5891189 -0.32008612 -0.43110287 -0.48543262
0000f0 bf 55 31 be aa a1 9e 3e 1b 08 9c be 74 40 0a be
       -0.17317866 0.30982715 -0.30474934 -0.1350115

blocks.0.attn.proj.bias f4 [8]
000000 02 03 88 3b ec 5a 84 3b 5f e9 37 39 9d 64 f7 bb
       0.004150749 0.004039159 0.00017539177 -0.007549836
000010 fe 75 08 3b 49 a9 f4 bb 65 26 47 3b 03 d7 ff 39
       0.0020822282 -0.0074664694 0.0030387875 0.00048797586

blocks.0.norm2.weight f4 [8]
000000 e5 74 7a 3f 41 51 7f 3f 3c 4e 7e 3f aa b3 7b 3f
       0.97834617 0.9973336 0.99338126 0.9832102
000010 a3 9c 7d 3f 31 79 7e 3f 0b af 7e 3f 3d da 7c 3f
       0.99067134 0.99403673 0.99485844 0.98770505

blocks.0.norm2.bias f4 [8]
000000 b6 c8 38 3b 8e 20 85 bb 93 8b d5 3a 74 99 28 bc
       0.0028195805 -0.0040627187 0.0016292207 -0.010290492
000010 d7 98 10 3a 23 fb 32 bb 93 49 46 3b 7a 07 6a 3a
       0.0005515939 -0.0027310334 0.0030256256 0.00089275057

blocks.0.mlp.fc1.weight f4 [32, 8]
000000 d3 ad 8e 3e 95 2c 84 be da 17 83 3e dd 36 97 be
       0.27866992 -0.25815263 0.25604135 -0.29534045
000010 98 e2 21 3d ff bf be bd aa e6 b5 3e 05 b1 d0 3b
       0.039522737 -0.09313964 0.35527545 0.0063687586
000020 02 f5 3f be 6a f2 a0 3e f7 10 38 3e 7b 29 ed 3d
       -0.18745807 0.31434947 0.17975222 0.115801774
000030 cf 70 c3 3e e1 df 75 3e b1 80 85 be 43 b0 cf bc
       0.38172004 0.24011184 -0.26074746 -0.025352603
000040 55 a4 02 3e aa f0 5f 3e 8f 9a 58 be ae 4f 82 3e
       0.12758 0.2186915 -0.2115271 0.25451416
000050 b9 e5 b6 3e f2 94 07 3e af 7f 15 bd c5 95 91 3e
       0.3572214 0.13240412 -0.03649872 0.28434578
000060 13 51 c3 3e 4a 63 fd 3d 56 14 a4 3d 45 61 ec bc
       0.38147792 0.123724535 0.08011691 -0.028854975
000070 ba be 2f 3e 0b de aa 3e 1e 04 08 bc 54 08 a4 3e
       0.171626 0.3337253 -0.008301763 0.32037604
000080 cc 59 50 3d 2d d9 be 3e 45 b3 a2 3c 4d 2b 94 be
       0.050866887 0.37275067 0.019860873 -0.28939286
000090 ed e7 f1 3d 05 76 e2 3b 51 38 c3 3e 95 69 a7 3c
       0.118118145 0.0069110417 0.38128904 0.020436088
0000a0 bc a1 b4 be af 3d 7a be 08 32 9c 3e ed a9 20 be
       -0.35279644 -0.24437593 0.3050692 -0.15689822
0000b0 db 12 4d 3e c1 67 f7 3d 3c 48 8b 3e 69 24 8f 3d
       0.20026724 0.12080336 0.27203548 0.069893666
0000c0 e6 40 14 be d8 19 8c 3c bc bf eb bd b6 26 3e be
       -0.14477882 0.017102167 -0.1151118 -0.18569455
0000d0 16 e0 9c 3e ae 40 92 be 2a 5e 74 be e8 f0 b0 be
       0.30639714 -0.28564972 -0.23864046 -0.34558797
0000e0 ec e2 37 be 37 de 9b 3e 50 f7 93 3e 83 32 82 3e
       -0.17957658 0.30442974 0.28899622 0.25429162
0000f0 c1 f3 3b be 8d 7d 81 bd 39 d7 16 be 4d 50 5d 3d
       -0.18354703 -0.06322775 -0.14730538 0.05403166
000100 01 d4 80 be 0d f5 5d 3e 67 aa 2c 3e 10 6a 8a be
       -0.25161746 0.2167551 0.16861878 -0.27034044
000110 fa 78 21 3e 1f a6 fd 3d d8 bc 98 3e 61 a2 80 3e
       0.15768805 0.12385201 0.29831576 0.25123885
000120 81 de 98 3e 40 d1 f5 3d e1 c5 f5 3c 69 49 98 3e
       0.29857257 0.12002802 0.030001583 0.29743508
000130 da 41 c5 3d 9d 89 c3 3c f0 43 39 3e da 25 68 be
       0.09631701 0.02386933 0.18092322 -0.22670689
000140 2b c3 b7 3e 23 4b 21 be f1 75 a5 be ac 3d 11 be
       0.3589109 -0.15751319 -0.32316545 -0.14183682
000150 4d 50 b5 bd 70 03 68 be 81 b6 8e 3e 43 48 64 be
       -0.08853207 -0.22657561 0.27873614 -0.2229319
000160 5f 1b 98 be 77 63 89 be e1 76 da 3d a0 4f aa 3c
       -0.29708382 -0.26833698 0.106672056 0.020789921
000170 1a ef 1c be 9c 2e 41 3e b5 a1 47 be a1 59 38 bc
       -0.15325585 0.18865436 -0.1949528 -0.011251838
000180 0d 74 10 be c5 b8 d8 3d d8 8d 67 be 73 67 25 3d
       -0.1410677 0.10582117 -0.22612703 0.04038186
000190 40 6f 89 bd 6c a1 1f bd 34 f9 ab be 49 ef 9b 3d
       -0.067106724 -0.038972303 -0.33588564 0.076139994
0001a0 ee e4 65 be 3a f6 7b be 7f 80 bb 3c ed ad 7f be
       -0.22450611 -0.24605647 0.02288842 -0.24968691
0001b0 53 70 2d be 13 01 80 be 60 b5 dc 3d 52 59 d4 3d
       -0.1693738 -0.2500082 0.10776782 0.10368599
0001c0 d0 f2 d9 3d ea f5 b7 be 62 51 6e be e7 68 81 3e
       0.10642016 -0.35929805 -0.23273233 0.25275347
0001d0 4a d9 94 be e8 56 86 3d 6b 82 be be f4 91 52 be
       -0.29072028 0.06559545 -0.37208876 -0.20563489
0001e0 52 7e 6c 3e b2 20 65 3e 80 13 be be 9a 59 58 3e
       0.23095062 0.22375754 -0.37124252 0.2112793
0001f0 2d 90 43 be ee 1f 9e 3e 57 08 fa bb 9b 9e c7 3d
       -0.19097967 0.30883735 -0.0076303887 0.097470485
000200 d6 04 f9 3d 00 78 b8 bc ca 4c b8 3e 14 e2 09 be
       0.121591255 -0.022518158 0.35996085 -0.13465148
000210 64 5f fa bd e5 50 b3 3e 6e 28 87 be c8 5c b9 be
       -0.122252256 0.35022655 -0.26398033 -0.362036
000220 27 0f 8a 3e 96 a8 1a bc f0 60 38 bd 98 45 da bd
       0.26964685 -0.009439608 -0.04501432 -0.10657805
000230 5b a1 7b 3d c1 56 51 bd 28 6b 80 3e 70 6c b9 3c
       0.061433177 -0.051108126 0.25081754 0.022634715
000240 a3 91 c1 be bd 4f dd bd 10 8a 00 be d1 b0 ee 3d
       -0.37806424 -0.108062245 -0.12552667 0.11654819
000250 2c 55 99 3e 62 60 48 3d 8f ba 61 be 34 d2 78 be
       0.29947793 0.048920043 -0.22043823 -0.24298936
000260 ec 13 45 be e4 2c bf 3e 3c 84 29 3e 07 98 f5 3d
       -0.19245881 0.37338936 0.1655435 0.119918875
000270 4b 78 6c 3e 63 84 c8 3d ba e2 99 3e f5 81 ef 3b
       0.23092763 0.09790876 0.3005579 0.0073091933
000280 45 9f 55 3e a1 31 5d be b2 c8 8d ba dc 3e 83 3e
       0.20861538 -0.21600963 -0.0010817258 0.25633895
000290 04 b8 d7 3d 4a 12 d0 bd 0f 5e 8a be 6e 28 5a be
       0.10533145 -0.10159738 -0.27024886 -0.21304485
0002a0 5b 3e f4 3d 60 1b 31 3e e3 e6 79 be 6d 2d fc bc
       0.11925956 0.17295599 -0.24404483 -0.03078338
0002b0 70 58 55 be 31 70 c4 3e 71 d1 ae 3e cf 9f 67 3d
       -0.20834517 0.38366845 0.34144166 0.05654889
0002c0 ae b3 5b 3e 0f 6c 89 3e 49 67 0b 3e 2b d2 1a 3e
       0.21455261 0.26840255 0.13613619 0.15119235
0002d0 ed 27 c5 3d 3e 9d 2b bd 59 46 b4 3e 11 26 ac be
       0.09626756 -0.041898005 0.3520992 -0.33622792
0002e0 21 e1 b7 bc 4d 2d 91 be 82 d7 d9 3d a5 8d 91 be
       -0.022446217 -0.28354874 0.10636808 -0.2842838
0002f0 00 c4 bf bd 78 d5 8d bd 6c d8 78 3e b1 38 bd 3e
       -0.09363556 -0.069254816 0.24301308 0.36957315
000300 2d 9b 9b bd b3 cb 36 3e dd 27 7e be 39 ef 97 3e
       -0.07597957 0.17851143 -0.24819894 0.296747
000310 73 d6 1c be 43 26 e9 3d 3b 9d 52 be fd de cd bd
       -0.15316181 0.11384251 -0.20567791 -0.10052297
000320 e5 92 80 3e 80 17 2d be a3 08 47 3e 92 63 34 3e
       0.25112072 -0.16903496 0.19436888 0.17616108
000330 97 da b5 be cf c2 9a be 21 01 86 be 2c 53 ad 3e
       -0.35518333 -0.30226752 -0.26172736 0.33852518
000340 1e 45 2f 3e c1 11 9a 3e d5 06 b8 be c8 d8 2d 3e
       0.1711621 0.3009167 -0.35942712 0.16977227
000350 cf 98 bb 3e 8f 33 bb 3e 31 52 10 bd 4f 93 92 3e
       0.3664002 0.36562774 -0.035234634 0.28628013
000360 db 1a ad be 60 7c 70 3e 22 5c e0 3d 54 62 26 be
       -0.33809552 0.23484945 0.10955073 -0.16248447
000370 c3 b7 0e 3e f5 f8 11 bc 53 1f 58 be 02 d7 87 be
       0.13937287 -0.008909454 -0.21105699 -0.26531225
000380 b0 3e b3 3e 8f 8d 2e 3d d4 0f 99 be 12 cd a1 3e
       0.35008764 0.04261547 -0.29894888 0.3160177
000390 04 f3 82 bd 2b 05 89 3e 1a 1b 88 be 17 6a 5c 3e
       -0.06394008 0.26761755 -0.26583177 0.21524845
0003a0 97 0e 65 3e d3 7c a3 bc 53 ce 8a 3e ab a2 1a be
       0.22368847 -0.019956982 0.27110538 -0.15101115
0003b0 ed 14 9f bd 3b 5e 6f be 9f 11 98 be 3d ac 65 be
       -0.07767663 -0.2337579 -0.29700944 -0.22428985
0003c0 88 cb 4f 3e e2 2a 87 bc d5 7c 20 3e b4 da 71 be
       0.20292485 -0.01649994 0.1567262 -0.23618585
0003d0 21 04 b1 be 9a 53 33 3e 78 d8 a8 be 76 a8 a3 be
       -0.34573463 0.1751236 -0.32977653 -0.31964463
0003e0 21 d9 87 be fc 2a 3e be 93 48 97 3d f2 45 8e 3d
       -0.26532844 -0.18571085 0.07386889 0.06946935
0003f0 8f f4 5a 3e 16 f1 92 be 6f 0f b6 3d 11 9d 32 3e
       0.21382354 -0.2869956 0.088896625 0.17442729

blocks.0.mlp.fc1.bias f4 [32]
000000 49 ae 7e ba 88 f0 44 3a 2a cf 97 bb 1c da 15 ba
       -0.00097153016 0.00075126486 -0.00463285 -0.00057164
000010 94 5e 16 3c d6 95 09 3b 75 e4 a3 bc 51 49 bc bb
       0.009177823 0.002099385 -0.020006398 -0.0057460447
000020 08 a9 6d 3b 90 46 61 3b 9b cc 61 3b af 29 5e b9
       0.003626408 0.0034374334 0.003445423 -0.00021187098
000030 31 ca eb bb 3e d2 fc 3b 25 cc 19 bb 77 b6 cf ba
       -0.007195734 0.0077154925 -0.0023467627 -0.0015847225
000040 c1 d6 0b 3c 25 9b cf 3b 56 4e f2 bb 19 c1 04 bc
       0.008535088 0.0063356333 -0.0073945923 -0.008102679
000050 14 9d 21 b9 c2 b0 32 bb 0c de 25 39 c0 8f 90 3b
       -0.00015412673 -0.0027266 0.00015818345 0.0044116676
000060 10 f6 c6 bb 79 7e 8e ba 41 00 11 bc 9f cd 59 bc
       -0.0060718134 -0.0010871432 -0.008850158 -0.013293653
000070 ea 32 db 3b f7 16 95 3b 98 ea 93 3b 68 6d 01 3b
       0.006689419 0.0045498568 0.0045140497 0.001974905

blocks.0.mlp.fc2.weight f4 [8, 32]
000000 2f 39 59 3e 8a 14 c6 be 73 68 78 3d b0 07 a0 3e
       0.2121322 -0.38687545 0.060646486 0.31255865
000010 13 a1 c0 3c c3 ed 01 be f6 21 75 be e7 e3 81 be
       0.023514306 -0.12688355 -0.23938736 -0.25369188
000020 a2 fa f6 bd cb 9c a6 3e 01 dc 7c 3e 5e c5 a0 3e
       -0.12059523 0.325415 0.246933 0.3140058
000030 98 a9 0b 3d 33 af 7c 3d 14 cd e8 bd 2b 6f b9 3e
       0.034097284 0.06169052 -0.113672405 0.36217627
000040 71 55 ad be 97 3f 80 3e 83 5f 86 3d f9 35 34 bb
       -0.3385425 0.25048515 0.06561186 -0.002749799
000050 5a 65 9c bc 76 42 c1 be f2 11 a4 bd 67 9b a3 3e
       -0.019091297 -0.37746018 -0.08011235 0.319545
000060 b3 14 13 3e 63 7e 5f be 16 d7 14 bc 60 4e 0d 3e
       0.14363365 -0.21825556 -0.009084484 0.13799429
000070 cb 94 b5 3e ae fc 89 be 2d a9 8f bd 71 ac c8 3d
       0.35465083 -0.26950592 -0.070146896 0.097985156
000080 b8 24 42 3d 14 62 ae 3e 82 68 1d bd d4 03 cd bd
       0.0473983 0.34059203 -0.038429745 -0.10010496
000090 2a f9 14 3d 50 9f b6 bd 2e 2f 92 3e b0 d0 ac bd
       0.036370434 -0.08917105 0.2855162 -0.084382415
0000a0 5e 83 ba 3e be 7b 35 3e fe 6c ae 3e 56 56 00 3e
       0.3642835 0.17722985 0.3406753 0.12532935
0000b0 f1 ca 7d be 16 2c 80 3e 46 a1 bd be 5c 49 83 be
       -0.24784447 0.25033635 -0.37037104 -0.25641906
0000c0 0d 05 51 3e 90 ad 65 3e 19 8d 4e be 74 a4 59 be
       0.20412083 0.2242949 -0.20171012 -0.2125414
0000d0 d6 af 6e 3e 7f d2 f1 3d c7 68 a4 3e 8f a2 a5 3d
       0.23309264 0.11807727 0.3211119 0.08087646
0000e0 fa de 82 be ee 46 57 be 98 9a 6d 3e 60 60 85 3d
       -0.25560743 -0.21023151 0.23203504 0.06512523
0000f0 92 0c a8 3e 2c a1 7c be bf a7 7a be 2b fb 13 3e
       0.3282209 -0.24670857 -0.24478053 0.14451282
000100 ac 31 c7 bd 33 92 ab be 90 26 94 3e ab 17 a5 3e
       -0.09726271 -0.3350998 0.2893567 0.3224462
000110 48 de da bd af 0e b2 3d f2 1f eb 3d 21 e4 95 3e
       -0.10686928 0.08694207 0.114807025 0.2927561
000120 7b d4 bf bb 62 7e 43 be 61 d1 ba be bd 5d 36 3d
       -0.005854187 -0.1909118 -0.36487868 0.04452299
000130 fb c4 c4 be 2a 97 dd 3d 89 76 b6 be 34 43 00 3d
       -0.38431534 0.10819848 -0.3563731 0.03131409
000140 e4 5f f8 3d d4 31 19 3e 60 63 d5 bd 61 a9 3a 3e
       0.12127665 0.14960414 -0.10419345 0.18228675
000150 76 14 95 be ea d9 4d 3e 4a c3 88 be cf e2 8d be
       -0.29117173 0.20102659 -0.26711494 -0.27712104
000160 7a eb 7e bd 4c ca aa 3e e4 cf ad be e2 64 70 3e
       -0.062236287 0.33357465 -0.3394767 0.23475984
000170 ef 3e b6 be c7 2c 7d be 20 2e 5f be a4 ee 23 be
       -0.3559489 -0.24724112 -0.21794939 -0.16009003
000180 6a cd 41 be ab 51 b1 3e eb 0c 9c be 64 38 9d be
       -0.18926015 0.3463262 -0.30478606 -0.30707085
000190 42 bd b6 be 20 a3 97 be f3 08 a9 3e c3 3c d2 bd
       -0.35691267 -0.29616642 0.3301464 -0.10265496
0001a0 09 2a ad 3e 3d fc 9f be 09 da 87 be 18 68 69 3d
       0.33821133 -0.3124713 -0.26533535 0.056984037
0001b0 6e aa ed 3c 81 b6 93 3e ab dc 81 be 5a 9e 6c be
       0.029011931 0.28850177 -0.2536367 -0.23107281
0001c0 06 85 18 be 3f 9a ee 3d 6e 1f a9 3e 39 a2 bc 3e
       -0.14894494 0.11650514 0.3303179 0.36842516
0001d0 ad ca 5c 3e b6 9c cf 3d ea 41 03 be c4 51 0e be
       0.2156169 0.10137312 -0.12818113 -0.13898379
0001e0 64 17 10 3e 03 8e b0 3d 13 76 da bd f1 d9 8c 3d
       0.14071423 0.086208366 -0.10667052 0.068775065
0001f0 3d 47 27 be 64 e9 7a be d4 a5 8c be 4f cc a9 3e
       -0.16335769 -0.24503094 -0.27470267 0.33163688
000200 b4 1f 5d be dd 32 13 3e cd 22 37 be 4d 49 e0 bc
       -0.21594125 0.14374872 -0.17884369 -0.027378703
000210 ff 95 0f 3e 3d 78 b8 3e 7f 62 c3 bd 82 b6 b6 be
       0.14022063 0.36029235 -0.09540271 -0.35686117
000220 f5 0b 84 be 50 b0 c3 3d 8e 6e 68 3d 8b 3c 21 be
       -0.25790372 0.09555113 0.05674606 -0.15745752
000230 63 1b 19 3e 54 83 b6 be f4 cd bd bd 39 dc b4 3e
       0.14951853 -0.3564707 -0.09267798 0.35324267
000240 bf 7d a9 3d 35 eb c6 3e 06 63 64 bc e4 ad 83 3e
       0.08275937 0.38851324 -0.013939625 0.25718606
000250 d1 c3 ff 3d ca 9f c2 be 5b b7 05 be 1d ec 58 3e
       0.12488521 -0.38012534 -0.13058226 0.2118382
000260 a2 23 84 3e 13 ae 37 be 75 a8 75 be 25 07 c3 be
       0.25808436 -0.17937498 -0.23990043 -0.38091388
000270 4c c2 75 3e ee 8d 4f be ed f3 2e be c7 cb a8 be
       0.239999 -0.20268986 -0.17085238 -0.3296797
000280 55 74 8b 3e 30 99 92 bd df a6 58 3e 3e 4a 0b be
       0.27237192 -0.071581244 0.21157406 -0.1360254
000290 73 05 a4 bd 8d d2 22 be de 4c ee bd 7e bb 42 be
       -0.08008852 -0.15900631 -0.11635755 -0.19016835
0002a0 49 9d 73 be 4b 31 9a 3e de b9 1c bc cd 4f ae 3e
       -0.23790468 0.30115733 -0.009565799 0.34045258
0002b0 ed 03 9f 3e d3 26 25 be ee 74 52 3d 34 32 2a be
       0.31057683 -0.16128092 0.051381044 -0.16620713
0002c0 b2 b0 65 bd f2 90 2c 3e 28 fa b5 3e b1 df 29 bc
       -0.056076713 0.16852167 0.35542417 -0.010368274
0002d0 43 58 b5 3d d4 db c9 3c 19 3c 89 3a 89 95 b2 3e
       0.08854725 0.024640955 0.0010470181 0.3487971
0002e0 83 1d cb bd f5 6b a1 be 2d db 88 be 8d 15 e8 bc
       -0.09917738 -0.31527677 -0.26729718 -0.028330589
0002f0 ed e4 89 be 3f b9 06 be fd 5e 99 be 66 f0 a0 be
       -0.2693247 -0.13156603 -0.29955283 -0.3143341
000300 53 a2 8f be aa 57 a9 3e de ed a9 be 98 9a 8c bd
       -0.2805353 0.33074695 -0.3318929 -0.06865424
000310 14 59 b0 3d 26 f8 c5 3e f6 e7 8c 3e da eb 24 3e
       0.0861074 0.38665885 0.27520722 0.16105595
000320 59 67 45 bd 51 b0 b4 3c 2c 49 bb 3d e3 4b de 3d
       -0.048194263 0.02205673 0.09144816 0.10854318
000330 68 98 bb be 4c 1d e0 3d cb a1 c3 3e e3 3b 47 3d
       -0.36639714 0.10943088 0.38209376 0.048641097
000340 98 91 85 3d f9 4b 81 3e 5a 17 98 be b3 9f 87 bd
       0.065219104 0.25253275 -0.29705316 -0.06622257
000350 94 40 90 3e f1 f4 60 3d 66 97 02 3e dc 56 aa 3e
       0.2817427 0.054921094 0.12753066 0.33269393
000360 ca 9d 45 bd d0 de 73 be a0 ba 61 3e ba a6 77 3e
       -0.048246183 -0.23815465 0.22043848 0.24184695
000370 72 f8 64 bd 73 d5 8e bd 92 1f 66 3e 6c a1 9e 3e
       -0.055901 -0.06974306 0.2247298 0.3098253
000380 87 58 b2 be 76 2e 3e be 47 e7 a0 be 59 fd 88 be
       -0.34833166 -0.18572411 -0.3142645 -0.2675579
000390 35 29 bb 3e c9 99 b4 bd a1 13 ed bd bb b1 c0 be
       0.36554876 -0.08818395 -0.115760095 -0.37635598
0003a0 86 3d 24 3e 6a 94 5e bd f6 b8 77 be 8c 47 b6 3e
       0.16039094 -0.054340757 -0.24191651 0.3560146
0003b0 ab 53 b8 3e a1 94 c1 3e 4d 54 27 3e 6d fb 3d be
       0.36001334 0.37808707 0.16340752 -0.18552943
0003c0 da 73 93 3d fa 9c 58 3e 8c 7f a8 3e 3c c1 2d bc
       0.07199831 0.21153632 0.3290981 -0.010605153
0003d0 71 d0 0c 3e 13 94 90 3e 33 d8 6f be a7 14 a8 3e
       0.13751389 0.28237972 -0.23422317 0.32828256
0003e0 08 4d 50 3e 08 8c 90 3e 8b 03 93 3e 68 04 ad 3e
       0.20341885 0.28231835 0.2871364 0.33792424
0003f0 44 25 53 be 9e 28 56 3e f9 fd c8 3d 77 27 65 bc
       -0.20619684 0.20913932 0.098140664 -0.01398646

blocks.0.mlp.fc2.bias f4 [8]
000000 77 e2 9d 3b 3c 7a 1c 3c 70 c7 dd ba 52 c7 be bb
       0.0048182565 0.009550627 -0.0016920399 -0.0058221007
000010 f4 b9 24 3a 9b 78 82 bb 15 53 b8 b8 7e 6b d4 3a
       0.00062838127 -0.0039816624 -8.789279e-05 0.0016206352

blocks.1.norm1.weight f4 [8]
000000 ef 47 7d 3f fd d4 7d 3f 1d 94 80 3f 77 b7 7e 3f
       0.98937887 0.9915312 1.00452 0.99498695
000010 45 6e 7d 3f d8 92 80 3f 55 52 7e 3f 7f 34 7e 3f
       0.9899638 1.0044813 0.9934438 0.9929885

blocks.1.norm1.bias f4 [8]
000000 e3 f6 3c 3b d8 88 c1 ba 1b 51 cd 3a 20 59 3f 3b
       0.002883368 -0.0014765514 0.001566443 0.002919741
000010 e0 66 94 3b a0 17 7a bc 8d 55 26 3b 9d 30 65 3b
       0.004528865 -0.015264422 0.0025380582 0.0034971603

blocks.1.attn.qkv.weight f4 [24, 8]
000000 69 b3 90 be 31 bf bb be aa 72 ac be 99 fe c2 3e
       -0.2826188 -0.36669305 -0.33681232 0.38084868
000010 78 90 c4 be 1a a5 49 3d da ab 98 be 11 f8 5e be
       -0.3839147 0.04922972 -0.29818612 -0.21774317
000020 46 3a 88 3e 42 a9 84 3e ea 75 9c bd ce 89 be be
       0.2660696 0.25910383 -0.07639678 -0.37214512
000030 f5 01 70 be 32 84 b5 3e 16 9c 4d be d4 0e 42 3e
       -0.23438247 0.3545242 -0.20079073 0.18950969
000040 51 f8 b6 3e 8e 21 52 3e 56 c4 97 3e 79 67 90 3d
       0.35736325 0.20520613 0.2964198 0.07050986
000050 3f 0a ea 3d 58 4d a0 3e ee 22 c0 3e 90 4f 3d bd
       0.114277355 0.3130901 0.3752665 -0.046218455
000060 51 2f 90 3d 62 69 c5 bd 7b 2f f8 bd 59 d6 ba 3e
       0.07040275 -0.09639241 -0.12118431 0.3649166
000070 8a 8e c1 3e 12 c1 c7 be ab 04 7a 3e 1c 99 a5 be
       0.3780406 -0.39014488 0.24415843 -0.32343376
000080 0e b5 8f 3e 14 fe 79 be 29 12 a8 be 58 57 10 be
       0.2806782 -0.2441333 -0.32826355 -0.14095819
000090 9b fd a3 3e 84 9e 6a bd 27 67 c6 bd cb a3 90 be
       0.32029423 -0.05728008 -0.096876435 -0.28249964
0000a0 48 ae 2e 3e 97 86 bf 3e b2 6e 90 3e 70 87 8f 3e
       0.1705867 0.3740737 0.28209454 0.28033018
0000b0 83 11 c3 be 99 f8 a0 3e ad 61 ce be a6 c1 d1 bd
       -0.38099298 0.31439665 -0.40308896 -0.10242014
0000c0 ec fe 9c be e6 11 0a be 70 aa 7a be ae 87 89 be
       -0.3066324 -0.1348339 -0.24479079 -0.26861328
0000d0 56 4d 97 3d 6c 24 d8 be 10 c3 e9 bd e0 fa 02 3e
       0.073877975 -0.42215288 -0.11414158 0.12791014
0000e0 59 e9 d2 be 96 39 38 bd 06 0d 9c be 26 e2 1e 3e
       -0.41193655 -0.044976793 -0.30478686 0.15515956
0000f0 bf e4 62 be 5a e1 86 bc 28 1d 99 be 0f 1b 9b be
       -0.22157572 -0.016464878 -0.29905057 -0.30294082
000100 b2 c6 12 3e 3a 1e ee bd dd 5b 60 be f0 00 66 be
       0.14333609 -0.11626859 -0.21910043 -0.22461295
000110 e8 62 d3 be ce 6c db 3d 78 46 0f 3d 65 58 78 3e
       -0.41286397 0.10714112 0.034979314 0.2425247
000120 4d 60 a0 bd 5b 58 8e be f3 04 c9 be de 6a aa 3d
       -0.07830868 -0.27801785 -0.39261588 0.083211645
000130 3b fb 91 bd 55 8b 38 3e a9 69 cb 3b 83 8b 26 3d
       -0.071279965 0.18021901 0.006207664 0.040660392
000140 99 72 71 be 7c e0 a9 3e 68 d7 f1 3d db 34 48 3d
       -0.23578872 0.3317908 0.118086636 0.048878532
000150 7f 9b ef 3d 11 51 c3 3e fb ad 8a be 18 53 95 bd
       0.116995804 0.38147786 -0.27085862 -0.072912395
000160 02 3a 98 3e 03 4f 21 be 10 6f 43 3e 52 6a 9f be
       0.29731756 -0.15752797 0.19085336 -0.31135803
000170 4a b5 77 3e 5b 30 27 be 13 fe 31 3e cb 29 7b be
       0.2419025 -0.1632704 0.17382078 -0.24527662
000180 85 43 b2 3e 68 4f 3c be b8 b6 09 be a3 7d 0c 3e
       0.34817138 -0.18389666 -0.13448608 0.13719802
000190 45 b4 c7 3e 8a e9 38 3d 7d 42 aa 3e a6 97 9e be
       0.39004722 0.045144595 0.33253852 -0.30975074
0001a0 54 5f f1 bc e3 4a f9 bc ff 4e e4 bd 68 bb 3f 3e
       -0.029464401 -0.030431217 -0.1114788 0.18723834
0001b0 c1 07 6a 3e da b1 c8 be 83 79 5d 3e 51 61 7e 3e
       0.2285452 -0.3919819 0.21628384 0.24841811
0001c0 3e 57 13 3e 2f e6 d2 be 5f e7 e5 3c fd e1 8a be
       0.14388749 -0.4119124 0.028064428 -0.2712554
0001d0 2b 82 aa 3e 70 53 a4 3e 34 10 bd 3d 27 96 4e 3e
       0.33302435 0.32094908 0.09231606 0.20174466
0001e0 ec 41 b1 be 3a 12 94 bd ff d1 58 be 77 61 28 be
       -0.34620607 -0.07230039 -0.21173857 -0.1644343
0001f0 2d c8 bf be 6e 86 90 3e 7e b1 b7 be 90 5a d4 be
       -0.3745741 0.28227562 -0.35877603 -0.41475344
000200 e5 2a b7 3e 05 06 3f 3e e8 73 70 bd 51 17 b0 be
       0.35774913 0.1865464 -0.058704287 -0.3439279
000210 49 a9 39 3d cb 93 b4 3e ad f3 9d be 73 81 f2 bd
       0.04532746 0.35269007 -0.30849972 -0.11841097
000220 3d 3c 6f be 93 b5 aa 3e ff 49 76 bc ce 60 9a 3e
       -0.23362823 0.33341655 -0.0150322905 0.3015198
000230 c6 94 d7 be 30 b7 c2 3e f2 45 46 be bd 93 98 be
       -0.42105693 0.38030386 -0.1936262 -0.29800215
000240 81 cf 2d be 44 42 c6 3c aa 8c c8 3e 5b 52 90 bd
       -0.16973688 0.02420152 0.39169818 -0.07046958
000250 de 45 84 be 49 16 0a be b9 c6 2d be 6f a6 50 3e
       -0.25834554 -0.13485064 -0.16970338 0.2037599
000260 79 75 ce 3e fd b5 92 3e fb 83 c2 be c5 dd fd bc
       0.40324 0.2865447 -0.37991318 -0.030989537
000270 af 0c ab 3e 2d 8d 79 3d 93 fa c8 3e 48 93 95 be
       0.33408114 0.06092565 0.39253673 -0.2921393
000280 fd cb 10 3d ab f7 e4 bd 04 dc 27 3e aa 10 cb be
       0.03535079 -0.111800514 0.16392523 -0.3966115
000290 8a d7 ba 3e d7 d3 95 3e 9a df a7 be 08 bd 97 3e
       0.36492568 0.29263183 -0.32787782 0.29636407
0002a0 6a 27 28 3e 96 59 bd 3e 10 69 c2 3e ee a9 9f 3e
       0.16421285 0.3698241 0.3797078 0.31184334
0002b0 0e 00 7f be 77 a7 0f 3e 15 11 60 ba af cf 38 3e
       -0.24902365 0.14028727 -0.00085474673 0.18047975
0002c0 ec df d9 be 05 8e 98 3d f2 3f da be 1a 80 c1 bb
       -0.4255365 0.07448963 -0.4262691 -0.0059051635
0002d0 5a ce e0 bd 40 56 15 3e cb 28 34 3e 7d 70 1e be
       -0.109768584 0.14583683 0.17593686 -0.15472598
0002e0 b7 24 57 be 61 83 80 3e 13 83 98 3e 2e 99 b8 be
       -0.210101 0.25100234 0.29787502 -0.36054367
0002f0 0e 41 26 bc 1d e7 39 bd 8d 32 9d be f4 e0 1d be
       -0.010147346 -0.045386422 -0.3070263 -0.15417844

blocks.1.attn.qkv.bias f4 [24]
000000 12 38 13 3c 52 9d 76 3c a2 ec a7 ba 0e 68 ad 3b
       0.008985536 0.0150521565 -0.0012811611 0.0052919453
000010 5d 75 a6 3a d8 51 8e 3b 4d 5a 36 3c 5a a2 da 3a
       0.0012699772 0.0043432526 0.011129928 0.0016680465
000020 28 f1 33 35 c8 9d e2 b7 88 c1 43 b7 d4 1d 1a b8
       6.7033625e-07 -2.7014772e-05 -1.1667966e-05 -3.674424e-05
000030 35 42 4c 38 f5 23 14 37 14 4c d6 b6 21 25 e9 b6
       4.869905e-05 8.829859e-06 -6.3865537e-06 -6.9482635e-06
000040 68 b7 e0 bb 1f 24 f4 bb 04 b5 0d bc 50 5c 83 bb
       -0.006857801 -0.007450595 -0.0086491145 -0.0040088072
000050 97 2c f7 ba c1 3e f7 3b 75 53 71 bb bf f3 42 ba
       -0.0018857893 0.0075453226 -0.0036823426 -0.00074368337

blocks.1.attn.proj.weight f4 [8, 8]
000000 27 0b 06 3e 9f 64 83 3e 39 45 f6 3e 17 f9 f2 3e
       0.13090192 0.25662705 0.48099688 0.47455665
000010 72 c6 54 be 12 2d 03 3c ac fd 11 3f ba 46 c1 3e
       -0.20778826 0.008006351 0.570277 0.37749273
000020 33 d7 05 bf ba 27 00 bf 95 d2 af be 87 94 3b 3d
       -0.5228149 -0.5006062 -0.3434035 0.045795944
000030 0d ed 04 bf 98 3c 13 3f b8 d7 76 bd 5f 92 0b bf
       -0.5192421 0.57514334 -0.06026432 -0.5452022
000040 03 24 9e be 9a 08 bf be 62 a5 0b 3f aa 18 e1 3e
       -0.3088685 -0.3731125 0.5454923 0.4396413
000050 b1 24 87 3e 00 a9 fa be 4e fa 14 3e ed f6 0f bf
       0.2639518 -0.48957062 0.14548609 -0.56236154
000060 cd 22 80 3e 98 d9 90 3e 9c 75 fc 3e 75 6b f6 3e
       0.2502655 0.2829101 0.4930848 0.48128858
000070 84 f3 0b bf ba fc 10 3e 1b 90 c9 3e 32 fc ab be
       -0.5466845 0.14158908 0.39367756 -0.33590847
000080 e3 8f 95 3c 3f 15 b7 3e f9 cf 83 3e ae 69 0d bf
       0.018257087 0.35758397 0.25744608 -0.5523938
000090 87 a9 98 be 1c b0 5e 3e ed 2d ac 3c 35 90 c3 3e
       -0.2981684 0.21746868 0.021017993 0.3819596
0000a0 19 f3 15 bf 07 04 a5 3e c4 1f 8b be c3 76 ea 3c
       -0.5857406 0.32229635 -0.27172673 0.028621083
0000b0 02 3a b3 be d2 2b 90 be 1c 73 8e 3e 36 1e 74 be
       -0.35005194 -0.28158432 0.27822196 -0.2383965
0000c0 a7 c8 ba 3e 30 71 a4 be 97 75 44 3e 02 e6 d5 3e
       0.3648121 -0.32117605 0.19185482 0.41777045
0000d0 03 e7 b4 3e f1 13 45 be 38 ab c9 be 9f a6 5c 3e
       0.35332498 -0.19245888 -0.39388442 0.21547936
0000e0 c7 a0 02 3f c3 73 13 bf 5c 92 a8 3e 1a 7d 9a be
       0.51026577 -0.57598513 0.32924163 -0.3017357
0000f0 a4 d8 16 3f a3 d4 a5 be 70 96 13 3f 73 49 9c 3e
       0.5892432 -0.3238879 0.57651424 0.30524787

blocks.1.attn.proj.bias f4 [8]
000000 62 1d 1f 3b 00 b0 19 3c a3 98 bb bb 2a 0b 35 bc
       0.0024278988 0.009380341 -0.005724983 -0.011050025
000010 e2 09 96 ba e0 a1 97 ba da 6b b1 3a 64 5f e7 3a
       -0.0011447037 -0.0011568628 0.0013536171 0.001765233

blocks.1.norm2.weight f4 [8]
000000 91 c3 7c 3f 48 06 7d 3f 9e 1a 7e 3f 62 1a 80 3f
       0.9873591 0.9883771 0.99259365 1.0008051
000010 d2 8c 7c 3f 78 0a 81 3f e5 3a 79 3f 38 70 80 3f
       0.98652375 1.008132 0.9735549 1.0034246

blocks.1.norm2.bias f4 [8]
000000 cb 29 0c bc 5e bf f0 bb 07 27 09 3b a3 cc 31 3c
       -0.008554886 -0.0073470315 0.0020927803 0.010852012
000010 e7 80 01 3c 76 f2 cc bb 07 15 7f 3c c5 a9 79 bb
       0.007904268 -0.0062544895 0.015568978 -0.0038095575

blocks.1.mlp.fc1.weight f4 [32, 8]
000000 bc 66 40 bd 69 c6 b8 3e b4 f1 47 be 99 fb 02 3c
       -0.046972975 0.36088875 -0.19525796 0.007994556
000010 b8 1d 7d 3e ec 3f 98 3e c5 6b 8f bd 29 17 6e 3e
       0.24718368 0.2973627 -0.07002977 0.23251022
000020 32 5c 8c bd 62 17 ea bd b2 7b 37 3e 06 89 ba 3e
       -0.06853522 -0.11430241 0.1791828 0.36432666
000030 d5 f4 d6 bd a1 5e a5 be 1f 4a 3c be e0 4b 34 be
       -0.10495917 -0.3229876 -0.1838765 -0.17607069
000040 59 b8 ec 3d 95 29 38 be 62 80 fd bc 12 a7 ac 3e
       0.11558599 -0.17984612 -0.030945007 0.33721215
000050 fd 2f c3 3e 48 8d c6 bd 5e 8f b1 be 5b d5 e0 bd
       0.3812255 -0.09694916 -0.34679693 -0.10978194
000060 00 d0 ba be f6 11 05 be 35 80 60 3d 6b e8 a3 3e
       -0.36486816 -0.12995133 0.054809768 0.32013258
000070 26 80 48 3d 1f ae ca bd 92 2c b1 bd 7d 7a 97 3d
       0.048950337 -0.09896492 -0.08651079 0.0739641
000080 c7 6c b2 3e 98 2c d3 bc 39 9b b6 3e 72 c8 89 3e
       0.34848616 -0.0257781 0.356653 0.2691074
000090 39 3d a9 3e 7f bd 98 3e fa 18 3b 3e bb 99 2c 3e
       0.33054522 0.29832074 0.18271247 0.16855519
0000a0 5d f6 a7 3e 99 9f 8e 3e 1c d5 87 3e 24 c1 ac 3d
       0.32805148 0.27856138 0.26529777 0.08435276
0000b0 40 09 e9 bb b5 fb a3 be 4a d2 d0 bc e4 63 af 3e
       -0.0071116984 -0.32027975 -0.025490899 0.34255898
0000c0 fa 10 86 be 00 52 94 bd 7d 70 21 be bb f6 c0 be
       -0.26184827 -0.07242203 -0.15765567 -0.3768824
0000d0 0c cb 26 be b7 57 d7 3d ae b5 be 3e 23 d4 b8 be
       -0.16288394 0.10514777 0.37247986 -0.36099347
0000e0 1e 44 b2 be a7 77 a3 3e 04 fe a6 3e e5 fb 3c 3e
       -0.34817594 0.31927225 0.32615674 0.18455465
0000f0 e8 be 8b 3e d6 ae 70 3d d0 26 74 3e 7a 13 b8 be
       0.27294087 0.058760487 0.23842931 -0.3595236
000100 68 05 7c be ad 5a 25 3d 20 c3 a7 be 5c bf 25 be
       -0.24611437 0.04036968 -0.32766056 -0.16186279
000110 f5 54 93 3e 26 78 90 3e 73 b8 a4 be 59 d4 88 be
       0.28775755 0.28216666 -0.32171974 -0.26724508
000120 da 81 c8 be cf ab 92 3d c9 21 44 be a7 d3 02 bb
       -0.3916157 0.07161676 -0.19153513 -0.001996258
000130 15 7f 9f 3e 45 94 9d 3e aa 51 b2 3d 9e 9f 6a 3d
       0.31151643 0.30777183 0.087069824 0.05728113
000140 95 97 97 3e d1 75 a1 be cc 27 14 be 80 31 31 be
       0.29607835 -0.315352 -0.14468306 -0.17304039
000150 06 82 86 3e 3c af c7 be d2 8b 61 3e 1f 27 f5 3c
       0.26271075 -0.3900088 0.22025993 0.029925881
000160 a8 ec 6c 3d 51 79 42 be df b4 4f be 63 98 9e 3b
       0.05784288 -0.18991591 -0.2028384 0.0048399433
000170 f8 6e 4d be a1 18 f0 bd 63 0b 17 3d 78 90 3b be
       -0.20061862 -0.117234476 0.036876094 -0.18316829
000180 f0 4f 29 3e 53 90 1b be d2 d7 86 be d1 83 33 be
       0.165344 -0.15191774 -0.26336533 -0.17530753
000190 e0 53 14 be 4f 2d 44 be 0f 61 8f be c4 b9 b6 bd
       -0.14485121 -0.19157909 -0.28003737 -0.08922151
0001a0 2a 24 6f 3d 8a 81 97 3e 29 96 bf 3e f5 9d 9d be
       0.058384098 0.29591018 0.3741925 -0.30784574
0001b0 45 05 8e 3e 3d 3c c3 bc 1b 5d 25 be 08 5c a6 3d
       0.27738395 -0.023832435 -0.16148798 0.08123022
0001c0 24 74 aa be 06 fe 81 3e 9a 67 ea bd b5 e6 86 be
       -0.33291733 0.25389117 -0.11445542 -0.2634789
0001d0 6f 95 9f bd 07 4e 79 3e 4d 16 b6 bd 0f e8 8c 3e
       -0.07792174 0.24346171 -0.08890972 0.27520797
0001e0 14 f3 5c 3d f4 4a ad be cc e0 90 be ac ed eb 3c
       0.053942755 -0.33846247 -0.28296506 0.028799854
0001f0 77 8e 70 be c7 fc 0b be b4 4c f4 3d 08 2e 27 3e
       -0.23491846 -0.13670646 0.119286925 0.16326153
000200 ab 09 02 3c 97 ac 11 3c f4 22 46 be 8f 4a a9 be
       0.007936875 0.008891246 -0.19349271 -0.33064696
000210 39 bf b0 be 3b c3 33 3e b0 68 af be cd 0a 42 be
       -0.3452089 0.17554943 -0.34259558 -0.18949433
000220 75 e9 90 3c a9 01 88 3e 0c 9e a3 be 4e b1 bc be
       0.017689446 0.26563767 -0.31956518 -0.36854023
000230 74 b8 b8 be d5 f1 01 3e ec f7 37 be 63 f9 03 be
       -0.36078227 0.12689908 -0.17965668 -0.12888102
000240 a6 5d 20 3e cf 75 0b 3e eb 2b 4e be 36 ce bc be
       0.15660724 0.13619159 -0.20133941 -0.36876076
000250 be 7f 2f be e4 ea 82 3e 73 1e 8e bd 4a 75 4a 3e
       -0.17138574 0.25569832 -0.069394015 0.19771305
000260 76 42 b8 3e d3 0b a5 be 89 74 eb 3c d8 28 81 bd
       0.35988206 -0.32235584 0.028742092 -0.063066185
000270 d1 4d 87 3c c4 eb ee bd 9b 5f 4c 3e d6 53 89 3e
       0.016516598 -0.116660625 0.19958346 0.26821774
000280 25 7d a3 be da 2b 79 3e 21 da 5e be bb fd e5 3d
       -0.31931415 0.24333134 -0.21762897 0.11230036
000290 9f 42 89 3d 91 fe 30 3d 04 bc 06 be 49 77 83 bd
       0.0670216 0.043211523 -0.1315766 -0.06419236
0002a0 bb 21 88 be 01 5c ea bd 19 28 81 bd 74 b1 ea bd
       -0.26588234 -0.114433296 -0.06306476 -0.11459628
0002b0 9b bd a2 be bd b8 c3 3e 7c d4 11 be ba ae 7c be
       -0.31785282 0.38226882 -0.14241213 -0.24676028
0002c0 4f 44 bd 3e ae 56 a0 3e 54 62 59 3e 98 19 9e 3e
       0.36966178 0.3131613 0.21228915 0.308789
0002d0 30 13 05 3e 33 bd 0a bd 28 94 87 3d ab fd 96 3d
       0.129956 -0.03387184 0.066200554 0.07372602
0002e0 b6 29 9f 3e cb 7e 62 be 25 95 33 3e 55 00 d6 bd
       0.3108651 -0.2211868 0.17537363 -0.10449282
0002f0 d0 e0 ba 3e 3c 37 87 be 40 df 36 3c ef 8e 49 3e
       0.36499643 -0.26409328 0.011161625 0.19683431
000300 36 96 e7 bd 7f 65 a1 3e fe ab d3 bd 46 c8 c1 3d
       -0.11307947 0.31522748 -0.10335539 0.09462027
000310 85 3d 45 be 67 40 12 3d d8 7a a6 be b9 c9 67 3e
       -0.19261749 0.03570595 -0.32515597 0.22635545
000320 4a 4c 7b be 4e 1a cd bd f4 ce 62 be ee d1 d0 3d
       -0.2454082 -0.10014783 -0.22149259 0.10196291
000330 a2 41 c6 3d 60 2d 23 bd db 90 a2 be 55 ba cc bc
       0.09680487 -0.039838195 -0.3175114 -0.024991194
000340 64 f4 0a bd 47 d2 71 3e 70 3d b6 3e 97 80 be 3d
       -0.033924475 0.2361537 0.35593748 0.0930187
000350 2e 24 8b bb 09 c7 99 bd 28 cf 0f bd 1f ce 42 3c
       -0.0042462563 -0.07508666 -0.03510967 0.011889963
000360 9f 2e af bd c6 e1 a5 be 8a 57 0b 3e aa bd 80 3e
       -0.08553814 -0.32398814 0.13607612 0.25144702
000370 47 60 3d 3d a8 c1 8d be e7 86 6c 3e 2e 21 cd bd
       0.046234395 -0.2768681 0.23098336 -0.10016094
000380 34 09 7a 3c c7 1e be bd 2d 14 a2 bc b8 cc da bd
       0.015260983 -0.09283214 -0.019785011 -0.10683578
000390 f2 35 5a be a3 67 a9 be 4a c6 aa be 6b d2 0a bd
       -0.21309641 -0.3308688 -0.33354408 -0.033892076
0003a0 77 1e be be 80 dd 4d bd f9 68 ea bd 87 fc 8a be
       -0.37132618 -0.050260067 -0.11445803 -0.27145788
0003b0 64 74 82 be 6e 5f 90 3e c0 5c d0 bb b5 0b b4 be
       -0.25479424 0.28197807 -0.006358713 -0.35165182
0003c0 e3 41 ba be 14 04 8b 3e bb 55 c8 3d 84 17 55 3e
       -0.36378393 0.2715155 0.09781977 0.20809752
0003d0 28 03 94 3e 7a 29 9e 3e 68 05 38 be e6 5b a5 3e
       0.28908658 0.3089102 -0.17970812 0.32296675
0003e0 0c d7 f9 3d 09 29 78 be 41 b4 46 be 9f 02 c1 be
       0.1219922 -0.24234404 -0.19404699 -0.37697312
0003f0 d4 1d 13 3e d7 27 cc bd 7a b9 dc bd 48 b1 c3 3e
       0.14366847 -0.09968536 -0.10777564 0.38221192

blocks.1.mlp.fc1.bias f4 [32]
000000 c0 5c cf bb 18 58 79 3a 71 ab 36 bc 45 cb 53 3c
       -0.0063281953 0.0009511723 -0.011149273 0.012926881
000010 40 70 2e 3c 67 9d 80 3c 67 4e af 3b 66 95 3b 3c
       0.01064688 0.015700055 0.0053499225 0.011449194
000020 04 66 ec 3b fa ad 60 3c 76 66 db bb f3 5f ed bb
       0.0072143096 0.013713354 -0.006695564 -0.007244104
000030 bc 84 b7 3b f7 ef 8d bb cd 5b 92 3b 29 d2 8b 3c
       0.00560054 -0.0043315846 0.00446651 0.017067986
000040 34 2f e3 bb 82 fd cb 3b cc 3e 40 bc 79 db 21 bc
       -0.0069331173 0.006225289 -0.011733722 -0.0098789865
000050 3c 9b 0b bc 08 9c f8 3a 85 4f 7c 3b 55 77 a6 ba
       -0.0085208975 0.0018967399 0.0038499546 -0.0012700359
000060 25 e4 a6 bb 9f 99 86 3b 3e 28 18 bc 18 4e 28 3c
       -0.005093115 0.0041076685 -0.009286938 0.010272525
000070 76 1e e4 3b ad 05 13 bc fb b2 26 ba b0 eb af bb
       0.006961639 -0.008973521 -0.00063590676 -0.0053686723

blocks.1.mlp.fc2.weight f4 [8, 32]
000000 95 a7 85 3e e2 02 a3 3e f9 fb 97 be 1e e5 c1 3e
       0.26104417 0.31838137 -0.29684427 0.37870115
000010 96 e3 b0 3e aa f2 3f bd ba e3 22 bc 60 97 43 be
       0.34548634 -0.04686228 -0.00994199 -0.19100714
000020 c3 bd 62 3e ca 70 90 3e 4b aa 58 be d9 12 88 3e
       0.22142701 0.2821105 -0.21158712 0.2657688
000030 ed e7 2b 3e 29 4e b3 be 0e f0 3b be db d2 a0 3e
       0.16787691 -0.3502057 -0.18353292 0.3141087
000040 21 5d 9d be 24 cc 99 3e 6b cf 29 be 36 08 b6 be
       -0.30735114 0.3003856 -0.1658303 -0.3555314
000050 a7 50 71 be a1 cd ac be 5b 32 8f be 0c 48 ed 3d
       -0.23565923 -0.33750632 -0.27968106 0.115860075
000060 54 40 07 3e 24 e4 7d 3e fa 29 f0 3d b6 38 10 bd
       0.13208133 0.2479406 0.117267564 -0.035210334
000070 88 a6 8a 3e 23 77 b6 3e 71 05 33 be 67 06 61 3e
       0.27080178 0.3563777 -0.17482544 0.21975099
000080 fc 01 86 bd 9a 71 84 be 42 f3 3a bd a1 81 8f 3e
       -0.06543347 -0.2586792 -0.045642145 0.28028587
000090 1a b4 c0 bc d8 69 24 bc e8 ab 2f be 72 41 a6 3e
       -0.02352338 -0.010035001 -0.17155421 0.32471806
0000a0 03 0a d3 bd ef cc 44 3e 5a 52 a2 3e 91 62 77 3d
       -0.10304644 0.19218801 0.31703454 0.060396735
0000b0 91 1d 3e 3e c2 a0 94 3e 27 35 7f 3e 84 8c bc 3e
       0.18565966 0.29028898 0.2492262 0.36825955
0000c0 fe ae a7 3d 0f 70 34 3e af 45 ac be 84 ec 97 3e
       0.08187674 0.17620872 -0.33646914 0.29672635
0000d0 d1 63 60 3e a8 6b b3 bc 3c 73 f9 3d 82 e1 23 3e
       0.21913077 -0.02190192 0.12180182 0.16003993
0000e0 6f 57 59 be 76 15 6d bd 25 78 ae be cc db 3e bd
       -0.2122476 -0.057881795 -0.34076038 -0.046596333
0000f0 96 fd 86 3e 2d 67 6a be 38 20 6b bd 51 86 73 3e
       0.26365346 -0.22890921 -0.057403773 0.23781706
000100 13 ed 92 be 85 eb b1 be d6 5c 69 3e 0d e1 ef 3d
       -0.28696498 -0.3475 0.2278932 0.11712847
000110 46 0f b1 3e 1a 2a 23 bd 97 33 76 be fc 52 b6 be
       0.34581965 -0.039835073 -0.24043117 -0.35610187
000120 ec 58 93 bd 1c 93 a3 3e 9e cb 56 be 19 92 94 3e
       -0.07194695 0.31948173 -0.20976111 0.29017714
000130 3b b2 e5 bc 7c a6 8b 3e 8f 28 04 bc dc 4f b9 3e
       -0.028039088 0.27275455 -0.008066311 0.3619374
000140 f1 0d 2c be f6 86 41 3e 52 09 8d 3e 8e 83 2f 3e
       -0.16802193 0.1889914 0.27546173 0.17140028
000150 28 1d a3 3e af 1b ab 3e b1 ec a5 be 98 f8 41 3e
       0.31858182 0.33419558 -0.32407144 0.18942487
000160 c8 8e a7 be b3 88 99 3e c5 c7 91 3e e0 fb 31 3e
       -0.3272612 0.29987106 0.28472725 0.17381239
000170 25 8c a9 be 53 25 5f be a3 ba 83 3e a4 61 18 be
       -0.33114734 -0.21791582 0.2572833 -0.14880997
000180 55 ee 89 3e ad c2 17 3b 56 9b a8 3e f4 78 4c be
       0.26939645 0.0023156807 0.32931012 -0.19968015
000190 27 75 b8 be d4 5e 87 be cd 20 d5 3c ce f3 be 38
       -0.3602688 -0.26439536 0.026016617 9.105318e-05
0001a0 60 06 96 bd 2c f1 93 be 25 eb 02 be 31 13 5d 3e
       -0.07325435 -0.28894937 -0.12785013 0.21589352
0001b0 ab 71 46 3d 56 45 dd 3d 56 6d 88 be 5e 37 9f be
       0.048448246 0.108042404 -0.26645917 -0.3109693
0001c0 40 db ac 3e 48 5d e5 3d bb 93 2f 3c 08 f1 bb be
       0.33761024 0.111994326 0.010716374 -0.3670733
0001d0 d8 ca a3 3e 51 2c cb be cd b4 81 3b 80 4a aa 3d
       0.31990695 -0.39682248 0.0039583207 0.08314991
0001e0 48 fa a2 3e 33 62 80 be f2 d7 91 3e d6 6c bc be
       0.31831574 -0.2507492 0.28485066 -0.36801785
0001f0 5f 52 90 3e 2d 93 89 3e 92 31 8f be 64 28 3c be
       0.28187844 0.268701 -0.27967507 -0.18374783
000200 eb 5a fd 3d 21 21 be 3d 89 23 68 be d2 23 74 3e
       0.12370857 0.092836626 -0.22669806 0.2384179
000210 e9 da 68 3e 0e 0f 96 be 8c 32 da 3c 0b 2a 02 3e
       0.22739758 -0.2930836 0.02663543 0.1271135
000220 fe e2 3d 3e 8b e6 5b bd 47 9d 92 be 7a 59 b7 3e
       0.18543622 -0.05368666 -0.28635618 0.35810453
000230 b8 57 94 be da ff 60 be 1c 1c 8d 3e d3 61 3f 3e
       -0.28973174 -0.219726 0.27560508 0.1868966
000240 1c 91 5d be 17 1a 4d be 5d 96 69 be 9d 64 59 be
       -0.21637386 -0.20029484 -0.22811265 -0.21229787
000250 da 64 b1 3e 14 80 79 be 4e d8 bd bd fc cc 5f 3d
       0.34647256 -0.24365264 -0.092697725 0.054638848
000260 59 45 8b be c9 10 f4 bd 36 07 6c 3e aa a5 8d bd
       -0.27201346 -0.11917264 0.23049626 -0.069163635
000270 d9 0e 0e be 0f de 09 3e ee b9 9b 3e a3 52 23 3e
       -0.13872851 0.13463615 0.3041529 0.15949492
000280 c7 e9 9a 3e 6a 63 a2 be 4b a2 65 be b1 2e 2b be
       0.30256483 -0.31716472 -0.22425191 -0.1671703
000290 65 f6 89 be 2b 3f bb 3d 3f 05 5f bd 76 07 95 be
       -0.26945797 0.09142908 -0.054448362 -0.29107255
0002a0 50 7f 2c be 48 5a e9 3d 3b ff a6 be 2b d8 b6 3e
       -0.16845441 0.11394173 -0.326166 0.35711798
0002b0 1f 27 c9 bd 83 43 75 be c1 74 95 be ca 23 8f be
       -0.09821915 -0.23951535 -0.2919064 -0.27956992
0002c0 c8 e3 47 3e b2 24 2e be e2 d9 a6 be dd 02 b0 be
       0.19520485 -0.17006186 -0.32588106 -0.34377185
0002d0 bd 54 3e 3e 6e 8b b5 3e e2 c0 39 be 99 4a 94 be
       0.18587013 0.3545794 -0.18139985 -0.28963163
0002e0 38 6d 00 3e b4 02 14 3d 2a 32 81 be 07 c3 a9 3e
       0.12541664 0.03613539 -0.25233585 0.33156607
0002f0 aa 23 21 3e d9 cc 03 be 0a f0 c4 3e 15 9f 42 be
       0.15736261 -0.12871112 0.38464385 -0.19005997
000300 d6 ad 32 3e 1f 67 84 bd 5a d1 72 be 26 d8 27 bb
       0.17449126 -0.06464981 -0.23712674 -0.0025611012
000310 95 2b 42 be b5 2c 41 be 75 a2 9a be 1a ed ba be
       -0.18961938 -0.1886471 -0.3020207 -0.3650902
000320 30 89 80 3d e6 07 dd 3d fd 51 6b 3e 31 d0 73 3e
       0.062761664 0.10792522 0.22980495 0.23809887
000330 39 46 da bd b2 a4 c2 3e f4 82 b7 3d 19 3f b1 3c
       -0.10657925 0.38016278 0.08960524 0.021636533
000340 ce 9e 72 bd 0f d8 02 3e 94 38 85 3e 1c f4 b4 3d
       -0.05923348 0.12777732 0.26019728 0.08835623
000350 a7 fd d4 bc a1 0a c9 3d b1 ee e9 bd ae 3b c0 be
       -0.025999857 0.098164804 -0.1142248 -0.37545532
000360 83 62 8f be 8d c0 c7 bd 7c b4 7b bd f9 03 a9 be
       -0.28004846 -0.09753523 -0.06145142 -0.33010843
000370 d9 f5 da 3d 54 10 25 be 95 ad 3c be 2a bc 92 3e
       0.10691423 -0.1611951 -0.18425591 0.28659183
000380 c7 fa 9b be 7d 5b c0 3e a8 a7 a9 3e 81 02 ab 3e
       -0.30464765 0.375698 0.33135724 0.33400348
000390 cf 8f fc bc 0e 39 7d 3e 51 97 80 3d 97 9e 3a 3d
       -0.030830292 0.24728796 0.06278861 0.0455614
0003a0 e7 0d 77 3e 3e 40 a7 3e 4b f9 8e 3e 73 c6 66 3e
       0.24126397 0.326662 0.2792457 0.2253664
0003b0 75 8b 00 be 57 6d cb 3d 9c 62 74 3e 76 d1 35 3e
       -0.12553199 0.09932964 0.23865741 0.17755684
0003c0 76 2d b1 3e 13 00 56 3e 73 02 24 3e ce cd e0 bd
       0.34604996 0.20898466 0.1601656 -0.10976754
0003d0 16 46 00 3e a4 10 c6 3e 8f 37 aa be 84 59 1f 3e
       0.12526736 0.3868457 -0.33245513 0.15561491
0003e0 5e bb 31 3d de ad 1f 3c 7d 33 9d 3e 07 cd 90 3d
       0.043391578 0.009746043 0.30703345 0.07070356
0003f0 81 7e 23 3e 2a 25 0f 3e f0 22 87 bb 2b 5a 84 bd
       0.15966226 0.1397902 -0.004124038 -0.06462511

blocks.1.mlp.fc2.bias f4 [8]
000000 6c 14 04 3c 6e 0b 3b 3c e4 7f f2 bb 0e 4f 6b bc
       0.00806151 0.011416299 -0.0074004997 -0.01436211
000010 53 19 43 bb 00 85 8b 3a 02 4a fd bb 93 72 60 3b
       -0.0029769733 0.0010644495 -0.0077297697 0.003424798

blocks.2.norm1.weight f4 [8]
000000 56 57 80 3f 51 2c 80 3f 51 17 7b 3f fe 66 7a 3f
       1.0026653 1.0013524 0.98082453 0.97813404
000010 8f 62 80 3f 67 c8 7e 3f d5 7d 80 3f 64 9c 72 3f
       1.0030078 0.9952454 1.0038401 0.94769883

blocks.2.norm1.bias f4 [8]
000000 30 42 9f bb 69 b4 20 3c 91 fd c7 bb ec 85 84 bc
       -0.004860185 0.009808638 -0.0061032255 -0.01617714
000010 43 d4 60 bc 9f 07 05 bc 37 38 64 bc f1 9d b6 bb
       -0.013722482 -0.008119493 -0.013929418 -0.0055730273
