configs/experiment/best_MNIST_MAE.pth (torch, 105087 bytes, 158 tensors)

cls_token f4 [1, 1, 8]
0	0xbca24b67	-0.019811345
1	0xbc386984	-0.011255626
2	0x3c9f753b	0.01946508
3	0xbab76731	-0.0013992545
4	0x3c7cedc3	0.015437546
5	0xbc6ec623	-0.014573607
6	0xbd2100ef	-0.03930753
7	0x3c3de329	0.011589804

pos_embed f4 [1, 50, 8]
0	0x00000000	0.0
1	0x00000000	0.0
2	0x00000000	0.0
3	0x00000000	0.0
4	0x00000000	0.0
5	0x00000000	0.0
6	0x00000000	0.0
7	0x00000000	0.0
8	0x00000000	0.0
9	0x00000000	0.0
10	0x3f800000	1.0
11	0x3f800000	1.0
12	0x00000000	0.0
13	0x00000000	0.0
14	0x3f800000	1.0
15	0x3f800000	1.0
16	0x3f576aa4	0.84147096
17	0x3c23d657	0.009999833
18	0x3f0a5140	0.5403023
19	0x3f7ffcb9	0.99995
20	0x00000000	0.0
21	0x00000000	0.0
22	0x3f800000	1.0
23	0x3f800000	1.0
24	0x3f68c7b7	0.9092974
25	0x3ca3d43e	0.019998666
26	0xbed51133	-0.41614684
27	0x3f7ff2e5	0.9998
28	0x00000000	0.0
29	0x00000000	0.0
30	0x3f800000	1.0
31	0x3f800000	1.0
32	0x3e1081c3	0.14112
33	0x3cf5b920	0.029995501
34	0xbf7d7026	-0.9899925
35	0x3f7fe283	0.99955004
36	0x00000000	0.0
37	0x00000000	0.0
38	0x3f800000	1.0
39	0x3f800000	1.0
40	0xbf41bdcf	-0.7568025
41	0x3d23cbdb	0.039989334
42	0xbf275530	-0.6536436
43	0x3f7fcb94	0.9992001
44	0x00000000	0.0
45	0x00000000	0.0
46	0x3f800000	1.0
47	0x3f800000	1.0
48	0xbf757c10	-0.9589243
49	0x3d4cb6f5	0.04997917
50	0x3e913c2c	0.2836622
51	0x3f7fae19	0.99875027
52	0x00000000	0.0
53	0x00000000	0.0
54	0x3f800000	1.0
55	0x3f800000	1.0
56	0xbe8f0f8c	-0.2794155
57	0x3d759cd1	0.059964005
58	0x3f75cdb8	0.96017027
59	0x3f7f8a12	0.99820054
60	0x00000000	0.0
61	0x00000000	0.0
62	0x3f800000	1.0
63	0x3f800000	1.0
64	0x00000000	0.0
65	0x00000000	0.0
66	0x3f800000	1.0
67	0x3f800000	1.0
68	0x3f576aa4	0.84147096
69	0x3c23d657	0.009999833
70	0x3f0a5140	0.5403023
71	0x3f7ffcb9	0.99995
72	0x3f576aa4	0.84147096
73	0x3c23d657	0.009999833
74	0x3f0a5140	0.5403023
75	0x3f7ffcb9	0.99995
76	0x3f576aa4	0.84147096
77	0x3c23d657	0.009999833
78	0x3f0a5140	0.5403023
79	0x3f7ffcb9	0.99995
80	0x3f68c7b7	0.9092974
81	0x3ca3d43e	0.019998666
82	0xbed51133	-0.41614684
83	0x3f7ff2e5	0.9998
84	0x3f576aa4	0.84147096
85	0x3c23d657	0.009999833
86	0x3f0a5140	0.5403023
87	0x3f7ffcb9	0.99995
88	0x3e1081c3	0.14112
89	0x3cf5b920	0.029995501
90	0xbf7d7026	-0.9899925
91	0x3f7fe283	0.99955004
92	0x3f576aa4	0.84147096
93	0x3c23d657	0.009999833
94	0x3f0a5140	0.5403023
95	0x3f7ffcb9	0.99995
96	0xbf41bdcf	-0.7568025
97	0x3d23cbdb	0.039989334
98	0xbf275530	-0.6536436
99	0x3f7fcb94	0.9992001
100	0x3f576aa4	0.84147096
101	0x3c23d657	0.009999833
102	0x3f0a5140	0.5403023
103	0x3f7ffcb9	0.99995
104	0xbf757c10	-0.9589243
105	0x3d4cb6f5	0.04997917
106	0x3e913c2c	0.2836622
107	0x3f7fae19	0.99875027
108	0x3f576aa4	0.84147096
109	0x3c23d657	0.009999833
110	0x3f0a5140	0.5403023
111	0x3f7ffcb9	0.99995
112	0xbe8f0f8c	-0.2794155
113	0x3d759cd1	0.059964005
114	0x3f75cdb8	0.96017027
115	0x3f7f8a12	0.99820054
116	0x3f576aa4	0.84147096
117	0x3c23d657	0.009999833
118	0x3f0a5140	0.5403023
119	0x3f7ffcb9	0.99995
120	0x00000000	0.0
121	0x00000000	0.0
122	0x3f800000	1.0
123	0x3f800000	1.0
124	0x3f68c7b7	0.9092974
125	0x3ca3d43e	0.019998666
126	0xbed51133	-0.41614684
127	0x3f7ff2e5	0.9998
128	0x3f576aa4	0.84147096
129	0x3c23d657	0.009999833
130	0x3f0a5140	0.5403023
131	0x3f7ffcb9	0.99995
132	0x3f68c7b7	0.9092974
133	0x3ca3d43e	0.019998666
134	0xbed51133	-0.41614684
135	0x3f7ff2e5	0.9998
136	0x3f68c7b7	0.9092974
137	0x3ca3d43e	0.019998666
138	0xbed51133	-0.41614684
139	0x3f7ff2e5	0.9998
140	0x3f68c7b7	0.9092974
141	0x3ca3d43e	0.019998666
142	0xbed51133	-0.41614684
143	0x3f7ff2e5	0.9998
144	0x3e1081c3	0.14112
145	0x3cf5b920	0.029995501
146	0xbf7d7026	-0.9899925
147	0x3f7fe283	0.99955004
148	0x3f68c7b7	0.9092974
149	0x3ca3d43e	0.019998666
150	0xbed51133	-0.41614684
151	0x3f7ff2e5	0.9998
152	0xbf41bdcf	-0.7568025
153	0x3d23cbdb	0.039989334
154	0xbf275530	-0.6536436
155	0x3f7fcb94	0.9992001
156	0x3f68c7b7	0.9092974
157	0x3ca3d43e	0.019998666
158	0xbed51133	-0.41614684
159	0x3f7ff2e5	0.9998
160	0xbf757c10	-0.9589243
161	0x3d4cb6f5	0.04997917
162	0x3e913c2c	0.2836622
163	0x3f7fae19	0.99875027
164	0x3f68c7b7	0.9092974
165	0x3ca3d43e	0.019998666
166	0xbed51133	-0.41614684
167	0x3f7ff2e5	0.9998
168	0xbe8f0f8c	-0.2794155
169	0x3d759cd1	0.059964005
170	0x3f75cdb8	0.96017027
171	0x3f7f8a12	0.99820054
172	0x3f68c7b7	0.9092974
173	0x3ca3d43e	0.019998666
174	0xbed51133	-0.41614684
175	0x3f7ff2e5	0.9998
176	0x00000000	0.0
177	0x00000000	0.0
178	0x3f800000	1.0
179	0x3f800000	1.0
180	0x3e1081c3	0.14112
181	0x3cf5b920	0.029995501
182	0xbf7d7026	-0.9899925
183	0x3f7fe283	0.99955004
184	0x3f576aa4	0.84147096
185	0x3c23d657	0.009999833
186	0x3f0a5140	0.5403023
187	0x3f7ffcb9	0.99995
188	0x3e1081c3	0.14112
189	0x3cf5b920	0.029995501
190	0xbf7d7026	-0.9899925
191	0x3f7fe283	0.99955004
192	0x3f68c7b7	0.9092974
193	0x3ca3d43e	0.019998666
194	0xbed51133	-0.41614684
195	0x3f7ff2e5	0.9998
196	0x3e1081c3	0.14112
197	0x3cf5b920	0.029995501
198	0xbf7d7026	-0.9899925
199	0x3f7fe283	0.99955004
200	0x3e1081c3	0.14112
201	0x3cf5b920	0.029995501
202	0xbf7d7026	-0.9899925
203	0x3f7fe283	0.99955004
204	0x3e1081c3	0.14112
205	0x3cf5b920	0.029995501
206	0xbf7d7026	-0.9899925
207	0x3f7fe283	0.99955004
208	0xbf41bdcf	-0.7568025
209	0x3d23cbdb	0.039989334
210	0xbf275530	-0.6536436
211	0x3f7fcb94	0.9992001
212	0x3e1081c3	0.14112
213	0x3cf5b920	0.029995501
214	0xbf7d7026	-0.9899925
215	0x3f7fe283	0.99955004
216	0xbf757c10	-0.9589243
217	0x3d4cb6f5	0.04997917
218	0x3e913c2c	0.2836622
219	0x3f7fae19	0.99875027
220	0x3e1081c3	0.14112
221	0x3cf5b920	0.029995501
222	0xbf7d7026	-0.9899925
223	0x3f7fe283	0.99955004
224	0xbe8f0f8c	-0.2794155
225	0x3d759cd1	0.059964005
226	0x3f75cdb8	0.96017027
227	0x3f7f8a12	0.99820054
228	0x3e1081c3	0.14112
229	0x3cf5b920	0.029995501
230	0xbf7d7026	-0.9899925
231	0x3f7fe283	0.99955004
232	0x00000000	0.0
233	0x00000000	0.0
234	0x3f800000	1.0
235	0x3f800000	1.0
236	0xbf41bdcf	-0.7568025
237	0x3d23cbdb	0.039989334
238	0xbf275530	-0.6536436
239	0x3f7fcb94	0.9992001
240	0x3f576aa4	0.84147096
241	0x3c23d657	0.009999833
242	0x3f0a5140	0.5403023
243	0x3f7ffcb9	0.99995
244	0xbf41bdcf	-0.7568025
245	0x3d23cbdb	0.039989334
246	0xbf275530	-0.6536436
247	0x3f7fcb94	0.9992001
248	0x3f68c7b7	0.9092974
249	0x3ca3d43e	0.019998666
250	0xbed51133	-0.41614684
251	0x3f7ff2e5	0.9998
252	0xbf41bdcf	-0.7568025
253	0x3d23cbdb	0.039989334
254	0xbf275530	-0.6536436
255	0x3f7fcb94	0.9992001

mask_token f4 [1, 1, 8]
0	0x3dcd730d	0.1003171
1	0x390153bd	0.00012333594
2	0xbcb3fb3d	-0.021970386
3	0xbcb02291	-0.021500858
4	0xbd34ce04	-0.044141784
5	0xbc105472	-0.008809196
6	0x3cb7ccb7	0.022436483
7	0xbb1bf672	-0.0023798016

decoder_pos_embed f4 [1, 50, 8]
0	0x00000000	0.0
1	0x00000000	0.0
2	0x00000000	0.0
3	0x00000000	0.0
4	0x00000000	0.0
5	0x00000000	0.0
6	0x00000000	0.0
7	0x00000000	0.0
8	0x00000000	0.0
9	0x00000000	0.0
10	0x3f800000	1.0
11	0x3f800000	1.0
12	0x00000000	0.0
13	0x00000000	0.0
14	0x3f800000	1.0
15	0x3f800000	1.0
16	0x3f576aa4	0.84147096
17	0x3c23d657	0.009999833
18	0x3f0a5140	0.5403023
19	0x3f7ffcb9	0.99995
20	0x00000000	0.0
21	0x00000000	0.0
22	0x3f800000	1.0
23	0x3f800000	1.0
24	0x3f68c7b7	0.9092974
25	0x3ca3d43e	0.019998666
26	0xbed51133	-0.41614684
27	0x3f7ff2e5	0.9998
28	0x00000000	0.0
29	0x00000000	0.0
30	0x3f800000	1.0
31	0x3f800000	1.0
32	0x3e1081c3	0.14112
33	0x3cf5b920	0.029995501
34	0xbf7d7026	-0.9899925
35	0x3f7fe283	0.99955004
36	0x00000000	0.0
37	0x00000000	0.0
38	0x3f800000	1.0
39	0x3f800000	1.0
40	0xbf41bdcf	-0.7568025
41	0x3d23cbdb	0.039989334
42	0xbf275530	-0.6536436
43	0x3f7fcb94	0.9992001
44	0x00000000	0.0
45	0x00000000	0.0
46	0x3f800000	1.0
47	0x3f800000	1.0
48	0xbf757c10	-0.9589243
49	0x3d4cb6f5	0.04997917
50	0x3e913c2c	0.2836622
51	0x3f7fae19	0.99875027
52	0x00000000	0.0
53	0x00000000	0.0
54	0x3f800000	1.0
55	0x3f800000	1.0
56	0xbe8f0f8c	-0.2794155
57	0x3d759cd1	0.059964005
58	0x3f75cdb8	0.96017027
59	0x3f7f8a12	0.99820054
60	0x00000000	0.0
61	0x00000000	0.0
62	0x3f800000	1.0
63	0x3f800000	1.0
64	0x00000000	0.0
65	0x00000000	0.0
66	0x3f800000	1.0
67	0x3f800000	1.0
68	0x3f576aa4	0.84147096
69	0x3c23d657	0.009999833
70	0x3f0a5140	0.5403023
71	0x3f7ffcb9	0.99995
72	0x3f576aa4	0.84147096
73	0x3c23d657	0.009999833
74	0x3f0a5140	0.5403023
75	0x3f7ffcb9	0.99995
76	0x3f576aa4	0.84147096
77	0x3c23d657	0.009999833
78	0x3f0a5140	0.5403023
79	0x3f7ffcb9	0.99995
80	0x3f68c7b7	0.9092974
81	0x3ca3d43e	0.019998666
82	0xbed51133	-0.41614684
83	0x3f7ff2e5	0.9998
84	0x3f576aa4	0.84147096
85	0x3c23d657	0.009999833
86	0x3f0a5140	0.5403023
87	0x3f7ffcb9	0.99995
88	0x3e1081c3	0.14112
89	0x3cf5b920	0.029995501
90	0xbf7d7026	-0.9899925
91	0x3f7fe283	0.99955004
92	0x3f576aa4	0.84147096
93	0x3c23d657	0.009999833
94	0x3f0a5140	0.5403023
95	0x3f7ffcb9	0.99995
96	0xbf41bdcf	-0.7568025
97	0x3d23cbdb	0.039989334
98	0xbf275530	-0.6536436
99	0x3f7fcb94	0.9992001
100	0x3f576aa4	0.84147096
101	0x3c23d657	0.009999833
102	0x3f0a5140	0.5403023
103	0x3f7ffcb9	0.99995
104	0xbf757c10	-0.9589243
105	0x3d4cb6f5	0.04997917
106	0x3e913c2c	0.2836622
107	0x3f7fae19	0.99875027
108	0x3f576aa4	0.84147096
109	0x3c23d657	0.009999833
110	0x3f0a5140	0.5403023
111	0x3f7ffcb9	0.99995
112	0xbe8f0f8c	-0.2794155
113	0x3d759cd1	0.059964005
114	0x3f75cdb8	0.96017027
115	0x3f7f8a12	0.99820054
116	0x3f576aa4	0.84147096
117	0x3c23d657	0.009999833
118	0x3f0a5140	0.5403023
119	0x3f7ffcb9	0.99995
120	0x00000000	0.0
121	0x00000000	0.0
122	0x3f800000	1.0
123	0x3f800000	1.0
124	0x3f68c7b7	0.9092974
125	0x3ca3d43e	0.019998666
126	0xbed51133	-0.41614684
127	0x3f7ff2e5	0.9998
128	0x3f576aa4	0.84147096
129	0x3c23d657	0.009999833
130	0x3f0a5140	0.5403023
131	0x3f7ffcb9	0.99995
132	0x3f68c7b7	0.9092974
133	0x3ca3d43e	0.019998666
134	0xbed51133	-0.41614684
135	0x3f7ff2e5	0.9998
136	0x3f68c7b7	0.9092974
137	0x3ca3d43e	0.019998666
138	0xbed51133	-0.41614684
139	0x3f7ff2e5	0.9998
140	0x3f68c7b7	0.9092974
141	0x3ca3d43e	0.019998666
142	0xbed51133	-0.41614684
143	0x3f7ff2e5	0.9998
144	0x3e1081c3	0.14112
145	0x3cf5b920	0.029995501
146	0xbf7d7026	-0.9899925
147	0x3f7fe283	0.99955004
148	0x3f68c7b7	0.9092974
149	0x3ca3d43e	0.019998666
150	0xbed51133	-0.41614684
151	0x3f7ff2e5	0.9998
152	0xbf41bdcf	-0.7568025
153	0x3d23cbdb	0.039989334
154	0xbf275530	-0.6536436
155	0x3f7fcb94	0.9992001
156	0x3f68c7b7	0.9092974
157	0x3ca3d43e	0.019998666
158	0xbed51133	-0.41614684
159	0x3f7ff2e5	0.9998
160	0xbf757c10	-0.9589243
161	0x3d4cb6f5	0.04997917
162	0x3e913c2c	0.2836622
163	0x3f7fae19	0.99875027
164	0x3f68c7b7	0.9092974
165	0x3ca3d43e	0.019998666
166	0xbed51133	-0.41614684
167	0x3f7ff2e5	0.9998
168	0xbe8f0f8c	-0.2794155
169	0x3d759cd1	0.059964005
170	0x3f75cdb8	0.96017027
171	0x3f7f8a12	0.99820054
172	0x3f68c7b7	0.9092974
173	0x3ca3d43e	0.019998666
174	0xbed51133	-0.41614684
175	0x3f7ff2e5	0.9998
176	0x00000000	0.0
177	0x00000000	0.0
178	0x3f800000	1.0
179	0x3f800000	1.0
180	0x3e1081c3	0.14112
181	0x3cf5b920	0.029995501
182	0xbf7d7026	-0.9899925
183	0x3f7fe283	0.99955004
184	0x3f576aa4	0.84147096
185	0x3c23d657	0.009999833
186	0x3f0a5140	0.5403023
187	0x3f7ffcb9	0.99995
188	0x3e1081c3	0.14112
189	0x3cf5b920	0.029995501
190	0xbf7d7026	-0.9899925
191	0x3f7fe283	0.99955004
192	0x3f68c7b7	0.9092974
193	0x3ca3d43e	0.019998666
194	0xbed51133	-0.41614684
195	0x3f7ff2e5	0.9998
196	0x3e1081c3	0.14112
197	0x3cf5b920	0.029995501
198	0xbf7d7026	-0.9899925
199	0x3f7fe283	0.99955004
200	0x3e1081c3	0.14112
201	0x3cf5b920	0.029995501
202	0xbf7d7026	-0.9899925
203	0x3f7fe283	0.99955004
204	0x3e1081c3	0.14112
205	0x3cf5b920	0.029995501
206	0xbf7d7026	-0.9899925
207	0x3f7fe283	0.99955004
208	0xbf41bdcf	-0.7568025
209	0x3d23cbdb	0.039989334
210	0xbf275530	-0.6536436
211	0x3f7fcb94	0.9992001
212	0x3e1081c3	0.14112
213	0x3cf5b920	0.029995501
214	0xbf7d7026	-0.9899925
215	0x3f7fe283	0.99955004
216	0xbf757c10	-0.9589243
217	0x3d4cb6f5	0.04997917
218	0x3e913c2c	0.2836622
219	0x3f7fae19	0.99875027
220	0x3e1081c3	0.14112
221	0x3cf5b920	0.029995501
222	0xbf7d7026	-0.9899925
223	0x3f7fe283	0.99955004
224	0xbe8f0f8c	-0.2794155
225	0x3d759cd1	0.059964005
226	0x3f75cdb8	0.96017027
227	0x3f7f8a12	0.99820054
228	0x3e1081c3	0.14112
229	0x3cf5b920	0.029995501
230	0xbf7d7026	-0.9899925
231	0x3f7fe283	0.99955004
232	0x00000000	0.0
233	0x00000000	0.0
234	0x3f800000	1.0
235	0x3f800000	1.0
236	0xbf41bdcf	-0.7568025
237	0x3d23cbdb	0.039989334
238	0xbf275530	-0.6536436
239	0x3f7fcb94	0.9992001
240	0x3f576aa4	0.84147096
241	0x3c23d657	0.009999833
242	0x3f0a5140	0.5403023
243	0x3f7ffcb9	0.99995
244	0xbf41bdcf	-0.7568025
245	0x3d23cbdb	0.039989334
246	0xbf275530	-0.6536436
247	0x3f7fcb94	0.9992001
248	0x3f68c7b7	0.9092974
249	0x3ca3d43e	0.019998666
250	0xbed51133	-0.41614684
251	0x3f7ff2e5	0.9998
252	0xbf41bdcf	-0.7568025
253	0x3d23cbdb	0.039989334
254	0xbf275530	-0.6536436
255	0x3f7fcb94	0.9992001

patch_embed.proj.weight f4 [8, 1, 4, 4]
0	0x3d5762f8	0.05258462
1	0xbd0dbd80	-0.03460455
2	0xbe0f3b9f	-0.13987587
3	0x3e170761	0.14748909
4	0x3f06eb5f	0.527029
5	0x3ebb2eec	0.36559236
6	0x3dd00ae3	0.101583265
7	0xbe4e360d	-0.20137806
8	0x3ba2bfe0	0.004966721
9	0x3e8fbcac	0.28073633
10	0xbe8b2a6b	-0.271808
11	0x3e96a5f5	0.2942349
12	0x3e13248f	0.14369415
13	0xbe1efa3b	-0.15525143
14	0xbdbc2c2f	-0.09188115
15	0x3dc97b1e	0.09837936
16	0x3ef97a6f	0.48726222
17	0xbe1856e6	-0.14876899
18	0x3e43bdad	0.19115324
19	0xbe7b1642	-0.2452021
20	0xbe29a396	-0.1656631
21	0xbe8e6865	-0.27814022
22	0xbeeec89f	-0.46637437
23	0xbda21b9d	-0.07915423
24	0x3d87a1b0	0.06622636
25	0xbe9c2525	-0.3049709
26	0x3cac51aa	0.021035034
27	0x3e0e1b5e	0.13877627
28	0x3e843fd3	0.25829944
29	0x3db64573	0.08899965
30	0x3cf40a72	0.029790137
31	0x3d928bca	0.07155569
32	0xbdfde99b	-0.12398072
33	0x3e65d614	0.22444946
34	0x3ea6b684	0.32561123
35	0x3e8dd7dc	0.2770375
36	0xbd2bf2ee	-0.041979723
37	0x3d93e7f4	0.07221976
38	0xbe3e8dc5	-0.18608768
39	0x3e6455e2	0.22298387
40	0xbedc14e6	-0.42984694
41	0x3e8d3377	0.27578327
42	0xbe6cfd15	-0.23143418
43	0xbee52f95	-0.44762865
44	0xbea8904f	-0.329226
45	0xbea285e0	-0.31742764
46	0xbe99dd1c	-0.30051506
47	0xbeb94e91	-0.36192754
48	0x3eb63c64	0.3559295
49	0x3de483bb	0.11157938
50	0x3e90b509	0.2826312
51	0x3eb68ea1	0.35655692
52	0xbdaaa5b1	-0.083323844
53	0xbd8110f4	-0.06302062
54	0x3d9a592e	0.07536541
55	0xbcb9ee2c	-0.022696577
56	0x3ed8a92c	0.42316568
57	0x3a107c0f	0.000551165
58	0x3dac5a62	0.08415677
59	0xbdc95b0d	-0.0983182
60	0xbe0f446a	-0.13990942
61	0xbe81a416	-0.253205
62	0xbe741502	-0.23836139
63	0x3e7c3179	0.24628247
64	0x3e6e7f8a	0.2329084
65	0xbe955db4	-0.29173052
66	0xbe107810	-0.141083
67	0xbe18060b	-0.14846055
68	0x3e5a1d37	0.21300207
69	0xbed4ebe9	-0.41586235
70	0xbeacd9ee	-0.33760017
71	0xbe883857	-0.26605484
72	0xbe95771f	-0.29192445
73	0x3da9d3aa	0.08292325
74	0xbeaedffd	-0.34155264
75	0xbf02264f	-0.50839704
76	0x3dd5f6ff	0.104475014
77	0xbe115e58	-0.14196146
78	0x3de19050	0.110138535
79	0xbefaf1dc	-0.4901265
80	0xbf1dcae6	-0.61637723
81	0xbe94af74	-0.2904011
82	0xbe7c1a8b	-0.246195
83	0xbf01a9e8	-0.5064988
84	0xbe7a67e8	-0.244537
85	0xbe5dff05	-0.21679313
86	0x3e6f16d1	0.23348548
87	0xbc584801	-0.013200761
88	0x3dca3aab	0.09874471
89	0x3e79eff6	0.24407944
90	0xbd5b351d	-0.05351745
91	0xbec4b833	-0.38421783
92	0xbd2c3dbb	-0.04205106
93	0xbe5ec196	-0.21753535
94	0x3e60b335	0.21943362
95	0xbe8a232a	-0.26979953
96	0xbe29703e	-0.16546723
97	0xbe27108e	-0.16314909
98	0xbe78e3d8	-0.24305665
99	0xbeb52f48	-0.35387635
100	0x3dbcb851	0.09214843
101	0xbce2ce69	-0.027686315
102	0x3e3e8739	0.18606271
103	0xbd996813	-0.07490554
104	0xbee3b55c	-0.44474304
105	0x3d5f83f7	0.05456921
106	0xbeae32ed	-0.34023228
107	0x3e750254	0.2392667
108	0x3cc2967c	0.023753397
109	0xbdbd68cf	-0.09248506
110	0xbed5893d	-0.41706267
111	0xbd5e4892	-0.054268427
112	0xbebe32e5	-0.37148204
113	0x3ce29bc0	0.027662158
114	0x3e3587a9	0.17727531
115	0xbe84a8d0	-0.25910044
116	0xbee6bca3	-0.45065793
117	0x3e8612c2	0.26186186
118	0xbece280f	-0.40264937
119	0xbeb78f23	-0.35851392
120	0x3e4482d7	0.19190536
121	0xbef21492	-0.4728132
122	0xbc1765ef	-0.009240611
123	0x3e8a2d2c	0.26987588
124	0xbd68aa2d	-0.056802917
125	0x3e137c1f	0.14402817
126	0x3c946ab1	0.01811728
127	0xbf0464d3	-0.51716346

patch_embed.proj.bias f4 [8]
0	0xbe23bead	-0.15990706
1	0x3e52d7b6	0.205901
2	0x3d91e363	0.07123449
3	0xbe1a3e57	-0.15062843
4	0x3e552955	0.20816548
5	0x3dd95beb	0.10613235
6	0xbb80b111	-0.003927358
7	0x3c90bd58	0.017668411

blocks.0.norm1.weight f4 [8]
0	0x3f60e87d	0.8785475
1	0x3f73ce65	0.9523681
2	0x3f5bb80f	0.85827726
3	0x3f634e15	0.8879102
4	0x3f667561	0.90022856
5	0x3f77885e	0.96692455
6	0x3f6927b8	0.9107623
7	0x3f688e69	0.908423

blocks.0.norm1.bias f4 [8]
0	0xbc89384c	-0.016750477
1	0xbc8e00d7	-0.017334385
2	0x3d9bc5a3	0.076060556
3	0xbcd2670c	-0.025683902
4	0x3d239f2d	0.039946724
5	0xbcd1acfa	-0.025595177
6	0xbd5e91c3	-0.054338228
7	0x3bcd1523	0.006258623

blocks.0.attn.qkv.weight f4 [24, 8]
0	0xbe0ea098	-0.13928449
1	0xbe2110da	-0.15729085
2	0xbdb7d80a	-0.08976753
3	0xbea13cd1	-0.31491712
4	0x3ddbafae	0.107268676
5	0x3e84f301	0.25966647
6	0x3db5409a	0.088502124
7	0x3e96cfaf	0.29455325
8	0xbd754478	-0.05987975
9	0x3d429e75	0.047514398
10	0x3d1ee738	0.038794726
11	0xbea30eb4	-0.31847155
12	0xbd91b99c	-0.0711548
13	0x3ed09098	0.40735316
14	0xbea3ffee	-0.32031196
15	0xbdb4b4ed	-0.08823571
16	0x3dbe348e	0.09287368
17	0xbb6992e3	-0.003564053
18	0xbe17e92c	-0.14835042
19	0xbe18b11b	-0.1491131
20	0xbe6449b9	-0.22293748
21	0x3ea33e3f	0.31883428
22	0x3ed3048a	0.412144
23	0x3e88559c	0.26627815
24	0x3e25ef8d	0.16204663
25	0x3ecbedfb	0.39830002
26	0x3dfd5bdb	0.12371036
27	0xbd7b624b	-0.061373036
28	0x3e67a8e8	0.22623026
29	0x3d4f1017	0.050552454
30	0x3ed9d765	0.42547145
31	0xbec28c88	-0.37997842
32	0xbdc9440d	-0.09827433
33	0xbec8296f	-0.3909411
34	0xbe397f4e	-0.18114969
35	0xbe9e3a3d	-0.30903807
36	0xbcde038c	-0.0271013
37	0xbeef3bbf	-0.4672527
38	0x3ea26f22	0.31725413
39	0xbd8a9bbc	-0.06767985
40	0xbd6cf843	-0.05785395
41	0xbde145ab	-0.10999616
42	0xbe8b2fca	-0.27184898
43	0x3e425493	0.18977575
44	0x3eb1552e	0.346353
45	0x3ea7cb37	0.32772228
46	0x3eb6dc7d	0.35715094
47	0xbe8c974d	-0.27459183
48	0x3e6b4d05	0.229786
49	0x3e84ace0	0.25913143
50	0xbd3c0359	-0.04590163
51	0xbc7519ad	-0.014959735
52	0xbe73ed88	-0.2382108
53	0xbd6bd44a	-0.0575755
54	0x3ec34580	0.38138962
55	0xbe2464cb	-0.16054074
56	0xbdeda2fb	-0.11603352
57	0xbc742c72	-0.014903175
58	0xbe664438	-0.22486961
59	0xbecafde6	-0.39646834
60	0xbe2d962e	-0.1695182
61	0xbdc743bc	-0.09729716
62	0x3e62eee5	0.22161444
63	0xbec258b9	-0.37958315
64	0x3e869062	0.2628203
65	0x3c80205c	0.01564043
66	0xbe3f8a5a	-0.1870512
67	0x3ee0b5db	0.43888745
68	0xbe3108a6	-0.17288455
69	0xbeb81114	-0.3595053
70	0x3eabbad1	0.33540967
71	0xbd9dbf5b	-0.07702514
72	0x3eaa1071	0.3321567
73	0x3e5daa87	0.21647082
74	0xbe801909	-0.250191
75	0x3e6ae369	0.22938313
76	0xbe808c20	-0.25106907
77	0xbd9f3c44	-0.07775167
78	0xbe75ae7c	-0.23992342
79	0x3dc45c1d	0.09587882
80	0x3e20bfbc	0.15698141
81	0xbefb9391	-0.49136022
82	0x3e8907d5	0.26763788
83	0x3bd7a937	0.0065814513
84	0x3e5ec730	0.21755672
85	0x3d29808f	0.04138237
86	0x3db435b9	0.08799309
87	0xbe3a0372	-0.18165377
88	0x3d9c8e04	0.07644275
89	0x3cfa0fbb	0.030525079
90	0xbeea2cd5	-0.4573733
91	0xbe4b0deb	-0.19829528
92	0xbe40bf6d	-0.18823023
93	0x3e1483e7	0.14503442
94	0x3e3b18a2	0.18271115
95	0x3d24ffab	0.040282886
96	0x3e6d0cea	0.23149458
97	0xbd14eb32	-0.036357112
98	0x3e8bba27	0.2729046
99	0x3ea314e3	0.31851873
100	0x3d3ab410	0.045581877
101	0x3e8eecc7	0.27915022
102	0x3cec0413	0.028810536
103	0xbf0c4b3b	-0.5480229
104	0x3eb4cb0b	0.3531116
105	0xbd800f15	-0.06252877
106	0x3d906125	0.07049779
107	0xbeb797b3	-0.35857925
108	0x3e4bc526	0.19899425
109	0x3e7e4a21	0.24832965
110	0xbd69a994	-0.057046488
111	0xbe33a7ab	-0.17544429
112	0xbdfef411	-0.12448896
113	0xbdcdc4ee	-0.10047327
114	0xbee56194	-0.4480101
115	0xbdcf1bc4	-0.10112718
116	0x3db21c32	0.08696784
117	0x3e520cd1	0.20512702
118	0x3d63af63	0.055587184
119	0x3e859633	0.26091155
120	0x3eba45c8	0.36381364
121	0xbe9ce52d	-0.30643597
122	0xbe10cf43	-0.14141564
123	0xbe525956	-0.20541891
124	0x3d006f9d	0.031356443
125	0x3e444685	0.19167526
126	0x3e36bca1	0.17845394
127	0xbd64c3dd	-0.055850852
128	0x3e8f3358	0.2796886
129	0xbcb387a6	-0.021915268
130	0x3e5bcc38	0.21464622
131	0xbeb15fba	-0.34643346
132	0x3eace354	0.33767188
133	0x3ea24362	0.31692034
134	0x3cceccd6	0.025244158
135	0xbd8df841	-0.06932116
136	0x3ec84335	0.39113775
137	0x3eabba89	0.33540753
138	0xbe38782f	-0.18014596
139	0x3e9dd9ca	0.30830222
140	0xbd3a0419	-0.045414064
141	0x3eaedaaa	0.34151202
142	0x3e8875f7	0.266525
143	0x3cba6702	0.022754196
144	0xbe3cbfa4	-0.1843248
145	0x3d0977da	0.033561565
146	0x3eb23682	0.3480721
147	0xbe5f7080	-0.21820259
148	0xbcca967a	-0.024729956
149	0xbe755cf2	-0.23961237
150	0xbe4a39cc	-0.1974861
151	0x3eba415e	0.36377996
152	0x3e911e20	0.28343296
153	0x3d7d4576	0.06183382
154	0x3ea0c4e5	0.3140022
155	0x3d6bb899	0.057549093
156	0xbe718785	-0.23586853
157	0xbe540bff	-0.20707701
158	0xbd2c1c15	-0.04201897
159	0xbea67011	-0.32507375
160	0xbd0b700f	-0.034042414
161	0x3e7e2231	0.2481773
162	0xbdc5f1e6	-0.09665279
163	0xbd911afb	-0.07085224
164	0x3e5842b3	0.21119194
165	0x3e9079df	0.2821798
166	0x3be082c3	0.0068515255
167	0xbdc3ca4a	-0.09560068
168	0x3d0da080	0.034576893
169	0x3d1b006a	0.03784219
170	0x3b88f10c	0.0041791257
171	0x3e09788e	0.13424894
172	0x3e4083bb	0.18800251
173	0xbe834c5c	-0.25644195
174	0xbd843a97	-0.064564876
175	0xbcac15c0	-0.021006465
176	0x3e7cce76	0.24688134
177	0xbe1049cb	-0.1409065
178	0x3e0085dd	0.12551065
179	0x3decc23a	0.11560483
180	0x3ea8a4e0	0.3293829
181	0xbec8fd25	-0.39255634
182	0x3dad25d9	0.084544845
183	0xbe465344	-0.19367701
184	0x3e41901f	0.18902634
185	0xbd8bc600	-0.06824875
186	0xbca3d71e	-0.020000037
187	0x3e396ebd	0.1810865
188	0xbebae9a3	-0.36506376
189	0x3cb76afb	0.02238988
190	0xbdbeebcd	-0.09322319
191	0xbe002bd3	-0.12516718

blocks.0.attn.qkv.bias f4 [24]
0	0xbcf702a5	-0.030152628
1	0x3d042f25	0.032271523
2	0xbdeb94cc	-0.1150299
3	0xbcda37c0	-0.026637912
4	0x3d97f657	0.074200325
5	0xbd5a8e0a	-0.053358115
6	0xbe1d7d51	-0.15379836
7	0xbd081307	-0.03322127
8	0x363c976f	2.810233e-06
9	0xb872e1c5	-5.790756e-05
10	0xb4f7dc3e	-4.6167582e-07
11	0x38c9be6d	9.6198964e-05
12	0xb7579f27	-1.2852054e-05
13	0x389e65af	7.552967e-05
14	0x3889a162	6.562729e-05
15	0x385c8c81	5.2582942e-05
16	0x3b5bfacd	0.0033566237
17	0xbd107650	-0.03526908
18	0x3cfdb6f4	0.030971028
19	0x3a7b337e	0.0009582563
20	0x3c33df19	0.010978484
21	0xbb8e608b	-0.004345005
22	0x3c3d59df	0.0115570715
23	0xbc4f9ba0	-0.012671381

blocks.0.attn.proj.weight f4 [8, 8]
0	0xbeb00448	-0.34378266
1	0x3dfc7d97	0.12328642
2	0xbe72bbdd	-0.23704477
3	0xbc6e3dad	-0.014541072
4	0x3ef57260	0.47938824
5	0x3cbfff58	0.023437187
6	0x3c9a1432	0.018808458
7	0xbeeda448	-0.464144
8	0xbd42cf6e	-0.0475611
9	0x3eeddebf	0.46459004
10	0xbe8cfe32	-0.27537686
11	0x3e12ae5e	0.14324328
12	0x3cb013d1	0.021493824
13	0x3edf9d09	0.43674496
14	0x3eccc5b6	0.3999459
15	0x3e71845e	0.2358565
16	0xbdb85ac3	-0.090016864
17	0xbe932cda	-0.28745157
18	0x3e15d2ad	0.14631148
19	0x3d3129a0	0.043252587
20	0x3d9a2dbd	0.07528255
21	0x3f0bf144	0.5466502
22	0x3d179104	0.037003532
23	0xbc9a83ab	-0.018861612
24	0x3e650974	0.22366887
25	0x3e890a66	0.26765746
26	0xbe98f2bb	-0.2987269
27	0x391d0fc3	0.00014978558
28	0xbd34fbf7	-0.044185605
29	0x3e5acb19	0.21366538
30	0xbe16c9d3	-0.14725427
31	0x3de3bc2f	0.111198775
32	0x3e225ccb	0.1585571
33	0x3ee7cca1	0.45273307
34	0xbc616441	-0.013756813
35	0xbd7ea260	-0.06216657
36	0xbeb6e7d8	-0.35723758
37	0xbf05b6dd	-0.5223215
38	0x3ecceb0c	0.40023077
39	0xbda89afb	-0.08232685
40	0xbe9028c5	-0.28156105
41	0x3e4850dd	0.19562097
42	0x3e0005d1	0.12502219
43	0xbc91727a	-0.017754782
44	0x3db7ed02	0.089807525
45	0xbea8386f	-0.32855555
46	0x3e9fcaff	0.3120956
47	0xbebf3903	-0.37348184
48	0x3e6cbaab	0.23118083
49	0xbe68181a	-0.22665444
50	0x3e57c676	0.210718
51	0xbe65be46	-0.22435865
52	0xbdaa412c	-0.08313212
53	0x3d3f85e6	0.046758555
54	0xbe9e4019	-0.30908278
55	0xbdf1af49	-0.11801011
56	0x3db37411	0.08762372
57	0x3e464e6c	0.19365853
58	0xbe085be8	-0.1331631
59	0xbe7016f7	-0.2344626
60	0xbe5cc390	-0.21558976
61	0x3eb64744	0.35601246
62	0x3e987469	0.29776314
63	0x3f146c32	0.5797759

blocks.0.attn.proj.bias f4 [8]
0	0xbbd98c3d	-0.006639032
1	0x3bb89be3	0.0056338175
2	0x3cec83ac	0.02887138
3	0xbd80be1a	-0.06286259
4	0x3c830555	0.015993753
5	0xba3b4142	-0.0007143208
6	0x3d5cf55c	0.05394493
7	0x3a3b7451	0.00071508164

blocks.0.norm2.weight f4 [8]
0	0x3f6b98f5	0.9203027
1	0x3f71313e	0.9421576
2	0x3f663e29	0.899386
3	0x3f779473	0.9671089
4	0x3f7b1899	0.9808441
5	0x3f840689	1.0314494
6	0x3f6540d5	0.8955205
7	0x3f69fa6f	0.91397756

blocks.0.norm2.bias f4 [8]
0	0xbc9dcf1d	-0.019263798
1	0x3c1398c7	0.009008593
2	0xbb5762bd	-0.003286525
3	0xbc99a746	-0.01875652
4	0xbc8bdfb4	-0.017074443
5	0xbc688995	-0.014192958
6	0xbc171a90	-0.009222642
7	0x3b8fa686	0.004383865

blocks.0.mlp.fc1.weight f4 [32, 8]
0	0xbeb44c95	-0.35214677
1	0xbe8baa4a	-0.27278358
2	0x3e80565a	0.2506588
3	0xbd1ae079	-0.03781173
4	0xbd9c6216	-0.07635896
5	0xbe542431	-0.20716931
6	0x3e3af03e	0.18255708
7	0x3d07eea3	0.033186566
8	0x3e770d7b	0.24126236
9	0xbe92ae7a	-0.2864874
10	0xbd92ae1a	-0.071621135
11	0xbe028f89	-0.12750067
12	0xbe3d7c90	-0.18504548
13	0xbd9c06e5	-0.076185025
14	0x3e03d1c0	0.12872982
15	0x3d2f823f	0.04284882
16	0xbe9cd394	-0.3063017
17	0x3dd0e802	0.10200502
18	0xbe8a41d5	-0.2700335
19	0xbd3539b7	-0.044244494
20	0x3e3c7636	0.18404469
21	0xbe84a700	-0.2590866
22	0x3e87d052	0.26526123
23	0x3e29d65a	0.16585675
24	0x3e8e810b	0.27832827
25	0xbe6fde07	-0.2342454
26	0x3e63305f	0.22186421
27	0xbe5298d7	-0.20566116
28	0x3e98d0de	0.29846853
29	0xbeb51fa2	-0.35375696
30	0x3e0b3b85	0.13596924
31	0x3c792e8d	0.0152088525
32	0x3e199f61	0.15002204
33	0x3e5ee55e	0.21767184
34	0x3e91d855	0.2848536
35	0x3e54d44c	0.2078411
36	0xbe4bd380	-0.199049
37	0x3e1fb1d0	0.15595174
38	0xbd01c46d	-0.031681467
39	0xbdbf6cbc	-0.09346911
40	0x3e9a12c2	0.30092436
41	0xbded80cf	-0.11596834
42	0xbe87f597	-0.26554558
43	0xbe1b7416	-0.15181002
44	0x3e85864c	0.26079023
45	0xbddc99ec	-0.10771546
46	0x3c9811fc	0.018563263
47	0x3e1f2e8f	0.15545104
48	0x3db11687	0.08646875
49	0xbe83b485	-0.25723663
50	0x3cd87ee3	0.026427692
51	0xbea39aca	-0.31954032
52	0x3d7b7f52	0.06140072
53	0x3e3394d7	0.17537247
54	0xbe53093c	-0.20608991
55	0x3e9e502e	0.30920547
56	0xbe8a7533	-0.2704254
57	0xbea7f46e	-0.32803673
58	0xbe23c3d5	-0.15992673
59	0x3eaf84bb	0.34280953
60	0xbe58aadc	-0.21158928
61	0x3e94d2f2	0.29067189
62	0x3dd8b331	0.10581053
63	0xbe0e8462	-0.13917688
64	0xbe98611e	-0.29761595
65	0x3e23535e	0.15949771
66	0x3d21e886	0.039528392
67	0xbd1e15cb	-0.038595002
68	0xbe584471	-0.21119858
69	0xbea0fc5b	-0.31442532
70	0xbe10b708	-0.14132321
71	0xbe769b73	-0.24082737
72	0xbd180fab	-0.037124317
73	0x3e4f33d7	0.20234619
74	0x3e0e9e1d	0.13927503
75	0x3e91c084	0.2846719
76	0xbe271dd2	-0.1631997
77	0x3d132594	0.03592451
78	0xbe2cd50a	-0.16878143
79	0x3e27325b	0.16327803
80	0x3e5d8b43	0.21635155
81	0x3d1ca6e8	0.03824511
82	0x3e8fe30b	0.28102908
83	0xbe924c31	-0.28573754
84	0x3e4421d9	0.19153537
85	0xbddfbfbe	-0.10925244
86	0x3d52ce78	0.051466435
87	0xbe0c7a93	-0.13718633
88	0x3d3cdb24	0.046107426
89	0xbe12bf6b	-0.14330833
90	0xbd109024	-0.035293713
91	0x3df38bb9	0.11891884
92	0x3dc349d6	0.095355675
93	0x3ee1b084	0.44079983
94	0xbe4b510a	-0.19855133
95	0x3e064f27	0.13116132
96	0xbe8006ab	-0.25005087
97	0xbe3e1e3d	-0.18566222
98	0x3e9cff63	0.30663595
99	0x3dc2633a	0.09491582
100	0xbdcc4510	-0.0997411
101	0x3e4aae6e	0.19793102
102	0x3ae978f3	0.0017812535
103	0xbd5ca641	-0.05386949
104	0x3e0ce83c	0.13760465
105	0x3e887e10	0.26658678
106	0x3de79a55	0.113087334
107	0x3eb10da4	0.3458072
108	0xbe9207ef	-0.28521678
109	0x3e2e7076	0.17035088
110	0xbe8f6e00	-0.2801361
111	0xbe86b1b1	-0.26307443
112	0xbeac31b3	-0.33631667
113	0xbdd763e3	-0.10517099
114	0x3dcc1a61	0.09965969
115	0xbdf6d65b	-0.12052604
116	0x3ed7c50a	0.42142516
117	0xbde4231a	-0.111395076
118	0x3e27b8da	0.16379109
119	0xbe878398	-0.26467586
120	0x3e273990	0.16330552
121	0xbc524d4a	-0.01283581
122	0xbdc5dad2	-0.09660877
123	0xbea5d272	-0.3238712
124	0x3efb45fe	0.49076837
125	0x3e59d68c	0.2127325
126	0x3cb71777	0.022350056
127	0x3e9978d4	0.29974997
128	0xbe313881	-0.17306711
129	0x3db3b96e	0.08775602
130	0x3dc31940	0.095263004
131	0xbe5d8b64	-0.21635205
132	0xbc856cd5	-0.016287247
133	0xbda322e3	-0.079656385
134	0xbe39388e	-0.1808798
135	0x3e6c5433	0.23078994
136	0xbeb12784	-0.3460046
137	0xbdcc715a	-0.099825576
138	0xbdca02c3	-0.09863808
139	0xbebb38b3	-0.36566696
140	0xbea09c0e	-0.3136906
141	0xbd8665d6	-0.065623924
142	0xbda17c44	-0.0788503
143	0xbdb98134	-0.09057847
144	0xbc13b4e5	-0.009015297
145	0x3ead9d70	0.33909178
146	0x3d0825c6	0.03323915
147	0x3e6a41a9	0.2287661
148	0x3c992340	0.018693566
149	0xbee5bef9	-0.44872263
150	0x3e6028c2	0.21890548
151	0x3dd617c2	0.1045375
152	0xbc81c6ee	-0.015841927
153	0xbe658efc	-0.22417825
154	0x3e560134	0.20898896
155	0xbd9c59b2	-0.076342955
156	0xbd70fed9	-0.05883679
157	0x3e2b19ab	0.1670901
158	0x3d7989c7	0.06092241
159	0x3e811e38	0.25218368
160	0x3daa231f	0.0830748
161	0x3e3ab213	0.18231992
162	0x3eade097	0.3396041
163	0xbb98ff59	-0.0046691117
164	0xbdea43b1	-0.11438692
165	0xbe6d3b8a	-0.23167244
166	0xbe8d5f94	-0.27611983
167	0x3e406b72	0.18790987
168	0xbe914d86	-0.28379458
169	0x3e26d67c	0.16292757
170	0x3eb05a00	0.34443665
171	0x3e902343	0.28151903
172	0x3e4ec7fd	0.20193477
173	0xbb667d98	-0.0035170075
174	0xbb7d46de	-0.0038646976
175	0xbe7a7ee9	-0.24462475
176	0xbe9aa9b7	-0.30207607
177	0x3e9dd00c	0.3082279
178	0xbe5e9343	-0.21735863
179	0x3e4fe25d	0.20301194
180	0x3edfb504	0.4369279
181	0x3d5349b6	0.051583968
182	0xbe3039d9	-0.17209567
183	0xbe8a793c	-0.2704562
184	0xbd953972	-0.072863474
185	0xbeb47eb5	-0.3525292
186	0x3e9221e4	0.28541481
187	0xbe4413b3	-0.1914814
188	0x3e0392fe	0.12849042
189	0x3dbf8d19	0.09353084
190	0x3ececc64	0.40390313
191	0x3e89c1cf	0.26905677
192	0xbe7c40ce	-0.24634096
193	0xbe729027	-0.23687802
194	0x3e5f4548	0.21803772
195	0xbe69eff8	-0.22845447
196	0x3dcb5dbe	0.09929989
197	0xbe8b3c5d	-0.2719449
198	0xbe9d7283	-0.30751428
199	0xbc9582c5	-0.018250832
200	0xbe889aba	-0.26680547
201	0xbe0c59c4	-0.13706118
202	0x3e2b7047	0.16742049
203	0xbcc9f431	-0.024652572
204	0xbe837294	-0.25673354
205	0xbe91e36d	-0.28493825
206	0xbe77e258	-0.24207437
207	0xbe298310	-0.16553903
208	0xbdc44788	-0.09583956
209	0xbd00126d	-0.031267572
210	0xbdcc24a9	-0.0996793
211	0x3e38f227	0.18061124
212	0xbc89b792	-0.016811166
213	0xbe8093f5	-0.25112882
214	0xbe66dc3d	-0.22544952
215	0xbe0b44d8	-0.1360048
216	0xbe34abba	-0.17643633
217	0x3e610b75	0.21977027
218	0x3e7d2c23	0.24723868
219	0x3e0c3519	0.1369213
220	0x3dc0e09b	0.0941784
221	0xbdb09b5c	-0.086233824
222	0x3e4fdce6	0.2029911
223	0x3ce9feab	0.028563818
224	0x3e922d1c	0.2855004
225	0xbe7b9529	-0.24568619
226	0xbd6b792e	-0.057488613
227	0xbdb8e325	-0.090276994
228	0xbe2abe03	-0.16674046
229	0x3e6e1236	0.23249134
230	0x3eb16d9f	0.34653947
231	0xbe991fa8	-0.29906964
232	0xbe352166	-0.17688522
233	0xbe95b484	-0.29239285
234	0x3e67cc38	0.22636497
235	0xbd9d2515	-0.076730885
236	0x3e7d7b9a	0.24754182
237	0x3e68e14a	0.22742191
238	0x3d760f4d	0.060073186
239	0x3da78f12	0.08181585
240	0xbe81e9b4	-0.25373614
241	0xbe722af1	-0.23649193
242	0x3ca5f921	0.020260395
243	0x3ee1c5e3	0.44096288
244	0xbde030b7	-0.109467916
245	0x3eba050b	0.36331972
246	0x3e2128bf	0.157382
247	0xbe5c690e	-0.2152445
248	0x3e8ff37a	0.28115445
249	0xbe35217a	-0.17688552
250	0x3e119d36	0.14220127
251	0xbd5c3f7c	-0.05377148
252	0x3e107ea6	0.14110813
253	0xbe9b07a0	-0.30279255
254	0xbe31c7b7	-0.17361341
255	0xbecc6344	-0.39919484

blocks.0.mlp.fc1.bias f4 [32]
0	0x3c4fbd8d	0.01267947
1	0x3a3231f0	0.00067976024
2	0xbc13b556	-0.009015402
3	0x3c8540be	0.016266223
4	0x3c963334	0.018334962
5	0xbb768ba7	-0.003761986
6	0x3ce79538	0.028269395
7	0x3b9345e8	0.0044944175
8	0x3b1122d4	0.0022146003
9	0x3bec61cf	0.007213808
10	0xbc3b4005	-0.011428838
11	0xbac3ead2	-0.0014947301
12	0xbd0bcd3a	-0.034131266
13	0xbc8382b6	-0.016053539
14	0x3d132a51	0.035929028
15	0x3c39f441	0.011349739
16	0x3ca57eb7	0.020202024
17	0x3c2dbd15	0.010604163
18	0xbc42b55e	-0.011884062
19	0xbd0ace97	-0.033888426
20	0xbb380d1d	-0.0028083988
21	0x3b9c7a80	0.0047753453
22	0xbd1a657e	-0.037694447
23	0x3ae6de04	0.0017613773
24	0xbb6464ce	-0.0034850123
25	0x3d072f2a	0.033003964
26	0x3add0e1f	0.001686517
27	0xbbbdc386	-0.0057911305
28	0x3c177168	0.009243347
29	0xbd1ea2c0	-0.03872943
30	0x3c3d6f6e	0.011562211
31	0xbd768d51	-0.060193364

blocks.0.mlp.fc2.weight f4 [8, 32]
0	0x3e8b96ea	0.27263576
1	0xbe21ac9d	-0.15788503
2	0xbd15c6f5	-0.036566693
3	0x3ce7e33c	0.028306596
4	0xbd80574b	-0.0626665
5	0x3c8f54b0	0.017496437
6	0xbea85403	-0.32876596
7	0xbe19a1d1	-0.15003134
8	0xbd9f5dc5	-0.07781557
9	0x3d854ce4	0.06508806
10	0x3e4e181d	0.20126386
11	0x3d57bee5	0.052672286
12	0x3e012bf7	0.12614428
13	0xbdf16270	-0.117863536
14	0x3ea2d421	0.31802467
15	0xbee77e8c	-0.45213735
16	0xbd86da0c	-0.06584558
17	0xbe388e31	-0.18022992
18	0x3e4ebfdd	0.20190378
19	0xbd4b9b29	-0.04970852
20	0x3e978a29	0.29597595
21	0x3e5b2db5	0.21404155
22	0xbd9ddefb	-0.07708546
23	0x3ca2a6db	0.019854954
24	0xbe3b12df	-0.18268918
25	0x3e2502d6	0.16114363
26	0x3e182ab5	0.14860041
27	0x3e8bdc7f	0.27316663
28	0x3ea9c29d	0.3315629
29	0xbe8a332c	-0.26992166
30	0x3e0882d8	0.13331163
31	0x3ebf25b3	0.3733345
32	0x3eb60019	0.3554695
33	0xbe21f738	-0.15816963
34	0x3d75b573	0.059987497
35	0x3eaee079	0.34155634
36	0x3d41df7c	0.047332272
37	0xbe89de43	-0.26927385
38	0x3df4fd74	0.11962405
39	0xbe2258f2	-0.15854242
40	0xbdcad788	-0.099043906
41	0x3e7eca33	0.2488182
42	0xbd9cd617	-0.07658022
43	0x3e3ea2d6	0.18616804
44	0xbe87fbf5	-0.26559415
45	0xbca4a784	-0.020099409
46	0x3e2b85f2	0.16750315
47	0x3e16e008	0.14733899
48	0x3e343e2d	0.17601843
49	0x3e7a23ff	0.24427794
50	0xbedac44b	-0.42727885
51	0x3d058098	0.03259334
52	0x3e9c150a	0.30484802
53	0x3d9e5eb0	0.07732904
54	0x3b7a0c6d	0.003815438
55	0x3e014cff	0.12627028
56	0xbe182198	-0.14856565
57	0x3e409c56	0.18809637
58	0x3daaa0f8	0.083314836
59	0xbe631e49	-0.22179522
60	0x3e895176	0.26819962
61	0xbe6fdb65	-0.23423536
62	0xbea763ac	-0.3269323
63	0x3dba0c3c	0.09084365
64	0xbd444667	-0.047918703
65	0xbea727d7	-0.32647583
66	0x3ce25551	0.027628573
67	0xbd1c2dbe	-0.03812956
68	0x3e0558c0	0.13022137
69	0xbe697f1f	-0.22802399
70	0x3e84b181	0.25916675
71	0xbe6b8d88	-0.23003209
72	0xbe7a09c1	-0.24417783
73	0x3eae45c7	0.3403761
74	0x3dfbef31	0.123014815
75	0x3d93e266	0.072209165
76	0x3e355055	0.17706425
77	0x3e73bd8b	0.23802774
78	0x3e6c0411	0.23048426
79	0x3e7328ac	0.23745984
80	0xbd4c631a	-0.049899198
81	0x3e5d55c1	0.21614744
82	0x3ea03667	0.31291506
83	0xbe8be388	-0.2732203
84	0xbc7f1034	-0.015567828
85	0xbe8ae872	-0.27130467
86	0xbedb73fa	-0.4286192
87	0x3e9aa3e6	0.3020317
88	0x3dfd5a10	0.12370694
89	0xbd5fd6c8	-0.05464819
90	0xbe035a71	-0.1282747
91	0x3e834375	0.25637403
92	0xbc0ddd2c	-0.0086586885
93	0xbc38a66f	-0.01127015
94	0xbe00062f	-0.12502359
95	0xbea804a5	-0.32816043
96	0x3e66b3ef	0.22529577
97	0xbdebfac0	-0.11522436
98	0x3e0d1489	0.13777365
99	0xbea876c8	-0.32903123
100	0xbe8df779	-0.2772787
101	0xbdc6386e	-0.09678732
102	0xbeb890a4	-0.36047852
103	0xbeb3458e	-0.35014004
104	0xbe6d7e55	-0.23192723
105	0xbe7b7de3	-0.2455974
106	0xbd530978	-0.051522702
107	0x3d61e2b7	0.055147853
108	0x3e3d78fe	0.18503186
109	0xbe823ead	-0.25438443
110	0x3eac967c	0.3370856
111	0xbe28d5ba	-0.1648778
112	0xbea0cd3b	-0.31406578
113	0xbd107509	-0.035267863
114	0x3e917e76	0.28416795
115	0x3ba62575	0.005070383
116	0x3e539770	0.20663238
117	0x3eb07b6e	0.3446917
118	0x3e97dd37	0.2966096
119	0x3e965ec7	0.29369184
120	0x3dfbc3a2	0.122931734
121	0xbdf34a31	-0.11879385
122	0xbde53dc1	-0.11193419
123	0x3e73b51f	0.23799561
124	0x3eadf555	0.33976236
125	0x3d4b7bd3	0.049678635
126	0xbe410b8c	-0.18852061
127	0xbe48e2e2	-0.19617799
128	0x3de83bcb	0.113395296
129	0xbd868bdf	-0.06569647
130	0xbe7971ac	-0.24359769
131	0x3e560670	0.20900893
132	0x3db854a8	0.09000522
133	0xbdb3611d	-0.08758757
134	0xbe6f4971	-0.2336786
135	0x3daf8154	0.08569589
136	0xbeb99c2d	-0.36251965
137	0xbe99fcb8	-0.30075622
138	0xbe024345	-0.12720974
139	0x3e3080c6	0.17236623
140	0x3daefc8a	0.08544262
141	0xbe3ba8d7	-0.18326126
142	0xbd808310	-0.06274998
143	0xbeba98b3	-0.36444625
144	0xbe88d335	-0.26723638
145	0x3df5665c	0.11982414
146	0xbe923c0b	-0.28561434
147	0xbe87312c	-0.26404703
148	0x3cb21ff5	0.021743754
149	0xbe9c7d96	-0.30564564
150	0x3b1bb3a2	0.0023758193
151	0x3e88e55b	0.26737484
152	0x3e41858f	0.18898605
153	0x3e39c08e	0.1813986
154	0x3e99121a	0.29896623
155	0xbe9b24a6	-0.30301398
156	0xbe1f3ef3	-0.15551357
157	0xbe8e5702	-0.27800757
158	0x3e13f772	0.14449862
159	0x3e8e80e3	0.27832708
160	0xbebc8ae7	-0.36824724
161	0x3e123e43	0.14281563
162	0x3e2ed093	0.17071752
163	0xbe31b997	-0.17355953
164	0xbe71dae4	-0.23618656
165	0x3e8d65bc	0.2761668
166	0x3db019e5	0.08598689
167	0x3e40d3d8	0.18830812
168	0xbededd71	-0.4352832
169	0xbe1abe02	-0.15111545
170	0x3e87c00e	0.26513714
171	0x3eabb63c	0.3353747
172	0x3e0a7714	0.13521987
173	0x3d6d0451	0.057865445
174	0x3e4990ce	0.19684145
175	0xbdb88cba	-0.090112165
176	0xbe9f95e9	-0.3116906
177	0x3e5405ec	0.20705384
178	0xbc31ff8e	-0.010864152
179	0xbd9c14da	-0.076211646
180	0xbe617324	-0.22016579
181	0xbeb2038a	-0.34768325
182	0x3e4a4e7a	0.19756499
183	0x3e03481a	0.12820473
184	0x3e1baa75	0.15201743
185	0xbe4c8782	-0.19973567
186	0x3e4d8d97	0.20073543
187	0x3e0aed71	0.13567139
188	0xbe164ff4	-0.14678937
189	0xbeabe255	-0.33571115
190	0x3c747d5f	0.014922469
191	0xbe888e64	-0.26671135
192	0x3e71dce4	0.2361942
193	0x3e8a417d	0.2700309
194	0xbe5c19a0	-0.2149415
195	0x3d9eb89c	0.07750055
196	0x3e7d787a	0.2475299
197	0x3eb737fe	0.35784906
198	0xbe7562cf	-0.23963474
199	0xbea1d5ac	-0.3160833
200	0xbdf6fed5	-0.12060324
201	0x3e29af5c	0.165708
202	0xbce71192	-0.02820662
203	0xbbe92f57	-0.007116239
204	0xbe6316f2	-0.22176722
205	0xbdcb91fd	-0.099399544
206	0xbe917e3c	-0.28416622
207	0xbd6f0cb6	-0.05836173
208	0x3e83e514	0.2576071
209	0xbea75447	-0.32681486
210	0xbe389047	-0.18023787
211	0x3db8d167	0.09024315
212	0x3ec9266a	0.3928712
213	0x3e9fe2ad	0.31227627
214	0x3df92a91	0.12166322
215	0xbdd8e6c2	-0.105908886
216	0x3ead45c1	0.3384228
217	0xbd210d2e	-0.03931921
218	0xbe0cd272	-0.13752154
219	0xbd597ee6	-0.053099535
220	0xbe09a829	-0.13443054
221	0xbe7156e8	-0.23568308
222	0x3e97c600	0.2964325
223	0x3e813f26	0.2524349
224	0x3e029ca6	0.12755069
225	0x3e26981b	0.16268961
226	0x3cf0a484	0.029375322
227	0x3e5b9edc	0.21447319
228	0x3e6df338	0.23237312
229	0xbe24d290	-0.16095948
230	0xbe9e6237	-0.30934307
231	0x3e92863e	0.28618044
232	0x3e9d5507	0.30728933
233	0xbe990ca7	-0.29892465
234	0x3e9ff69f	0.31242844
235	0xbd789751	-0.06069118
236	0xbdece531	-0.11567152
237	0x3e8f2c78	0.27963614
238	0xbcb6e2e5	-0.022324989
239	0x3e298ba0	0.16557169
240	0xbe60d470	-0.21956038
241	0xbe9c63a0	-0.30544758
242	0xbd01fecf	-0.031737145
243	0x3e1619eb	0.14658324
244	0xbdd06102	-0.10174753
245	0xbe04d82e	-0.12973091
246	0xbe87fff2	-0.26562458
247	0x3e467f65	0.19384535
248	0xbeb719f5	-0.3576199
249	0x3da438c4	0.0801864
250	0x3e7457bf	0.23861597
251	0xbd006510	-0.03134638
252	0x3d92dd94	0.07171169
253	0x3e98e771	0.29864076
254	0xbe8172f8	-0.25283027
255	0x3e887fe2	0.26660067

blocks.0.mlp.fc2.bias f4 [8]
0	0xbc004a27	-0.007830179
1	0x3c30a444	0.0107813515
2	0xbb93d19b	-0.004511071
3	0xbc3ab24c	-0.011395048
4	0x3c8c4228	0.01712139
5	0x3ba306e2	0.0049751857
6	0x3caa8307	0.020814432
7	0x3aa56521	0.001261864

blocks.1.norm1.weight f4 [8]
0	0x3f74382b	0.95398206
1	0x3f81fd3d	1.0155407
2	0x3f6f4d99	0.9347778
3	0x3f5bee8c	0.8591087
4	0x3f66e12f	0.9018735
5	0x3f64e216	0.8940748
6	0x3f38c430	0.7217436
7	0x3f64ff62	0.89452183

blocks.1.norm1.bias f4 [8]
0	0xbcef094a	-0.029179234
1	0x3c05230f	0.008126034
2	0x3c904475	0.017610768
3	0xbcee6056	-0.02909867
4	0xbc80c44a	-0.015718598
5	0x3ada2b84	0.0016645049
6	0x3d2ea4e6	0.04263773
7	0xbb4b1fef	-0.0030994376

blocks.1.attn.qkv.weight f4 [24, 8]
0	0x3e436853	0.19082765
1	0xbc95ece7	-0.01830144
2	0xbe445aff	-0.19175337
3	0xbde0be8e	-0.109738454
4	0x3cd74721	0.026279034
5	0x3e9b1fd6	0.30297726
6	0x3e696c8b	0.22795312
7	0xbce421df	-0.027848182
8	0x3bf75635	0.0075481185
9	0x3e6caf48	0.2311374
10	0x3d9eaa27	0.07747298
11	0x3c33e23b	0.0109792305
12	0xbd434311	-0.04767138
13	0xbde4920c	-0.11160669
14	0xbe4a64ee	-0.19765064
15	0xbee94351	-0.4555917
16	0xbeb9384b	-0.3617576
17	0x3dc276b5	0.09495298
18	0xbd70ee6c	-0.058821127
19	0xbea24c3d	-0.3169879
20	0x3e11d45b	0.14241163
21	0x3da0f450	0.07859099
22	0xbdd699c0	-0.10478544
23	0x3e65cfbe	0.22442529
24	0x3ed13fbc	0.40868938
25	0x3de92c1a	0.11385365
26	0xbe837344	-0.25673878
27	0xbe8c0348	-0.27346253
28	0x3ed98909	0.42487362
29	0x3e59ba85	0.21262558
30	0xbe9198f2	-0.28437
31	0x3db36fcb	0.08761557
32	0xbed9c7d2	-0.42535263
33	0x3c3dac28	0.01157669
34	0xbe242dc9	-0.1603309
35	0x3ca8f203	0.020623213
36	0xbe8ba646	-0.27275294
37	0xbdf15a64	-0.11784819
38	0xbe80bdaa	-0.25144702
39	0xbea602ff	-0.3242416
40	0x3ead2fb1	0.33825448
41	0x3ea01d19	0.312722
42	0x3dbbe469	0.09174425
43	0x3cd678cb	0.026180645
44	0x3e996fb2	0.2996803
45	0x3e060de0	0.1309123
46	0xbea8b9c4	-0.32954228
47	0xbe260ba9	-0.16215385
48	0x3d57ab31	0.052653495
49	0x3bfbd33a	0.0076850923
50	0x3e872b4e	0.26400226
51	0x3e5f2960	0.21793127
52	0xbe88069f	-0.26567551
53	0xbd0abd5f	-0.033872005
54	0xbea5389f	-0.3226976
55	0x3d6204fb	0.05518053
56	0x3ca12ef1	0.019675704
57	0x3e606164	0.21912152
58	0x3f048430	0.517642
59	0x3e45468c	0.19265193
60	0xbefa8a37	-0.48933575
61	0xbeafdb95	-0.34347215
62	0x3ed510cb	0.41614375
63	0xbd947ec8	-0.07250744
64	0x3dde48e3	0.10853746
65	0xbcc1a6a9	-0.02363904
66	0x3e1d39b6	0.15354046
67	0xbe23ff5d	-0.16015382
68	0x3d8190d3	0.06326451
69	0xbe962018	-0.2932136
70	0x3e5ead2b	0.21745746
71	0xbe90e9fe	-0.28303522
72	0x3e4335d7	0.19063507
73	0x3e57be3d	0.21068664
74	0x3ecf60f6	0.40503663
75	0x3e17761c	0.14791149
76	0x3eab816e	0.33497185
77	0xbedd1826	-0.43182486
78	0xbe97cb02	-0.2964707
79	0x3e94f98b	0.29096636
80	0xbe828f44	-0.25499928
81	0xbe919965	-0.28437343
82	0x3e9da9fc	0.3079375
83	0xbdc339ae	-0.09532486
84	0xbe9d6b42	-0.30745894
85	0xbe948e4a	-0.29014808
86	0x3e38da7e	0.18052098
87	0x3d9917ba	0.074752286
88	0xbe8acea3	-0.27110776
89	0xbee0b769	-0.4388993
90	0xbd67e773	-0.05661721
91	0xbe32d2f1	-0.1746328
92	0xbd610103	-0.054932605
93	0x3e37b36b	0.17939536
94	0xbe98ccd9	-0.29843786
95	0xbe4ef57b	-0.20210831
96	0x3e1085f5	0.141136
97	0x3e0e0439	0.13868798
98	0x3c25c3fa	0.010117525
99	0x3ddeda29	0.108814545
100	0xbe9e0300	-0.30861664
101	0x3973aa0e	0.00023237636
102	0x3d2e93aa	0.042621292
103	0x3e3d9a4e	0.18515894
104	0xbe2568c9	-0.16153254
105	0xbe537f2b	-0.2065398
106	0x3ea8fd0b	0.33005556
107	0x3dfb2258	0.1226241
108	0xbd877713	-0.066145085
109	0xbe5a4615	-0.21315797
110	0x3eacf4fa	0.33780652
111	0x3e90f6e0	0.2831335
112	0x3d2097d9	0.039207313
113	0xbee67aa0	-0.4501543
114	0x3e32c768	0.1745888
115	0xbdeb3a36	-0.11485712
116	0x3e0a00f6	0.13476929
117	0xbd68358f	-0.056691702
118	0x3eb2d0cd	0.34924927
119	0xbdeadeb9	-0.11468262
120	0xbed0c22b	-0.40773138
121	0x3ddd6b03	0.108114265
122	0x3cde2c98	0.027120873
123	0xbe15fd81	-0.14647485
124	0x3e52cf22	0.20586827
125	0x3eaa3558	0.33243823
126	0x3e171e5c	0.14757675
127	0x3d2d3100	0.04228306
128	0xbe975e6d	-0.2956423
129	0xbe324b86	-0.17411622
130	0xbeb0c676	-0.34526414
131	0xbe160d2d	-0.14653464
132	0xbeb59371	-0.3546405
133	0xbe210717	-0.15725361
134	0xbe8579f8	-0.26069617
135	0x3e5d349e	0.21602103
136	0xbed62ba9	-0.41830185
137	0x3eea217e	0.45728678
138	0xbd29dfd8	-0.04147324
139	0xbd777c4b	-0.06042127
140	0xbd510960	-0.05103433
141	0xbe4f9768	-0.202726
142	0x3e9b13d5	0.30288568
143	0xbc9821c4	-0.018570788
144	0x3c674964	0.014116619
145	0xbe8ade1b	-0.27122578
146	0x3e6a769d	0.2289681
147	0xbe0dfe4f	-0.13866542
148	0xbe7ed0b3	-0.248843
149	0x3e34d423	0.17659049
150	0xbd9bec87	-0.076134734
151	0xbeb01df0	-0.3439784
152	0x3e1b3a6c	0.15159005
153	0x3e1e6b87	0.15470706
154	0x3e487acc	0.19578093
155	0xbe048487	-0.1294118
156	0xbe336c2a	-0.1752173
157	0xbe8dd30b	-0.27700076
158	0xbe42d49c	-0.19026417
159	0xbe825006	-0.25451678
160	0x3ce04be3	0.027379936
161	0x3db63cff	0.08898353
162	0xbedfaf17	-0.4368827
163	0xbd2447a6	-0.04010739
164	0xbd2a789e	-0.041618936
165	0xbe3c5c84	-0.18394667
166	0x3d4568f3	0.04819579
167	0x3e3ce1c5	0.18445499
168	0x3df082a6	0.11743669
169	0x3e7c67a8	0.24648917
170	0xbe8914c8	-0.26773667
171	0xbddff922	-0.1093619
172	0x3e349b2e	0.17637321
173	0x3db05aee	0.086110935
174	0x3e6aa741	0.22915365
175	0xbd9a355e	-0.0752971
176	0x3ddf7eb4	0.109128386
177	0xbdb54e27	-0.08852797
178	0x3e84f154	0.2596537
179	0xbe7c8e63	-0.24663691
180	0xbd718eb9	-0.058974
181	0x3cccd483	0.025003677
182	0x3d9b5c4b	0.07585963
183	0xbd8304bd	-0.06397388
184	0x3db47529	0.08811409
185	0xbeb7c46c	-0.35892045
186	0xbccb3488	-0.024805322
187	0x3dd79c66	0.105278775
188	0x3e7e8693	0.24856023
189	0xbe66d976	-0.22543892
190	0x3e08322a	0.13300386
191	0xbe5de82d	-0.216706

blocks.1.attn.qkv.bias f4 [24]
0	0xbdf2c45e	-0.1185386
1	0xbd948372	-0.07251634
2	0x3d4560b3	0.048187923
3	0xbd715345	-0.058917303
4	0x3d5542a8	0.05206552
5	0x3a6ea25d	0.00091031735
6	0x3de9a214	0.11407867
7	0x3e098ace	0.13431856
8	0xb8702ea5	-5.72639e-05
9	0xb81e53d2	-3.77482e-05
10	0x37e14bf4	2.6857459e-05
11	0xb88875e6	-6.506946e-05
12	0x376e6795	1.42100225e-05
13	0xb8691559	-5.557141e-05
14	0x38a840a8	8.0229074e-05
15	0x39017e25	0.00012349391
16	0x3b4980fd	0.003074705
17	0x3cd4fe29	0.0260001
18	0x3cb33787	0.021877063
19	0xbc3ee9b4	-0.011652399
20	0xbb56357a	-0.0032685683
21	0x3ca37dbb	0.019957414
22	0x3c97bd54	0.018522896
23	0x39a76ada	0.00031932333

blocks.1.attn.proj.weight f4 [8, 8]
0	0xbe52e6d8	-0.20595872
1	0xbdd5ed09	-0.104456015
2	0x3e8e5bfa	0.27804548
3	0xbefe4283	-0.4966012
4	0x3e1e816c	0.15479058
5	0xbe9d617b	-0.30738434
6	0x3eacd298	0.3375442
7	0xbe8f1940	-0.27948952
8	0x3e33765a	0.17525616
9	0xbe1d6c25	-0.15373285
10	0x3ea5b3f2	0.3236385
11	0x3e31badb	0.17356436
12	0x3e24de8a	0.16100517
13	0x3e90dbb6	0.28292626
14	0x3edf7215	0.43641725
15	0x3e6eeb4a	0.23331943
16	0x3ef3fcd2	0.47653824
17	0xbf0e4517	-0.5557417
18	0xbeab22dc	-0.33425033
19	0xbd731dc2	-0.05935455
20	0x3dbf4acf	0.093404405
21	0xbedc86f7	-0.4307172
22	0xbd145a14	-0.036218718
23	0xbea8006f	-0.3281283
24	0x3ad68898	0.0016367612
25	0x3e80c306	0.2514879
26	0xbe28f082	-0.16497996
27	0x3e5ff6d0	0.21871495
28	0x3db752aa	0.08951314
29	0xbeed4334	-0.46340334
30	0xbef2c853	-0.4741846
31	0x3ec88032	0.39160305
32	0x3ea8517f	0.32874677
33	0x3f190c3c	0.59784293
34	0xbdd509bd	-0.10402248
35	0xbef56f44	-0.4793645
36	0xbec7e4eb	-0.39041838
37	0xbd80ee7f	-0.062954895
38	0x3ee07ae6	0.43843764
39	0xbe408db6	-0.18804058
40	0x3eb85914	0.3600546
41	0xbdedd376	-0.116125986
42	0xbee558a0	-0.44794178
43	0x3ee5df96	0.44897145
44	0xbe317992	-0.17331532
45	0x3ef8c3f6	0.48587006
46	0x3e8280ba	0.25488836
47	0xbe14f657	-0.14547096
48	0xbcd34095	-0.025787631
49	0x3f00b2b5	0.50272685
50	0x3f0826bb	0.531841
51	0x3e2d0526	0.16896495
52	0x3ecf703c	0.40515316
53	0xbe8e0c47	-0.27743742
54	0xbeb62584	-0.35575497
55	0x3e02abb2	0.12760809
56	0xbe2329c9	-0.15933909
57	0xbf050997	-0.5196776
58	0xbd0ed18a	-0.0348678
59	0xbe883f5b	-0.26610836
60	0xbdf046a7	-0.11732226
61	0xbd606d06	-0.054791473
62	0x3e05be5d	0.13060899
63	0xbe342b39	-0.17594613

blocks.1.attn.proj.bias f4 [8]
0	0x3c52f8f1	0.012876735
1	0x3c582900	0.013193369
2	0xbca03a59	-0.019559072
3	0xbc389711	-0.011266486
4	0x3ce6a322	0.02815396
5	0xbbfaaae8	-0.007649768
6	0x3c5cdb73	0.013480055
7	0xbad81615	-0.0016486073

blocks.1.norm2.weight f4 [8]
0	0x3f49e2aa	0.78861487
1	0x3f766b21	0.96257216
2	0x3f73c021	0.9521504
3	0x3f690551	0.9102374
4	0x3f78a29c	0.9712312
5	0x3f76cf91	0.9641047
6	0x3f70d006	0.9406742
7	0x3f5f924a	0.87332594

blocks.1.norm2.bias f4 [8]
0	0x3ccf3b4b	0.025296828
1	0x3c55e908	0.013056047
2	0x3d3135dc	0.043264255
3	0x3baca5f6	0.0052688075
4	0xbc4f9b16	-0.012671253
5	0x3b4182b2	0.0029527363
6	0x3c134ed7	0.008990965
7	0x3c428d4a	0.011874506
