configs/experiment/best_Moving_MNIST_MAE.pth (torch, 188283 bytes, 158 tensors)

cls_token f4 [1, 1, 8]
0	0x3bc4d54a	0.0060068714
1	0xbc25f9d4	-0.010130364
2	0xbbd16b53	-0.006390968
3	0x3c3450be	0.011005579
4	0xbc4ccf7e	-0.012500642
5	0x3cb0a7ab	0.021564325
6	0x3af92da1	0.0019010791
7	0x3c049b15	0.008093615

pos_embed f4 [1, 1281, 8]
0	0x00000000	0.0
1	0x00000000	0.0
2	0x00000000	0.0
3	0x00000000	0.0
4	0x00000000	0.0
5	0x00000000	0.0
6	0x00000000	0.0
7	0x00000000	0.0
8	0x00000000	0.0
9	0x00000000	0.0
10	0x3f800000	1.0
11	0x3f800000	1.0
12	0x00000000	0.0
13	0x00000000	0.0
14	0x3f800000	1.0
15	0x3f800000	1.0
16	0x00000000	0.0
17	0x00000000	0.0
18	0x3f800000	1.0
19	0x3f800000	1.0
20	0xa58d3132	-2.4492937e-16
21	0x3a24b5bd	0.00062831846
22	0x3f800000	1.0
23	0x3f7ffffd	0.9999998
24	0x00000000	0.0
25	0x00000000	0.0
26	0x3f800000	1.0
27	0x3f800000	1.0
28	0xa60d3132	-4.8985874e-16
29	0x3aa4b5bb	0.0012566367
30	0x3f800000	1.0
31	0x3f7ffff3	0.9999992
32	0x00000000	0.0
33	0x00000000	0.0
34	0x3f800000	1.0
35	0x3f800000	1.0
36	0xa653c9ca	-7.3478806e-16
37	0x3af71094	0.0018849545
38	0x3f800000	1.0
39	0x3f7fffe2	0.9999982
40	0x00000000	0.0
41	0x00000000	0.0
42	0x3f800000	1.0
43	0x3f800000	1.0
44	0xa68d3132	-9.797175e-16
45	0x3b24b5b3	0.0025132715
46	0x3f800000	1.0
47	0x3f7fffcb	0.99999684
48	0x00000000	0.0
49	0x00000000	0.0
50	0x3f800000	1.0
51	0x3f800000	1.0
52	0xa6b07d7e	-1.2246468e-15
53	0x3b4de318	0.0031415876
54	0x3f800000	1.0
55	0x3f7fffad	0.99999505
56	0x00000000	0.0
57	0x00000000	0.0
58	0x3f800000	1.0
59	0x3f800000	1.0
60	0xa6d3c9ca	-1.4695761e-15
61	0x3b771077	0.0037699023
62	0x3f800000	1.0
63	0x3f7fff89	0.9999929
64	0x00000000	0.0
65	0x00000000	0.0
66	0x3f800000	1.0
67	0x3f800000	1.0
68	0xa6f71617	-1.7145055e-15
69	0x3b901ee8	0.0043982156
70	0x3f800000	1.0
71	0x3f7fff5e	0.99999034
72	0x00000000	0.0
73	0x00000000	0.0
74	0x3f800000	1.0
75	0x3f800000	1.0
76	0xa70d3132	-1.959435e-15
77	0x3ba4b591	0.005026527
78	0x3f800000	1.0
79	0x3f7fff2c	0.99998736
80	0x00000000	0.0
81	0x00000000	0.0
82	0x3f800000	1.0
83	0x3f800000	1.0
84	0xa71ed758	-2.2043643e-15
85	0x3bb94c35	0.0056548365
86	0x3f800000	1.0
87	0x3f7ffef4	0.999984
88	0x00000000	0.0
89	0x00000000	0.0
90	0x3f800000	1.0
91	0x3f800000	1.0
92	0xa7307d7e	-2.4492936e-15
93	0x3bcde2d5	0.006283144
94	0x3f800000	1.0
95	0x3f7ffeb5	0.9999803
96	0x00000000	0.0
97	0x00000000	0.0
98	0x3f800000	1.0
99	0x3f800000	1.0
100	0xa83088e9	-9.79965e-15
101	0x3be2796f	0.0069114487
102	0x3f800000	1.0
103	0x3f7ffe6f	0.9999761
104	0x00000000	0.0
105	0x00000000	0.0
106	0x3f800000	1.0
107	0x3f800000	1.0
108	0xa753c9ca	-2.9391522e-15
109	0x3bf71004	0.007539751
110	0x3f800000	1.0
111	0x3f7ffe23	0.99997157
112	0x00000000	0.0
113	0x00000000	0.0
114	0x3f800000	1.0
115	0x3f800000	1.0
116	0x278d4808	3.921346e-15
117	0x3c05d349	0.00816805
118	0x3f800000	1.0
119	0x3f7ffdd0	0.9999666
120	0x00000000	0.0
121	0x00000000	0.0
122	0x3f800000	1.0
123	0x3f800000	1.0
124	0xa7771617	-3.429011e-15
125	0x3c101e8d	0.008796346
126	0x3f800000	1.0
127	0x3f7ffd77	0.9999613
128	0x00000000	0.0
129	0x00000000	0.0
130	0x3f800000	1.0
131	0x3f800000	1.0
132	0xa8422f0f	-1.07793675e-14
133	0x3c1a69cc	0.009424638
134	0x3f800000	1.0
135	0x3f7ffd17	0.9999556
136	0x00000000	0.0
137	0x00000000	0.0
138	0x3f800000	1.0
139	0x3f800000	1.0
140	0x00000000	0.0
141	0x00000000	0.0
142	0x3f800000	1.0
143	0x3f800000	1.0
144	0x00000000	0.0
145	0x00000000	0.0
146	0x3f800000	1.0
147	0x3f800000	1.0
148	0xa58d3132	-2.4492937e-16
149	0x3a24b5bd	0.00062831846
150	0x3f800000	1.0
151	0x3f7ffffd	0.9999998
152	0x00000000	0.0
153	0x00000000	0.0
154	0x3f800000	1.0
155	0x3f800000	1.0
156	0xa60d3132	-4.8985874e-16
157	0x3aa4b5bb	0.0012566367
158	0x3f800000	1.0
159	0x3f7ffff3	0.9999992
160	0x00000000	0.0
161	0x00000000	0.0
162	0x3f800000	1.0
163	0x3f800000	1.0
164	0xa653c9ca	-7.3478806e-16
165	0x3af71094	0.0018849545
166	0x3f800000	1.0
167	0x3f7fffe2	0.9999982
168	0x00000000	0.0
169	0x00000000	0.0
170	0x3f800000	1.0
171	0x3f800000	1.0
172	0xa68d3132	-9.797175e-16
173	0x3b24b5b3	0.0025132715
174	0x3f800000	1.0
175	0x3f7fffcb	0.99999684
176	0x00000000	0.0
177	0x00000000	0.0
178	0x3f800000	1.0
179	0x3f800000	1.0
180	0xa6b07d7e	-1.2246468e-15
181	0x3b4de318	0.0031415876
182	0x3f800000	1.0
183	0x3f7fffad	0.99999505
184	0x00000000	0.0
185	0x00000000	0.0
186	0x3f800000	1.0
187	0x3f800000	1.0
188	0xa6d3c9ca	-1.4695761e-15
189	0x3b771077	0.0037699023
190	0x3f800000	1.0
191	0x3f7fff89	0.9999929
192	0x00000000	0.0
193	0x00000000	0.0
194	0x3f800000	1.0
195	0x3f800000	1.0
196	0xa6f71617	-1.7145055e-15
197	0x3b901ee8	0.0043982156
198	0x3f800000	1.0
199	0x3f7fff5e	0.99999034
200	0x00000000	0.0
201	0x00000000	0.0
202	0x3f800000	1.0
203	0x3f800000	1.0
204	0xa70d3132	-1.959435e-15
205	0x3ba4b591	0.005026527
206	0x3f800000	1.0
207	0x3f7fff2c	0.99998736
208	0x00000000	0.0
209	0x00000000	0.0
210	0x3f800000	1.0
211	0x3f800000	1.0
212	0xa71ed758	-2.2043643e-15
213	0x3bb94c35	0.0056548365
214	0x3f800000	1.0
215	0x3f7ffef4	0.999984
216	0x00000000	0.0
217	0x00000000	0.0
218	0x3f800000	1.0
219	0x3f800000	1.0
220	0xa7307d7e	-2.4492936e-15
221	0x3bcde2d5	0.006283144
222	0x3f800000	1.0
223	0x3f7ffeb5	0.9999803
224	0x00000000	0.0
225	0x00000000	0.0
226	0x3f800000	1.0
227	0x3f800000	1.0
228	0xa83088e9	-9.79965e-15
229	0x3be2796f	0.0069114487
230	0x3f800000	1.0
231	0x3f7ffe6f	0.9999761
232	0x00000000	0.0
233	0x00000000	0.0
234	0x3f800000	1.0
235	0x3f800000	1.0
236	0xa753c9ca	-2.9391522e-15
237	0x3bf71004	0.007539751
238	0x3f800000	1.0
239	0x3f7ffe23	0.99997157
240	0x00000000	0.0
241	0x00000000	0.0
242	0x3f800000	1.0
243	0x3f800000	1.0
244	0x278d4808	3.921346e-15
245	0x3c05d349	0.00816805
246	0x3f800000	1.0
247	0x3f7ffdd0	0.9999666
248	0x00000000	0.0
249	0x00000000	0.0
250	0x3f800000	1.0
251	0x3f800000	1.0
252	0xa7771617	-3.429011e-15
253	0x3c101e8d	0.008796346
254	0x3f800000	1.0
255	0x3f7ffd77	0.9999613

mask_token f4 [1, 1, 8]
0	0xbb3478f1	-0.0027537907
1	0x3b958f98	0.004564237
2	0xbcbabf7e	-0.022796389
3	0x3c743606	0.014905458
4	0xbcdec18d	-0.027191902
5	0x3bba96c5	0.0056942427
6	0x3b97935d	0.0046257214
7	0xbc875de0	-0.016524255

decoder_pos_embed f4 [1, 1281, 8]
0	0x00000000	0.0
1	0x00000000	0.0
2	0x00000000	0.0
3	0x00000000	0.0
4	0x00000000	0.0
5	0x00000000	0.0
6	0x00000000	0.0
7	0x00000000	0.0
8	0x00000000	0.0
9	0x00000000	0.0
10	0x3f800000	1.0
11	0x3f800000	1.0
12	0x00000000	0.0
13	0x00000000	0.0
14	0x3f800000	1.0
15	0x3f800000	1.0
16	0x00000000	0.0
17	0x00000000	0.0
18	0x3f800000	1.0
19	0x3f800000	1.0
20	0xa58d3132	-2.4492937e-16
21	0x3a24b5bd	0.00062831846
22	0x3f800000	1.0
23	0x3f7ffffd	0.9999998
24	0x00000000	0.0
25	0x00000000	0.0
26	0x3f800000	1.0
27	0x3f800000	1.0
28	0xa60d3132	-4.8985874e-16
29	0x3aa4b5bb	0.0012566367
30	0x3f800000	1.0
31	0x3f7ffff3	0.9999992
32	0x00000000	0.0
33	0x00000000	0.0
34	0x3f800000	1.0
35	0x3f800000	1.0
36	0xa653c9ca	-7.3478806e-16
37	0x3af71094	0.0018849545
38	0x3f800000	1.0
39	0x3f7fffe2	0.9999982
40	0x00000000	0.0
41	0x00000000	0.0
42	0x3f800000	1.0
43	0x3f800000	1.0
44	0xa68d3132	-9.797175e-16
45	0x3b24b5b3	0.0025132715
46	0x3f800000	1.0
47	0x3f7fffcb	0.99999684
48	0x00000000	0.0
49	0x00000000	0.0
50	0x3f800000	1.0
51	0x3f800000	1.0
52	0xa6b07d7e	-1.2246468e-15
53	0x3b4de318	0.0031415876
54	0x3f800000	1.0
55	0x3f7fffad	0.99999505
56	0x00000000	0.0
57	0x00000000	0.0
58	0x3f800000	1.0
59	0x3f800000	1.0
60	0xa6d3c9ca	-1.4695761e-15
61	0x3b771077	0.0037699023
62	0x3f800000	1.0
63	0x3f7fff89	0.9999929
64	0x00000000	0.0
65	0x00000000	0.0
66	0x3f800000	1.0
67	0x3f800000	1.0
68	0xa6f71617	-1.7145055e-15
69	0x3b901ee8	0.0043982156
70	0x3f800000	1.0
71	0x3f7fff5e	0.99999034
72	0x00000000	0.0
73	0x00000000	0.0
74	0x3f800000	1.0
75	0x3f800000	1.0
76	0xa70d3132	-1.959435e-15
77	0x3ba4b591	0.005026527
78	0x3f800000	1.0
79	0x3f7fff2c	0.99998736
80	0x00000000	0.0
81	0x00000000	0.0
82	0x3f800000	1.0
83	0x3f800000	1.0
84	0xa71ed758	-2.2043643e-15
85	0x3bb94c35	0.0056548365
86	0x3f800000	1.0
87	0x3f7ffef4	0.999984
88	0x00000000	0.0
89	0x00000000	0.0
90	0x3f800000	1.0
91	0x3f800000	1.0
92	0xa7307d7e	-2.4492936e-15
93	0x3bcde2d5	0.006283144
94	0x3f800000	1.0
95	0x3f7ffeb5	0.9999803
96	0x00000000	0.0
97	0x00000000	0.0
98	0x3f800000	1.0
99	0x3f800000	1.0
100	0xa83088e9	-9.79965e-15
101	0x3be2796f	0.0069114487
102	0x3f800000	1.0
103	0x3f7ffe6f	0.9999761
104	0x00000000	0.0
105	0x00000000	0.0
106	0x3f800000	1.0
107	0x3f800000	1.0
108	0xa753c9ca	-2.9391522e-15
109	0x3bf71004	0.007539751
110	0x3f800000	1.0
111	0x3f7ffe23	0.99997157
112	0x00000000	0.0
113	0x00000000	0.0
114	0x3f800000	1.0
115	0x3f800000	1.0
116	0x278d4808	3.921346e-15
117	0x3c05d349	0.00816805
118	0x3f800000	1.0
119	0x3f7ffdd0	0.9999666
120	0x00000000	0.0
121	0x00000000	0.0
122	0x3f800000	1.0
123	0x3f800000	1.0
124	0xa7771617	-3.429011e-15
125	0x3c101e8d	0.008796346
126	0x3f800000	1.0
127	0x3f7ffd77	0.9999613
128	0x00000000	0.0
129	0x00000000	0.0
130	0x3f800000	1.0
131	0x3f800000	1.0
132	0xa8422f0f	-1.07793675e-14
133	0x3c1a69cc	0.009424638
134	0x3f800000	1.0
135	0x3f7ffd17	0.9999556
136	0x00000000	0.0
137	0x00000000	0.0
138	0x3f800000	1.0
139	0x3f800000	1.0
140	0x00000000	0.0
141	0x00000000	0.0
142	0x3f800000	1.0
143	0x3f800000	1.0
144	0x00000000	0.0
145	0x00000000	0.0
146	0x3f800000	1.0
147	0x3f800000	1.0
148	0xa58d3132	-2.4492937e-16
149	0x3a24b5bd	0.00062831846
150	0x3f800000	1.0
151	0x3f7ffffd	0.9999998
152	0x00000000	0.0
153	0x00000000	0.0
154	0x3f800000	1.0
155	0x3f800000	1.0
156	0xa60d3132	-4.8985874e-16
157	0x3aa4b5bb	0.0012566367
158	0x3f800000	1.0
159	0x3f7ffff3	0.9999992
160	0x00000000	0.0
161	0x00000000	0.0
162	0x3f800000	1.0
163	0x3f800000	1.0
164	0xa653c9ca	-7.3478806e-16
165	0x3af71094	0.0018849545
166	0x3f800000	1.0
167	0x3f7fffe2	0.9999982
168	0x00000000	0.0
169	0x00000000	0.0
170	0x3f800000	1.0
171	0x3f800000	1.0
172	0xa68d3132	-9.797175e-16
173	0x3b24b5b3	0.0025132715
174	0x3f800000	1.0
175	0x3f7fffcb	0.99999684
176	0x00000000	0.0
177	0x00000000	0.0
178	0x3f800000	1.0
179	0x3f800000	1.0
180	0xa6b07d7e	-1.2246468e-15
181	0x3b4de318	0.0031415876
182	0x3f800000	1.0
183	0x3f7fffad	0.99999505
184	0x00000000	0.0
185	0x00000000	0.0
186	0x3f800000	1.0
187	0x3f800000	1.0
188	0xa6d3c9ca	-1.4695761e-15
189	0x3b771077	0.0037699023
190	0x3f800000	1.0
191	0x3f7fff89	0.9999929
192	0x00000000	0.0
193	0x00000000	0.0
194	0x3f800000	1.0
195	0x3f800000	1.0
196	0xa6f71617	-1.7145055e-15
197	0x3b901ee8	0.0043982156
198	0x3f800000	1.0
199	0x3f7fff5e	0.99999034
200	0x00000000	0.0
201	0x00000000	0.0
202	0x3f800000	1.0
203	0x3f800000	1.0
204	0xa70d3132	-1.959435e-15
205	0x3ba4b591	0.005026527
206	0x3f800000	1.0
207	0x3f7fff2c	0.99998736
208	0x00000000	0.0
209	0x00000000	0.0
210	0x3f800000	1.0
211	0x3f800000	1.0
212	0xa71ed758	-2.2043643e-15
213	0x3bb94c35	0.0056548365
214	0x3f800000	1.0
215	0x3f7ffef4	0.999984
216	0x00000000	0.0
217	0x00000000	0.0
218	0x3f800000	1.0
219	0x3f800000	1.0
220	0xa7307d7e	-2.4492936e-15
221	0x3bcde2d5	0.006283144
222	0x3f800000	1.0
223	0x3f7ffeb5	0.9999803
224	0x00000000	0.0
225	0x00000000	0.0
226	0x3f800000	1.0
227	0x3f800000	1.0
228	0xa83088e9	-9.79965e-15
229	0x3be2796f	0.0069114487
230	0x3f800000	1.0
231	0x3f7ffe6f	0.9999761
232	0x00000000	0.0
233	0x00000000	0.0
234	0x3f800000	1.0
235	0x3f800000	1.0
236	0xa753c9ca	-2.9391522e-15
237	0x3bf71004	0.007539751
238	0x3f800000	1.0
239	0x3f7ffe23	0.99997157
240	0x00000000	0.0
241	0x00000000	0.0
242	0x3f800000	1.0
243	0x3f800000	1.0
244	0x278d4808	3.921346e-15
245	0x3c05d349	0.00816805
246	0x3f800000	1.0
247	0x3f7ffdd0	0.9999666
248	0x00000000	0.0
249	0x00000000	0.0
250	0x3f800000	1.0
251	0x3f800000	1.0
252	0xa7771617	-3.429011e-15
253	0x3c101e8d	0.008796346
254	0x3f800000	1.0
255	0x3f7ffd77	0.9999613

patch_embed.proj.weight f4 [8, 1, 4, 4, 4]
0	0x3e3436ae	0.17598984
1	0xbe58b567	-0.2116295
2	0x3e2cfb7e	0.16892812
3	0x3d013db4	0.031552985
4	0x3e2d76d5	0.16939862
5	0xbcaddec2	-0.021224383
6	0x3d458487	0.04822209
7	0xbe268fa7	-0.16265737
8	0x3c413cd9	0.011794292
9	0xbdae479e	-0.08509754
10	0x3e43b04d	0.19110222
11	0xbc801407	-0.01563455
12	0xbe397284	-0.1811009
13	0x3e56b3db	0.20967047
14	0xbe36d162	-0.1785331
15	0xbe14fbd5	-0.14549191
16	0x3e7b863f	0.2456293
17	0x3e6fa758	0.2340368
18	0x3d63483a	0.055488802
19	0x3d7f0172	0.062257238
20	0xbc4bde72	-0.012443172
21	0xbc935f52	-0.017989788
22	0x3cf80b26	0.030278753
23	0x3e34ecfe	0.1766853
24	0xbe8dcf4f	-0.27697226
25	0x3df5ec29	0.120079346
26	0xbe5ac53a	-0.21364298
27	0xbe33ec15	-0.17570527
28	0x3c4e6791	0.012597934
29	0xbe7dcf5a	-0.2478613
30	0x3e5c4326	0.2150999
31	0x3d96da06	0.073658034
32	0xbd1d6509	-0.038426433
33	0x3e4713d3	0.19441156
34	0xbe85ff8b	-0.26171526
35	0xbe830f6e	-0.2559771
36	0xbe6bed2a	-0.2303969
37	0xbe0c63e0	-0.13709974
38	0x3d04756a	0.032338537
39	0xbe5fda9e	-0.2186074
40	0xbd8d41a6	-0.06897287
41	0xbc8e28d8	-0.01735346
42	0x3e3c4ca1	0.18388607
43	0x3de9b171	0.114107974
44	0x3d94fe7d	0.07275102
45	0x3dcc5dce	0.09978829
46	0x3e3e7d88	0.18602574
47	0x3e18af8c	0.14910716
48	0x3e5ed98b	0.21762674
49	0x3e7338fe	0.2375221
50	0x3e166440	0.1468668
51	0x3e3c6973	0.183996
52	0xbe619817	-0.22030674
53	0x3daae5bf	0.08344602
54	0xbdcb7f6d	-0.09936414
55	0x3df770bb	0.120820485
56	0x3e863839	0.2621477
57	0xbe33e5c9	-0.17568125
58	0xbdd2948d	-0.1028224
59	0x3cb66704	0.022265919
60	0x3e6039b2	0.21897009
61	0x3e4f6deb	0.20256774
62	0x3e437868	0.190889
63	0x3cd3c266	0.025849532
64	0x3e23cf03	0.15996937
65	0x3e0ca05d	0.13733049
66	0xbe5005fe	-0.20314786
67	0x3d25725e	0.040392272
68	0xbdc7a505	-0.09748272
69	0x3d72ef5d	0.059310306
70	0x3e6ce6b7	0.23134886
71	0x3dfb782b	0.122787796
72	0x3e88fbad	0.26754513
73	0xbdd3d2df	-0.10342955
74	0xbe5d1633	-0.215905
75	0xbe5a6541	-0.21327688
76	0x3e81422d	0.252458
77	0xbbea938d	-0.0071587027
78	0xbdf6510b	-0.120271765
79	0xbe51a354	-0.20472461
80	0x3e8de034	0.27710116
81	0x3e6ad9c5	0.22934635
82	0x3e82d74b	0.2555488
83	0x3e133c8d	0.14378567
84	0xbe72fbb9	-0.23728837
85	0xbe4173f1	-0.18891884
86	0xbe599562	-0.21248391
87	0xbdb21acb	-0.086965166
88	0xbdbf1cfe	-0.09331702
89	0x3e8eefa6	0.27917212
90	0xbe81937f	-0.25307843
91	0xbbe817f9	-0.007082936
92	0xbe089af6	-0.13340363
93	0x3e76c334	0.24097902
94	0x3c6ef5a8	0.014584936
95	0x3e3c9a6f	0.18418287
96	0x3e462baa	0.19352594
97	0x3dfb3dac	0.12267622
98	0x3c42c4cb	0.011887739
99	0xbe8435ae	-0.25822204
100	0x3d33a46f	0.043857988
101	0xbe31bdac	-0.1735751
102	0xbd4d0f65	-0.05006351
103	0x3e34ef68	0.17669451
104	0x3d78c8b9	0.0607383
105	0xbe884652	-0.2661615
106	0xbd5b91bd	-0.053605784
107	0x3e4b8d06	0.19878015
108	0x3e4c20ef	0.19934438
109	0xbe890c56	-0.26767224
110	0xbe703882	-0.23459056
111	0xbe62d7f1	-0.22152688
112	0x3bcc2061	0.006229446
113	0xbe698841	-0.22805883
114	0x3da0d0f1	0.078523524
115	0x3e63c0c1	0.22241499
116	0x3d50acf6	0.0509462
117	0xbdb25f90	-0.08709633
118	0xbc8d8885	-0.017277012
119	0x3def3edf	0.116819136
120	0x3e7558f0	0.23959708
121	0x3e11083c	0.14163297
122	0xbe46cd3e	-0.19414231
123	0x3e71ba61	0.23606254
124	0xbda195ac	-0.07889876
125	0x3d6c4479	0.057682488
126	0xbe06d728	-0.13168013
127	0xbc91d5dc	-0.017802171
128	0xbe62ff30	-0.22167659
129	0x3e2bb3d6	0.1676782
130	0x3dfe9854	0.12431398
131	0xbc943cea	-0.018095452
132	0x3e053b1f	0.13010834
133	0xbe05b110	-0.13055825
134	0xbe26ff72	-0.16308382
135	0x3d94ac2c	0.07259402
136	0x3d208aa0	0.039194703
137	0x3d5d68ee	0.054055147
138	0xbd2a3a08	-0.04155925
139	0xbe242cb4	-0.16032678
140	0xbe017ade	-0.12644526
141	0xbd5733fc	-0.05253981
142	0xbe34541f	-0.17610215
143	0xbd972a24	-0.073810846
144	0xbe5034ce	-0.20332643
145	0x3d893b43	0.067007564
146	0xbe3c70b5	-0.1840237
147	0x3d8f04ed	0.069833614
148	0xbe0559df	-0.13022564
149	0x3e6e5dab	0.23277919
150	0xbe2ab4d0	-0.16670537
151	0x3d97e015	0.07415787
152	0x3dfd5282	0.12369253
153	0xbe941463	-0.28921804
154	0xbe84dbc2	-0.25948912
155	0x3dfaa530	0.12238538
156	0x3e5ec666	0.2175537
157	0xbd2e2644	-0.04251696
158	0xbe8d1946	-0.27558345
159	0xbe7c31da	-0.24628392
160	0xbe3551d3	-0.17706995
161	0xbcb1ab68	-0.021688178
162	0xbe8e562d	-0.27800122
163	0x3d332301	0.043734554
164	0xbe4bc75c	-0.19900268
165	0xbdb496e6	-0.08817844
166	0xbe2159b6	-0.15756878
167	0x3d71bda1	0.059018735
168	0xbe0292fe	-0.12751386
169	0x3d7f3ad6	0.06231197
170	0x3d190efd	0.03736781
171	0xbe8255d1	-0.25456098
172	0x3e3aac9e	0.1822991
173	0x3e2739f8	0.16330707
174	0xbe4649ce	-0.19364092
175	0x3d728ada	0.05921445
176	0x3e7339c0	0.23752499
177	0x3d9d18f8	0.07670778
178	0xbd4cbaa5	-0.049982686
179	0x3dacba95	0.08434025
180	0xbe52f9f9	-0.2060317
181	0xbe674f34	-0.22588807
182	0xbe1dd8e4	-0.15414768
183	0x3e3dcb1b	0.1853451
184	0x3d47233f	0.048617598
185	0x3d2234e1	0.03960121
186	0xbcc3a503	-0.023882395
187	0xbce7940b	-0.028268835
188	0x3e60b134	0.21942598
189	0x3e3c5cc2	0.1839476
190	0x3cea50c4	0.028602965
191	0xbe93ea37	-0.2888963
192	0xbcd4b423	-0.025964802
193	0x3e0140c6	0.12622365
194	0x3d62a3e2	0.055332072
195	0xbc9757d3	-0.018474495
196	0x3e0b7006	0.13616952
197	0xbe886b8c	-0.26644552
198	0x3d21bdbd	0.03948759
199	0xbe7a8a52	-0.24466828
200	0x3e44f6b1	0.1923473
201	0xbe2888b8	-0.16458404
202	0xbbd63a84	-0.0065377373
203	0x3e5464cd	0.20741577
204	0x3d635fba	0.055511214
205	0xbd595c2c	-0.053066418
206	0xbdbb260f	-0.091381185
207	0x3e71a50b	0.23598115
208	0x3e4682d8	0.1938585
209	0xbdff4a8f	-0.12465393
210	0x3da77920	0.081774
211	0xbe2416d0	-0.16024327
212	0x3c4a0b54	0.012331802
213	0x3e192150	0.14954114
214	0x3e8d8dd5	0.27647272
215	0x3dfe77fd	0.1242523
216	0xbe89e63c	-0.26933467
217	0xbd6836bc	-0.056692824
218	0x3e8cd22f	0.27504107
219	0x3d2d6d7b	0.042340737
220	0xbe8bdabe	-0.27315325
221	0x3dcdcad4	0.10048452
222	0xbe4576ac	-0.19283551
223	0xbbd618d9	-0.006533724
224	0x3dc3996e	0.09550749
225	0xbdbb45f3	-0.09144201
226	0x3d68e64e	0.05686026
227	0x3e14fcfb	0.1454963
228	0xb9802259	-0.00024439653
229	0xbe39e1d0	-0.18152547
230	0xbd8c9e28	-0.068661034
231	0x3e4f855e	0.2026572
232	0xbd802aa9	-0.06258137
233	0x3d942175	0.07232944
234	0xbcf2ce6a	-0.029639442
235	0xbe421ca7	-0.18956243
236	0xbe890ee0	-0.2676916
237	0xbe08e6e7	-0.13369332
238	0xbd846bd9	-0.06465883
239	0xbe89215f	-0.26783273
240	0x3e38fbf4	0.18064862
241	0x3e6ae039	0.22937097
242	0x3e40d609	0.18831648
243	0x3dfbe178	0.12298864
244	0xbda577d8	-0.08079499
245	0xbe8feb71	-0.28109315
246	0x3d8e4100	0.069459915
247	0x3db985ed	0.090587474
248	0xbdf53e1c	-0.11974737
249	0x3e8efdd6	0.27928036
250	0xbe43c7ba	-0.19119158
251	0x3db49523	0.08817508
252	0xbe5ad25e	-0.21369311
253	0xbd28b30b	-0.041186374
254	0x3e55e3a4	0.2088762
255	0x3e74b2f1	0.23896386

patch_embed.proj.bias f4 [8]
0	0xbdebfaa7	-0.115224175
1	0x3db250ba	0.087068036
2	0x3d82a58a	0.0637923
3	0x3df83495	0.12119404
4	0x3cc3934f	0.023873953
5	0x3dcfec87	0.10152536
6	0x3cd9f415	0.026605645
7	0xbd6ee1e4	-0.058320895

blocks.0.norm1.weight f4 [8]
0	0x3f803a25	1.0017744
1	0x3f8080fc	1.0039363
2	0x3f7e8420	0.99420357
3	0x3f7f22d8	0.9966254
4	0x3f806c99	1.0033141
5	0x3f7f501f	0.9973163
6	0x3f801d44	1.0008931
7	0x3f808c10	1.0042744

blocks.0.norm1.bias f4 [8]
0	0xbb2a11f7	-0.002595065
1	0xbbb21202	-0.0054342756
2	0xbbc0a701	-0.0058792834
3	0xbb1a9089	-0.0023584685
4	0xbb968c4b	-0.004594361
5	0x3ad93d99	0.0016574144
6	0x3b650449	0.003494518
7	0x3b9f410c	0.004860049

blocks.0.attn.qkv.weight f4 [24, 8]
0	0x3eac6f96	0.33678883
1	0x3e98128b	0.29701647
2	0x3e857e40	0.26072884
3	0x3e95e039	0.2927263
4	0x3d67738b	0.056506675
5	0xbed18a15	-0.4092566
6	0x3e6d59f7	0.2317885
7	0x3ed8975e	0.42302984
8	0x3ed4ca7b	0.4156073
9	0x3dab7635	0.083721556
10	0x3dfdf79f	0.124007456
11	0xbec771b3	-0.38953933
12	0x3ebd0e3c	0.36924922
13	0xbde0bd56	-0.10973613
14	0x3d87addd	0.06624959
15	0xbea410df	-0.32044122
16	0xbdf77ef7	-0.120847635
17	0x3e7b954b	0.2456867
18	0xbb785e78	-0.0037898105
19	0x3edcdbc2	0.43136412
20	0x3d5b5e17	0.053556528
21	0xbecf1d69	-0.40452126
22	0xbe83bacc	-0.25728452
23	0xbeba467e	-0.36381906
24	0xbdb0a84c	-0.0862585
25	0xbe7e7361	-0.24848701
26	0x3e12176b	0.14266746
27	0xbe19d143	-0.15021233
28	0xbd64e6fe	-0.055884354
29	0xbe81ee98	-0.25377345
30	0xbdb33983	-0.08751204
31	0xbd4ac4fd	-0.04950427
32	0xbed37d8e	-0.41306728
33	0x3eb7dae9	0.35909203
34	0x3c834519	0.01602416
35	0x3ec5ed05	0.38657394
36	0x3e2aaee2	0.16668275
37	0xbd1507b3	-0.036384296
38	0xbec5fc83	-0.38669214
39	0x3e32fe4d	0.1747982
40	0xbd8c8cc3	-0.06862786
41	0x3c9dcea4	0.019263573
42	0xbd717d5c	-0.058957443
43	0xbea0b47b	-0.31387696
44	0xbe831b4b	-0.2560676
45	0x3ed404a8	0.41409802
46	0x3e8af27c	0.27138126
47	0xbec49282	-0.38393027
48	0x3e5dc7e0	0.21658278
49	0xbe788f49	-0.24273409
50	0xbdd1667a	-0.10224624
51	0xbd253c33	-0.040340614
52	0xbccb2dae	-0.024802055
53	0x3e8d1cc7	0.27561018
54	0xbe02928b	-0.12751214
55	0x3ede1e7f	0.43382642
56	0xbe3703d6	-0.17872557
57	0x3caee881	0.0213511
58	0xbdf1365f	-0.117779486
59	0x3e42c9d6	0.19022307
60	0xbea22c13	-0.3167425
61	0xbe3f0df0	-0.1865766
62	0x3e9d5c33	0.30734405
63	0x3ea54178	0.3227651
64	0x3db04b45	0.086081065
65	0xbebcbd9e	-0.36863416
66	0x3e4737bc	0.19454855
67	0x3d1208b5	0.035652835
68	0x3e8c87b7	0.27447292
69	0xbe988a99	-0.29793242
70	0xbeb6e33a	-0.35720235
71	0x3eae1d71	0.34006837
72	0xbc8b9127	-0.017036987
73	0x3dd0e27a	0.10199447
74	0xbec0dc04	-0.3766786
75	0x3d2d3abc	0.04229234
76	0x3e8678c8	0.26264024
77	0xbe3883b3	-0.1801899
78	0xbeb156db	-0.34636578
79	0xbe92d930	-0.28681326
80	0x3d9aff28	0.075681984
81	0x3e17c837	0.1482247
82	0xbecd8a4b	-0.40144572
83	0xbdba43e6	-0.09094982
84	0x3ed80c46	0.42196864
85	0xbe69d768	-0.22836077
86	0x3e1fad60	0.15593481
87	0x3ec896a1	0.3917742
88	0x3d0e8de4	0.034803286
89	0x3e448b39	0.19193734
90	0xbe9c03a0	-0.30471516
91	0x3e1850ef	0.14874624
92	0xbe2a481d	-0.16629072
93	0xbda0dfd9	-0.078551956
94	0x3ec3ffa0	0.38280964
95	0xbeb781e2	-0.3584128
96	0xbe74cc9b	-0.23906176
97	0x3ec8d53b	0.39225182
98	0xbe139454	-0.14412051
99	0x3ea382dc	0.31935775
100	0x3d276b69	0.04087392
101	0xbedb95fe	-0.42887872
102	0x3ec2ea52	0.38069397
103	0xbeb85eda	-0.36009866
104	0x3eac70ce	0.33679813
105	0x3eac052c	0.33597696
106	0x3e7f880a	0.24954239
107	0xbeb20026	-0.34765738
108	0x3ecaf2b7	0.39638302
109	0xbe3dc0bb	-0.18530552
110	0x3ecd0bfd	0.4004821
111	0xbddbdabb	-0.10735079
112	0xbeb1d07b	-0.3472937
113	0xbeba561c	-0.3639382
114	0x3dacc918	0.08436793
115	0x3e392647	0.18081008
116	0x3ed3a72c	0.4133848
117	0xbec91627	-0.39274713
118	0x3ea559dc	0.3229512
119	0x3ea569d2	0.32307297
120	0x3ec58168	0.38575292
121	0xbec91213	-0.39271602
122	0xbe033f96	-0.12817225
123	0x3d0c45e7	0.03424635
124	0xbddf55d7	-0.109050445
125	0xbe907cd8	-0.28220248
126	0x3ca509f5	0.02014635
127	0xbe9f099e	-0.31062025
128	0xbd2c37be	-0.042045347
129	0xbe17ad73	-0.1481226
130	0x3ec89c9a	0.39181978
131	0x3e9e7eb6	0.30956048
132	0x3d92a2f7	0.07159989
133	0xbe9fcf60	-0.31212902
134	0xbe0e9202	-0.13922885
135	0xbd0f7c29	-0.035030518
136	0xbe4c1e8d	-0.19933529
137	0x3e749058	0.23883188
138	0xbe8278c0	-0.2548275
139	0x3e6be0a7	0.23034917
140	0x3e366653	0.17812471
141	0xbea87689	-0.32902935
142	0x3e924890	0.28570986
143	0x3d019440	0.031635523
144	0xbd9428d6	-0.07234351
145	0x3e4aa15d	0.19788118
146	0x3eb1e091	0.34741643
147	0x3e9a2b99	0.30111387
148	0xbe441d3d	-0.19151779
149	0x3eb3f21b	0.3514565
150	0xbe77dce9	-0.24205364
151	0xbe7a1c6f	-0.24424909
152	0x3d8cca72	0.06874551
153	0x3e098971	0.13431336
154	0x3e918687	0.2842295
155	0xbe80d069	-0.25159004
156	0x3e9f6568	0.31132054
157	0xbe5454e1	-0.20735504
158	0xbd4802dd	-0.048830856
159	0x3e0de09c	0.13855213
160	0x3ce23dfa	0.027617443
161	0x3ed30fd1	0.41223004
162	0x3ec12143	0.3772069
163	0xbe7a236d	-0.24427576
164	0x3ede2570	0.43387938
165	0x3da97967	0.08275109
166	0xbed30d50	-0.41221094
167	0xbdde9819	-0.10868854
168	0xbec88ec9	-0.39171436
169	0x3d69fab2	0.057123847
170	0xbc34540e	-0.011006368
171	0xbe45a4a8	-0.19301093
172	0xbe25ae94	-0.16179878
173	0x3e6079bb	0.21921436
174	0xbe137e30	-0.14403605
175	0x3c8f6035	0.01750193
176	0xbe93539d	-0.2877473
177	0x3e5f9d9b	0.21837465
178	0x3e54f5a4	0.2079683
179	0x3e6db05e	0.2321181
180	0xbde27f40	-0.11059427
181	0xbe4ee809	-0.20205702
182	0x3eb0384d	0.34417954
183	0xbe19667c	-0.14980501
184	0x3e8a3b44	0.2699834
185	0xbecae032	-0.39624172
186	0xbe2ae2af	-0.16688035
187	0x3e281c1a	0.1641697
188	0x3b00416a	0.001957024
189	0xbeb929bf	-0.36164662
190	0x3eca977e	0.39568704
191	0x3e8d7bf0	0.2763362

blocks.0.attn.qkv.bias f4 [24]
0	0xbb23813d	-0.0024948858
1	0x3b294b5e	0.0025832276
2	0x3bc3c0c1	0.005973906
3	0x3bc2f479	0.0059495536
4	0x3bbd4450	0.0057759658
5	0xbbbe9a29	-0.005816717
6	0x3b008ffb	0.001961707
7	0x398435e6	0.0002521716
8	0x3711a25a	8.680474e-06
9	0xb784d4f0	-1.5834783e-05
10	0xb6a12cd8	-4.8033944e-06
11	0xb7814067	-1.5407988e-05
12	0x37c2a9f3	2.3205741e-05
13	0xb836aa99	-4.3551063e-05
14	0xb5f5e0dd	-1.8319366e-06
15	0x37164490	8.95666e-06
16	0xbb50cbec	-0.0031859828
17	0xbb820400	-0.003967762
18	0xbbb85165	-0.0056249374
19	0xbb9f1840	-0.0048551857
20	0xbbb38a6f	-0.005479149
21	0x3b6b7a0e	0.0035930905
22	0xbb0e5309	-0.0021716973
23	0x3ad71720	0.001641009

blocks.0.attn.proj.weight f4 [8, 8]
0	0x3f105843	0.56384677
1	0xbeecf289	-0.4627879
2	0x3e1dd389	0.15412726
3	0xbe1dcb03	-0.15409474
4	0x3ea082d7	0.31349823
5	0x3ec781db	0.3896626
6	0xbede24bd	-0.43387404
7	0xbe9eaaba	-0.3098963
8	0xbee42784	-0.44561398
9	0xbece256c	-0.40262926
10	0xbf0d18f3	-0.55116194
11	0xbf086908	-0.53285265
12	0xbe1e2ba0	-0.15446329
13	0x3ca3ba32	0.019986246
14	0xbdde2eec	-0.108487934
15	0xbecedb3d	-0.4040164
16	0xbedbdf9b	-0.42944035
17	0x3d23a193	0.03994901
18	0x3eee0854	0.4649073
19	0xbdb3138f	-0.08743965
20	0x3ec76eaf	0.38951632
21	0x3edd50ba	0.43225652
22	0xbe0522b3	-0.13001518
23	0xbf087d49	-0.5331617
24	0x3db8a6a5	0.0901616
25	0x3f0f922e	0.5608243
26	0xbd29ca02	-0.041452415
27	0xbebc997f	-0.36835858
28	0xbeca80b4	-0.39551318
29	0x3ed27745	0.4110662
30	0x3f106e1a	0.56418
31	0xbeb718c8	-0.35761094
32	0x3f04c533	0.518634
33	0x3ea23825	0.3168346
34	0x3ee6e364	0.4509536
35	0xbd849d02	-0.06475259
36	0xbe3d486f	-0.18484662
37	0xbe9a9664	-0.30192864
38	0xbeb48364	-0.35256493
39	0x3e9dc8aa	0.30817157
40	0x3ea0aec9	0.3138335
41	0x3d6f744b	0.058460515
42	0xbe2244b2	-0.15846518
43	0xbeed33b4	-0.4632851
44	0x3ef93a2f	0.48677203
45	0xbd9c2ec6	-0.07626109
46	0x3edab97a	0.42719632
47	0xbf04c9e9	-0.5187059
48	0xbe165aee	-0.14683124
49	0x3f16e523	0.58943385
50	0xbd922c1d	-0.0713732
51	0xbea92211	-0.33033803
52	0xbebeca48	-0.37263703
53	0xbecc9e20	-0.3996439
54	0xbea36d7c	-0.31919467
55	0xbe39ae83	-0.18132977
56	0x3d43d456	0.04780992
57	0x3f0fee2d	0.562228
58	0x3dc7dc8b	0.09758862
59	0xbf01c53b	-0.50691575
60	0xbf13b589	-0.57698876
61	0x3e9b7359	0.3036144
62	0xbccaffa6	-0.024780106
63	0x3e81df35	0.25365606

blocks.0.attn.proj.bias f4 [8]
0	0x3b85164f	0.0040614973
1	0x3b9aa67e	0.0047195544
2	0xbb7befac	-0.0038442416
3	0xbaff8847	-0.001949557
4	0xbb860df7	-0.00409102
5	0xbbb99f9f	-0.0056647803
6	0xbb4bd950	-0.003110487
7	0x3b83a384	0.0040172953

blocks.0.norm2.weight f4 [8]
0	0x3f7e9149	0.9944044
1	0x3f804e39	1.0023872
2	0x3f803b44	1.0018086
3	0x3f7f4559	0.9971519
4	0x3f7f33c8	0.99688387
5	0x3f806da5	1.0033461
6	0x3f7fb2a9	0.9988199
7	0x3f806c20	1.0032997

blocks.0.norm2.bias f4 [8]
0	0x3b923200	0.004461527
1	0xbb5fbc19	-0.0034139215
2	0xbb38c129	-0.0028191304
3	0xbac113e3	-0.0014730658
4	0xbae90cb4	-0.0017780275
5	0xbb895545	-0.004191073
6	0xba3845ed	-0.0007029463
7	0x3b8c5172	0.00428217

blocks.0.mlp.fc1.weight f4 [32, 8]
0	0xbe93fe38	-0.2890489
1	0x3e389cb4	0.18028527
2	0xbe6d52a2	-0.23176053
3	0xbea8a4a8	-0.32938123
4	0xbeb5ccbe	-0.35507768
5	0x3e23760b	0.15962999
6	0xbe364376	-0.17799172
7	0xbeac0891	-0.33600286
8	0x3e7eca80	0.24881935
9	0x3c5297c8	0.01285357
10	0x3eb29987	0.34882757
11	0xbec1ca0d	-0.37849465
12	0xbe97dd5a	-0.29661065
13	0x3d59cfbc	0.053176627
14	0xbd6bf93d	-0.05761074
15	0x3e64a693	0.22329168
16	0x3e0ea14b	0.13928716
17	0x3c33c46c	0.010972124
18	0x3eb1cfb0	0.34728765
19	0xbe515c75	-0.20445426
20	0x3e5a7a2c	0.21335667
21	0x3e698bef	0.22807287
22	0xbe8fac45	-0.2806112
23	0xbdf42b7a	-0.11922355
24	0x3caa14a9	0.020761805
25	0x3eace4f8	0.3376844
26	0xbdd87d73	-0.105708025
27	0x3e8f1db3	0.27952346
28	0x3ca60be1	0.020269336
29	0xbe4ceb85	-0.20011719
30	0xbe930215	-0.28712526
31	0xbea4f959	-0.32221487
32	0xbe0e5b7f	-0.1390209
33	0x3e92f531	0.2870269
34	0xbeb9a65f	-0.36259744
35	0x3e09f115	0.13470872
36	0x3de788ad	0.11305366
37	0xbec537b0	-0.3851905
38	0xbc8461ac	-0.016159855
39	0xbeb85e09	-0.36009243
40	0x3de4de12	0.11175169
41	0x3d66fc18	0.05639276
42	0x3e1eeab7	0.15519224
43	0xbe28961c	-0.16463512
44	0xbdffb1cf	-0.12485086
45	0x3dc245be	0.094859585
46	0xbba81b02	-0.0051301727
47	0x3d5f7755	0.054557163
48	0x3e47853a	0.19484416
49	0xbe935313	-0.28774318
50	0x3d997119	0.07492275
51	0x3e88fa27	0.2675335
52	0x3d4977c0	0.049186468
53	0x3dc48a1a	0.09596653
54	0xb9b7d56b	-0.0003506349
55	0xbe9337de	-0.2875356
56	0x3c504088	0.012710698
57	0xbe6b054a	-0.22951236
58	0x3e20c3c9	0.15699686
59	0x3eb89a95	0.36055437
60	0xbe625991	-0.2210448
61	0xbe6370e1	-0.22211029
62	0xbec66d29	-0.38755158
63	0xbe8c53c5	-0.2740766
64	0x3d7c690c	0.061623618
65	0xbe86f849	-0.26361302
66	0x3e7446d8	0.2385515
67	0xbe2a7e0a	-0.16649643
68	0x3e892f44	0.26793873
69	0xbebcfb88	-0.36910653
70	0x3e6cdd16	0.23131213
71	0x3e1e4114	0.15454513
72	0x3e05d2e8	0.13068736
73	0xbd986d23	-0.07442691
74	0x3dbae318	0.09125346
75	0xbd845f82	-0.06463529
76	0xbe9e6057	-0.30932876
77	0x3d66247c	0.056187138
78	0xbe8b388a	-0.27191573
79	0x3ec2027c	0.3789252
80	0xbeb0fdc1	-0.345686
81	0xbeb5896f	-0.35456416
82	0xbeb1644a	-0.34646827
83	0xbcde5ef7	-0.027144892
84	0x3e926216	0.2859046
85	0x3de68e28	0.11257583
86	0x3ebce1c6	0.36891
87	0x3b730a36	0.0037084944
88	0x3e7f5a86	0.24936876
89	0xbea7ce96	-0.327748
90	0xbe803205	-0.25038162
91	0x3eb7f1e9	0.3592675
92	0xbea78acb	-0.32723078
93	0x3c88acc4	0.016683944
94	0x3e0e1162	0.13873819
95	0xbd728833	-0.05921192
96	0xbd818d60	-0.06325793
97	0x3e32b7cb	0.17452924
98	0xbdc89777	-0.097945146
99	0x3e798024	0.24365288
100	0x3e8e53c2	0.27798277
101	0x3e7254fd	0.23665233
102	0x3e6bef2a	0.23040453
103	0x3e298ca7	0.16557561
104	0x3da6fe4e	0.081539735
105	0x3ebc887b	0.36822876
106	0x3e981c18	0.29708934
107	0x3e1be574	0.15224248
108	0xbe712fbd	-0.23553367
109	0xbe10a248	-0.14124405
110	0x3e7a2592	0.24428394
111	0xbe4809af	-0.19534944
112	0xbe490705	-0.19631584
113	0xbe347f8e	-0.17626783
114	0xbe8a1dff	-0.2697601
115	0x3e453efc	0.19262308
116	0x3e4766b5	0.19472773
117	0xbebe8ba3	-0.3721591
118	0x3ea31027	0.3184826
119	0xbebacec5	-0.36485878
120	0x3de92a56	0.11385028
121	0x3dcb1322	0.09915759
122	0xbec28bc6	-0.37997264
123	0xbeac22ec	-0.33620393
124	0xbec1d471	-0.37857392
125	0xbd854ded	-0.06509004
126	0x3e0bf8e8	0.13669169
127	0x3d941c8e	0.07232009
128	0x3e110616	0.14162478
129	0xbeb0743d	-0.34463683
130	0x3ea2dc84	0.31808865
131	0x3ba81e2c	0.00513055
132	0x3e26da2b	0.16294162
133	0x3e8fcd92	0.28086525
134	0x3e841790	0.25799227
135	0xbd86fc22	-0.06591059
136	0x3eae3e59	0.34031942
137	0xbea948e8	-0.33063436
138	0xbebc7a87	-0.3681223
139	0xbe039334	-0.12849122
140	0xbe87184a	-0.2638572
141	0xbeb0c0b9	-0.34522036
142	0x3ea437ee	0.3207392
143	0x3e9d9527	0.30777857
144	0xbc9f38f4	-0.019436337
145	0xbda938ca	-0.08262785
146	0xbe000388	-0.12501347
147	0xbe9b2eca	-0.30309135
148	0x3df26726	0.1183608
149	0x3e12a1f2	0.1431959
150	0xbeaf4566	-0.34232634
151	0xbe6378ec	-0.22214097
152	0x3de3ab9a	0.11116715
153	0xbe1b5e58	-0.15172708
154	0x3eb7a80f	0.35870406
155	0x3e8859a3	0.26630887
156	0xbd891213	-0.066929005
157	0xbeb0c4bb	-0.34525093
158	0x3e58aec5	0.2116042
159	0xbe515c1e	-0.20445296
160	0xbe7cce18	-0.24687994
161	0xbe9b82e1	-0.3037329
162	0xbdae8342	-0.08521129
163	0x3e0cf66e	0.1376588
164	0xbd0094b0	-0.0313918
165	0x3d705e42	0.05868364
166	0x3cfa246a	0.030534942
167	0xbe3070e7	-0.17230569
168	0x3e438116	0.19092211
169	0xbeb8d22f	-0.36097857
170	0x3dcffd5d	0.10155747
171	0xbeb4730e	-0.3524403
172	0xbdffaed8	-0.12484521
173	0xbe28d3c0	-0.16487026
174	0xbd8867e6	-0.06660442
175	0xbe5c683f	-0.21524142
176	0xbe1e8915	-0.1548198
177	0xbde9f146	-0.114229724
178	0xbea2413a	-0.3169039
179	0x3eb075b4	0.344648
180	0xbdf0df21	-0.117613085
181	0xbe4ef18f	-0.20209335
182	0xbea11010	-0.31457567
183	0xbe30b3ec	-0.17256135
184	0x3ca10eae	0.01966032
185	0xbeb8ba10	-0.36079454
186	0x3d4ec2d6	0.05047878
187	0xbeacaeed	-0.33727208
188	0xbe8224a5	-0.25418583
189	0x3e8e27cc	0.27764738
190	0xbe986be7	-0.29769823
191	0xbdbb33db	-0.0914075
192	0xbeb4127f	-0.3517036
193	0x3e0f74ae	0.14009354
194	0x3bd5dc59	0.0065265116
195	0x3eb5fd31	0.35544732
196	0x3e9aee3f	0.30259892
197	0x3e6e2ae1	0.23258545
198	0x3e17a150	0.1480763
199	0x3daeaf3d	0.08529518
200	0x3e0d6d23	0.13811164
201	0xbda190d1	-0.0788895
202	0xbe6a3f37	-0.22875677
203	0xbe803642	-0.25041395
204	0x3e04550c	0.12923068
205	0x3e8ef217	0.27919075
206	0xbbaab894	-0.0052099917
207	0x3e427aaf	0.18992113
208	0xbe9d2a28	-0.30696225
209	0x3dcdfc75	0.10057918
210	0xbe9f2688	-0.31084085
211	0x3b2c7437	0.0026314387
212	0xbec5f8f5	-0.38666502
213	0x3e364a4a	0.17801777
214	0x3ebbbbb2	0.36666638
215	0xbdb0070c	-0.08595094
216	0x3da200d6	0.07910316
217	0xbddcaf8b	-0.1077567
218	0x3e616a38	0.22013175
219	0xbc831921	-0.016003193
220	0xbe60a832	-0.21939161
221	0xbe5ad590	-0.2137053
222	0xbe40cfb1	-0.18829228
223	0x3c9835a7	0.01858027
224	0x3df58a17	0.11989229
225	0xbcf02014	-0.029312171
226	0x3ea43674	0.32072794
227	0xbeb25961	-0.34833816
228	0x3e57d8d9	0.21078815
229	0x3e445e00	0.19176483
230	0x3dfc4bd7	0.12319153
231	0xbeaad8d5	-0.33368555
232	0xbc05c4b1	-0.008164571
233	0xbcf1e83e	-0.029529687
234	0xbec244b5	-0.37943044
235	0x3ec5f59f	0.38663957
236	0x3ec410e9	0.3829415
237	0xbca0396b	-0.019558629
238	0xbe730497	-0.2373222
239	0xbd130e9e	-0.035902612
240	0x3e435061	0.19073631
241	0x3e902423	0.2815257
242	0xbdffab5b	-0.12483855
243	0xbd0c89ab	-0.034310978
244	0xbeb12e40	-0.34605598
245	0x3e3c29be	0.18375298
246	0x3eab5bef	0.33468577
247	0xbe8b9e79	-0.27269343
248	0xbc936ad3	-0.017995274
249	0xbdfda8ff	-0.12385749
250	0x3e9c4c20	0.3052683
251	0x3e821ad4	0.25411093
252	0xbdfff642	-0.12498142
253	0xbe163367	-0.14668046
254	0x3e921a2f	0.28535601
255	0xbd26d226	-0.040727757

blocks.0.mlp.fc1.bias f4 [32]
0	0xbb93e1f2	-0.0045130188
1	0xbb39b5c1	-0.0028337094
2	0x3b579b07	0.00328988
3	0x3bacd31b	0.005274189
4	0x3bfab38c	0.007650798
5	0xbb9af0dd	-0.00472842
6	0xbb856ff9	-0.004072186
7	0xbb561188	-0.0032664258
8	0x3bbef6cd	0.005827761
9	0x3b5c8263	0.0033647052
10	0x3b9642f2	0.004585617
11	0x3ab5234e	0.0013819726
12	0xbbacac18	-0.0052695386
13	0x3b30ea7f	0.002699524
14	0xbb98a4e4	-0.0046583284
15	0xbaef6bfa	-0.0018266432
16	0xbaceb837	-0.0015771453
17	0x3b81a059	0.0039558825
18	0x3b148e3e	0.002266779
19	0xbaa68eb3	-0.0012707323
20	0xbb934c91	-0.0044952114
21	0x3ba5fbfd	0.0050654397
22	0x3ab776ae	0.0013997161
23	0x3b3f445f	0.002918504
24	0x3b3a7378	0.0028450172
25	0xbbccf693	-0.00625498
26	0xbb88bda5	-0.004172998
27	0xbc1880f0	-0.009308085
28	0xbb01ac6c	-0.001978661
29	0x3ba38646	0.004990372
30	0x3bb6deff	0.0055807824
31	0x3bac477a	0.005257544

blocks.0.mlp.fc2.weight f4 [8, 32]
0	0xbe1cedef	-0.1532514
1	0xbe724304	-0.23658377
2	0x3e8f2080	0.27954483
3	0x3cf48b0f	0.029851465
4	0x3dd43f61	0.10363651
5	0x3ea104e2	0.31449038
6	0xbd99b788	-0.07505709
7	0xbeb623ea	-0.35574275
8	0xbd8eaf28	-0.06967002
9	0x3d2c15da	0.042013027
10	0x3bba387e	0.005683004
11	0x3c009060	0.007846922
12	0xbe49bdd7	-0.19701324
13	0x3e6d6f43	0.23186974
14	0xbe1e6dc4	-0.1547156
15	0x3e725374	0.23664647
16	0xbc20b485	-0.009808664
17	0xbd5bce3c	-0.053663477
18	0xbe996f50	-0.29967737
19	0xbdd10b91	-0.10207284
20	0xbeb75788	-0.3580897
21	0xbd2a7a4e	-0.041620545
22	0x3d7b8bee	0.061412744
23	0xbea2f6e9	-0.31829002
24	0x3e6bd467	0.23030244
25	0xbeb42e19	-0.3519142
26	0xbea21a2c	-0.31660593
27	0x3d52fb1a	0.051509
28	0xbe2dcd2b	-0.16972797
29	0xbe1e3557	-0.15450035
30	0x3eae1942	0.34003645
31	0x3ea648b8	0.32477355
32	0x3e742f5d	0.23846193
33	0x3e8614a5	0.26187626
34	0x3e538ac2	0.206584
35	0x3e2825f4	0.16420728
36	0x3d1ff4cb	0.039051812
37	0xbe44b504	-0.19209677
38	0xbcc1261a	-0.023577739
39	0xbcbe429e	-0.023225125
40	0x3e37086e	0.1787431
41	0x3db03602	0.08604051
42	0x3deea43f	0.11652421
43	0xbeaf3165	-0.34217373
44	0xbea24d97	-0.3169982
45	0x3e10953e	0.14119431
46	0xbd77a54a	-0.060460366
47	0xbe9b55b8	-0.30338836
48	0xbc51d7f0	-0.012807831
49	0x3e9dfffa	0.30859357
50	0xbe0da610	-0.13832879
51	0xbd47e33f	-0.048800703
52	0xbdbc22d4	-0.091863304
53	0x3ccde310	0.025132686
54	0xbd1c8926	-0.038216732
55	0xbe8192d3	-0.2530733
56	0x3ddd947b	0.10819336
57	0xbe92a04e	-0.28637928
58	0x3e39e4a3	0.18153624
59	0xbe4f8025	-0.20263727
60	0xbe23272a	-0.15932909
61	0x3dab0b0f	0.08351719
62	0x3b80340b	0.003912454
63	0x3ea93f3a	0.3305605
64	0xbd41ed14	-0.047345236
65	0x3e1ab2ef	0.1510732
66	0xbc05abe2	-0.008158656
67	0xbeb211d5	-0.3477923
68	0xbe548c82	-0.20756724
69	0x3bc48289	0.0059970063
70	0x3db51a88	0.08842951
71	0x3c9389b6	0.018010002
72	0xbe6dd76d	-0.2322671
73	0x3e704383	0.23463254
74	0xbe451cfe	-0.19249341
75	0xbe8641b7	-0.2622201
76	0xbe08b354	-0.13349658
77	0xbcff7b9a	-0.031186868
78	0x3de87d8d	0.11352072
79	0xbe9fdf25	-0.31224933
80	0x3e863a87	0.26216528
81	0x3e989927	0.29804346
82	0x3e823c8b	0.25436816
83	0x3e713d73	0.23558597
84	0x3e082cbd	0.13298316
85	0xbe1b2a07	-0.15152751
86	0x3eb846cd	0.35991517
87	0x3e942352	0.28933197
88	0x3e4472a9	0.19184364
89	0x3e99ef45	0.3006536
90	0x3e65d396	0.22443995
91	0x3ec7f838	0.39056563
92	0x3e8f6284	0.2800485
93	0xbe9f4f62	-0.31115252
94	0x3e985cc6	0.2975828
95	0xbcae2d8e	-0.021261957
96	0xbe6d5ff7	-0.23181139
97	0xbe739ef4	-0.23791105
98	0x3c8c8197	0.017151637
99	0x3d86e6c0	0.06586981
100	0xbe503af8	-0.20334995
101	0x3e9e3c7b	0.30905518
102	0xbe7e7ddb	-0.24852698
103	0xbe257d78	-0.16161144
104	0x3e23bef1	0.15990807
105	0xbe7d0f71	-0.24712922
106	0x3e3ca23f	0.18421267
107	0xbe9e0549	-0.30863407
108	0xbdc0dc6d	-0.09417043
109	0xbdeccd41	-0.115625866
110	0xbda12e0b	-0.0787011
111	0x3eb7527f	0.35805127
112	0x3dc6f89f	0.097153895
113	0x3eaf18ce	0.34198612
114	0xbe4229ba	-0.1896123
115	0xbeac3850	-0.33636713
116	0xbe540fe9	-0.20709194
117	0x3e247169	0.16058888
118	0xbebe1d03	-0.3713151
119	0x3e7c288f	0.24624847
120	0x3e41bc53	0.18919496
121	0xbeae01fc	-0.3398589
122	0xbe771cb9	-0.2413205
123	0xbe2d2f7d	-0.16912647
124	0xbe3209f2	-0.17386606
125	0x3de24c14	0.11049667
126	0xbcad18af	-0.021129934
127	0xbe425da3	-0.18981032
128	0x3ce8816b	0.028382024
129	0xbd53325f	-0.05156171
130	0x3e30d501	0.17268755
131	0xbeb79be3	-0.3586112
132	0xbe068179	-0.13135327
133	0x3eadd4d3	0.33951434
134	0xbdd56734	-0.10420075
135	0x3e9c4100	0.3051834
136	0xbd576a1b	-0.052591424
137	0xbe86eb98	-0.2635162
138	0x3c68dbca	0.014212558
139	0xbe4dc7ae	-0.20095703
140	0x3ea3a8f2	0.31964833
141	0xbdf482f5	-0.119390406
142	0x3e649a8b	0.22324578
143	0xbdfa5660	-0.12223506
144	0xbebb88e1	-0.36627868
145	0xbebd90be	-0.37024492
146	0xbe2437bd	-0.16036887
147	0x3e4cf67b	0.200159
148	0x3eb14850	0.34625483
149	0xbe1f23c5	-0.15540989
150	0xbe55d808	-0.2088319
151	0x3e327133	0.17425995
152	0x3e4cdaa5	0.20005281
153	0x3e8485a0	0.25883198
154	0x3ebdc2eb	0.37062773
155	0x3d68ba35	0.056818206
156	0xbe7e8a88	-0.24857533
157	0x3cf21a5b	0.029553583
158	0x3e0ca9e1	0.13736679
159	0xbdd47a23	-0.10374858
160	0x3db1b789	0.08677585
161	0xbeae1cab	-0.34006247
162	0xbe542f11	-0.2072108
163	0x3d8a8563	0.06763723
164	0xbeb34eac	-0.3502096
165	0x3e12d257	0.14338051
166	0x3e2be360	0.16785955
167	0xbe9a8a1f	-0.30183503
168	0xbbdb62bf	-0.006695121
169	0x3dcb6119	0.09930629
170	0x3ea59524	0.32340348
171	0xbce154f2	-0.027506325
172	0xbe44a5c6	-0.19203863
173	0xbe56a60e	-0.20961782
174	0x3ead1849	0.3380759
175	0x3eb11396	0.34585255
176	0x3e369e6e	0.17833874
177	0x3eae5589	0.34049633
178	0x3e8dce9f	0.27696702
179	0x3c27ff48	0.010253735
180	0x3c145dc2	0.009055557
181	0xbe7c0a5e	-0.2461333
182	0x3e6a52f6	0.2288321
183	0xbe6d6340	-0.23182392
184	0x3d1c7209	0.03819469
185	0xbe5bff5d	-0.21484132
186	0xbcc8323a	-0.024438012
187	0x3e5f4004	0.21801764
188	0x3da09f8a	0.0784293
189	0xbd0ef381	-0.034900192
190	0xbea973d1	-0.33096173
191	0x3eb04f8a	0.34435683
192	0xbdfeb45e	-0.12436746
193	0xbe4d7194	-0.20062858
194	0xbe5fa681	-0.2184086
195	0x3eb69fe5	0.35668865
196	0xbea083e1	-0.31350616
197	0xbe3831e9	-0.17987789
198	0x3e0ee363	0.13953929
199	0x3dff7663	0.12473752
200	0x3d96ff73	0.07372942
201	0x3e1ba6fe	0.15200421
202	0xbea67559	-0.32511404
203	0x3e7b4fdf	0.24542187
204	0xbe81727e	-0.25282663
205	0xbd8278ab	-0.06370672
206	0x3b423060	0.0029630885
207	0x3e7eeca6	0.24894962
208	0x3e8db19d	0.2767457
209	0xbe793b84	-0.2433911
210	0x3dcbdb2b	0.09953912
211	0xbd1a0d23	-0.037610184
212	0x3e0e9f0a	0.13927856
213	0x3db685b9	0.08912224
214	0x3e10724c	0.14106101
215	0x3de616b6	0.112348005
216	0xbe55dcd1	-0.20885016
217	0x3e56447f	0.20924567
218	0xbd7435ab	-0.059621494
219	0x3c6e82b3	0.014557528
220	0x3eab2de1	0.3343344
221	0xbb4df484	-0.003142626
222	0x3e779085	0.24176224
223	0x3e287297	0.16449963
224	0x3e99d11d	0.30042353
225	0x3c7ff7a1	0.015623004
226	0xbdc2d221	-0.09512735
227	0x3e8f036b	0.27932295
228	0xbe607e81	-0.21923257
229	0x3ea96153	0.33082065
230	0xbe2a3902	-0.16623309
231	0x3ea1f644	0.31633198
232	0x3e35014d	0.17676277
233	0x3eb0d3b8	0.3453653
234	0x3ddfd2d8	0.10928887
235	0x3e82d750	0.25554895
236	0x3e9eecf1	0.31040147
237	0xbe7df437	-0.24800192
238	0xbe9907eb	-0.29888853
239	0xbe645ffe	-0.22302243
240	0xbec6d3a0	-0.38833332
241	0x3ec62c46	0.38705653
242	0xbe39a16f	-0.18127988
243	0x3ec672d6	0.38759488
244	0xbea3f977	-0.32026264
245	0x3e6c2fb4	0.23065072
246	0x3e5b4a0b	0.21414964
247	0xbcd7b04c	-0.026329182
248	0x3ebce892	0.36896187
249	0x3e427649	0.18990435
250	0xbe890eec	-0.26769197
251	0x3e13a147	0.14416991
252	0x3e930805	0.28717056
253	0x3e942eb8	0.28941894
254	0x3dee10db	0.11624309
255	0x3d9a8df4	0.07546607

blocks.0.mlp.fc2.bias f4 [8]
0	0xbb7dd4d2	-0.0038731587
1	0x3b9a8c88	0.0047164597
2	0xbb2f7857	-0.002677461
3	0x3be36ba4	0.006940322
4	0xbb914af0	-0.004433982
5	0xbb24a5d9	-0.0025123267
6	0xbb1905d7	-0.0023349428
7	0x3b6bddf9	0.003599046

blocks.1.norm1.weight f4 [8]
0	0x3f7e3dcf	0.9931306
1	0x3f7e8d5c	0.9943445
2	0x3f7f0d02	0.99629223
3	0x3f808a2c	1.0042167
4	0x3f7e6174	0.9936745
5	0x3f80a66d	1.0050789
6	0x3f7ded7e	0.9919051
7	0x3f7d3c84	0.98920465

blocks.1.norm1.bias f4 [8]
0	0xbbae0167	-0.0053102258
1	0x3b426ad0	0.0029665716
2	0x3b2ace9a	0.0026063086
3	0x3b3996c9	0.0028318635
4	0xbbae6269	-0.00532179
5	0xbbd769ae	-0.0065738773
6	0x3b30685d	0.0026917674
7	0xbc13fefc	-0.009032961

blocks.1.attn.qkv.weight f4 [24, 8]
0	0x3ce160ac	0.027511917
1	0xbedd18bd	-0.43182936
2	0xbd73f694	-0.059561327
3	0x3d9ce99c	0.07661745
4	0x3c3059a9	0.010763564
5	0x3e2f77ea	0.17135587
6	0xbec3df34	-0.38256228
7	0xbe1f0f53	-0.1553319
8	0x3ecceca9	0.40024307
9	0x3e753e2d	0.239495
10	0xbedc7e43	-0.4306508
11	0xbebe16ca	-0.37126762
12	0xbebe2a10	-0.37141466
13	0x3d7fbc8c	0.06243567
14	0xbdcb5e51	-0.09930099
15	0x3eaed291	0.34145024
16	0x3e93180f	0.28729293
17	0x3ecd663c	0.4011706
18	0x3ed30fdd	0.4122304
19	0xbe09584c	-0.13412589
20	0x3d9dc219	0.07703037
21	0xbeb140b2	-0.3461967
22	0xbea04e08	-0.31309533
23	0xbe896ed7	-0.26842377
24	0x3e084ee6	0.13311347
25	0xbe9cdceb	-0.30637297
26	0xbecf53ce	-0.40493625
27	0x3eb62899	0.3557785
28	0x3d2679f8	0.040643662
29	0x3b5d11d4	0.003373255
30	0x3df5c63d	0.120007016
31	0xbe0151a9	-0.12628807
32	0x3e7be943	0.24600701
33	0x3d74f3e0	0.05980289
34	0xbdd7e500	-0.10541725
35	0xbcf3ed23	-0.029776162
36	0x3cdc3c5c	0.02688425
37	0x3e6e3c8e	0.23265287
38	0x3e68058b	0.22658364
39	0xbdf39449	-0.118935175
40	0x3e8cc505	0.27494064
41	0xbe9a47f5	-0.30133024
42	0xbe954bf7	-0.2915952
43	0x3eb89d83	0.36057672
44	0x3d8a6290	0.067570806
45	0xbcade134	-0.02122555
46	0xbeafc2b7	-0.34328243
47	0xbe9cbfa9	-0.30614975
48	0xbdd4fb13	-0.10399451
49	0x3dd6ad7a	0.10482307
50	0xbd933a32	-0.07188834
51	0xbe8263f4	-0.25466883
52	0x3d04f6e5	0.03246202
53	0xbe018a77	-0.12650476
54	0xbe979b87	-0.29610845
55	0xbe9ed780	-0.31023788
56	0x3ecef014	0.4041754
57	0x3e49cb1e	0.1970639
58	0x3ec46c6d	0.38363972
59	0x3ec5fdca	0.38670188
60	0x3e5e7198	0.2172302
61	0xbe147f9f	-0.14501809
62	0x3e5fdb17	0.2186092
63	0xbe63e7c2	-0.22256377
64	0xbd63adcd	-0.05558567
65	0xbea563c9	-0.32302693
66	0x3ec56ec2	0.38561064
67	0xbe1d6861	-0.15371849
68	0xbcb2435c	-0.021760635
69	0x3e8c6668	0.2742188
70	0xbea10f67	-0.31457064
71	0x3cef83f7	0.02923773
72	0xbea288e1	-0.31745055
73	0xbe45592b	-0.19272296
74	0x3e8c77e6	0.27435225
75	0xbedbe535	-0.4294831
76	0xbe8266b2	-0.25468975
77	0x3e826da8	0.25474286
78	0x3e4b17de	0.19833323
79	0xbccd61fa	-0.025071133
80	0x3e628851	0.22122313
81	0xbdaedf9d	-0.085387446
82	0x3d0a3519	0.033742044
83	0xbd650489	-0.05591253
84	0x3e866434	0.26248324
85	0x3e99ed12	0.30063683
86	0x3e10454d	0.14088936
87	0xbddfad43	-0.10921719
88	0xbe3083a2	-0.17237714
89	0xbe392c8a	-0.18083397
90	0x3d6a1393	0.057147574
91	0x3e69d2bf	0.228343
92	0x3d627405	0.055286426
93	0xbec76a15	-0.38948122
94	0x3e6893c8	0.22712624
95	0x3da4e580	0.08051586
96	0x3e847cdd	0.25876513
97	0x3dd85005	0.105621375
98	0x3e91e655	0.28496042
99	0xbe7e6ac7	-0.2484542
100	0xbe8de39b	-0.27712712
101	0x3e3bee4d	0.18352623
102	0xbece0a54	-0.40242255
103	0x3e68ae0e	0.22722647
104	0xbdbe6fbc	-0.092986554
105	0x3eb75a98	0.35811305
106	0xbb2250cf	-0.0024767404
107	0xbd650099	-0.055908773
108	0xbddba2e5	-0.10724429
109	0x3ecd5a5a	0.40107995
110	0xbe187939	-0.14889993
111	0xbe574c2e	-0.21025154
112	0xbe628dfe	-0.22124478
113	0xbddf243d	-0.10895584
114	0x3e5d8c28	0.21635497
115	0xbea00ba3	-0.31258878
116	0x3ec16e4f	0.3777947
117	0x3dbbfb1d	0.091787554
118	0x3ed89fb7	0.42309353
119	0x3d67868a	0.05652479
120	0xbe09b603	-0.13448338
121	0xbed9c5d4	-0.42533743
122	0xbd0923a3	-0.03348125
123	0xbea7094f	-0.3262429
124	0x3eda3d07	0.42624685
125	0xbd6990c9	-0.057022844
126	0x3d7d6e20	0.0618726
127	0x3eabf771	0.3358722
128	0x3e43cae5	0.19120367
129	0xbec4b241	-0.38417247
130	0xbeb237a5	-0.34808078
131	0xbecd9edf	-0.40160272
132	0xbe97c022	-0.29638773
133	0x3dafa9c2	0.085773006
134	0x3e3c1549	0.18367495
135	0xbe8def32	-0.27721554
136	0xbd35c3d2	-0.044376202
137	0x3e2e5007	0.17022716
138	0xbedc0a3c	-0.42976558
139	0x3e098d01	0.13432695
140	0xbebe322d	-0.37147656
141	0x3dbf061f	0.093273394
142	0x3e0346c9	0.12819971
143	0xbc908e4e	-0.017645981
144	0x3e014e18	0.12627447
145	0xbea63667	-0.3246338
146	0xbe23651d	-0.1595654
147	0xbecbe93e	-0.39826387
148	0x3e8addfb	0.27122483
149	0xbeda9b18	-0.42696452
150	0x3e472a9c	0.19449848
151	0xbe52bcbe	-0.20579812
152	0xbe558617	-0.20851932
153	0xbe8bdc49	-0.27316502
154	0xbea06327	-0.31325647
155	0x3beb7400	0.007185459
156	0xbeb7f47a	-0.35928708
157	0xbead98c5	-0.33905616
158	0xbec33f7d	-0.38134375
159	0xbed01078	-0.40637565
160	0xbe37f8e8	-0.17966044
161	0xbd8ca2ac	-0.06866965
162	0xbe883c16	-0.26608342
163	0x3e8706fb	0.26372513
164	0xbcc06ddd	-0.023489887
165	0xbcb4d1dd	-0.022072727
166	0xbe10bf26	-0.14135417
167	0xbe755d0c	-0.23961276
168	0xbdde9b89	-0.1086951
169	0xbeac0175	-0.33594862
170	0xbe4f5d25	-0.20250376
171	0x3e6f0131	0.23340298
172	0x3dee49a4	0.116351396
173	0xbdc7fc43	-0.09764912
174	0xbed15dd6	-0.40891904
175	0xbe1ffe77	-0.15624414
176	0xbeaaa8a9	-0.33331802
177	0xbe1491af	-0.14508699
178	0xbea98368	-0.33108068
179	0x3ed98972	0.42487675
180	0xbb8ee4cc	-0.004360771
181	0xbe29b2b5	-0.16572078
182	0x3d71681a	0.05893717
183	0x3e21f6d8	0.1581682
184	0xbea7d29e	-0.32777876
185	0x3e25f37e	0.16206166
186	0x3ec44f01	0.38341525
187	0xbea41a58	-0.3205135
188	0xbec7359a	-0.38908082
189	0x3e4095fa	0.18807212
190	0x3de9c8c5	0.11415247
191	0xbe81d74f	-0.2535958

blocks.1.attn.qkv.bias f4 [24]
0	0x3b894847	0.0041895243
1	0x3a5984f1	0.0008297703
2	0x3965332d	0.00021858206
3	0xbbdc1636	-0.006716515
4	0x3ba148c1	0.004922003
5	0x3baf5ae6	0.005351412
6	0x3bb405e3	0.005493866
7	0x3bb0eece	0.0053995615
8	0x35afd090	1.3099216e-06
9	0xb5cd7b81	-1.5309635e-06
10	0x35c35f05	1.4556286e-06
11	0x34da7c7c	4.0696239e-07
12	0xb7b167d3	-2.1148391e-05
13	0x346ce1bf	2.2061339e-07
14	0xb71493f4	-8.855935e-06
15	0xb70cec84	-8.399718e-06
16	0xbb435760	-0.0029806718
17	0xbb2e4659	-0.0026592223
18	0xbadd8259	-0.0016899809
19	0x3bafb1a5	0.005361753
20	0xbac1d047	-0.0014786803
21	0xbb9322f3	-0.0044902503
22	0x3b90f035	0.004423166
23	0x3b9b7ab6	0.004744853

blocks.1.attn.proj.weight f4 [8, 8]
0	0x3eb9920e	0.36244243
1	0x3eb7798d	0.35834923
2	0x3ecf5cc6	0.40500468
3	0xbefaa1ff	-0.48951718
4	0xbdd030ce	-0.10165559
5	0xbe628940	-0.22122669
6	0x3ead1476	0.33804673
7	0xbf1b77de	-0.6072978
8	0xbe162f80	-0.14666557
9	0x3dcde2b3	0.10053005
10	0x3f0b16ef	0.5433187
11	0x3f18f25e	0.5974482
12	0x3e931927	0.28730127
13	0xbcd5562a	-0.026042063
14	0x3c282d16	0.010264656
15	0xbe864ae1	-0.26229003
16	0xbea90dc9	-0.3301833
17	0x3f046cd1	0.5172854
18	0xbd1fdf52	-0.039031334
19	0xbf19df75	-0.60106593
20	0xbeb4ba4b	-0.3529838
21	0xbe975b0a	-0.29561645
22	0xbf0d4f7f	-0.55199426
23	0xbe81e5dd	-0.25370684
24	0xbeb07039	-0.3446062
25	0xbf0a940c	-0.5413215
26	0x3e859048	0.2608664
27	0x3c7a4e6b	0.015277485
28	0xbe60e707	-0.2196313
29	0x3ed1b3a0	0.40957355
30	0xbf09768a	-0.536965
31	0xbe848793	-0.25884685
32	0xbd9121ff	-0.07086562
33	0xbec4f351	-0.38466886
34	0x3f173873	0.5907051
35	0x3d2b3b54	0.041804627
36	0xbd71a767	-0.058997538
37	0x3f116c2f	0.568057
38	0xbea30204	-0.31837475
39	0xbf050fb5	-0.5197709
40	0xbe18250c	-0.14857882
41	0xbefec3fc	-0.497589
42	0x3e9d4e47	0.30723783
43	0xbed61e37	-0.41819927
44	0xbe528f45	-0.20562465
45	0x3e35a988	0.17740452
46	0x3f0bcffe	0.54614246
47	0xbe8d443b	-0.27591118
48	0xbeda3ab4	-0.42622912
49	0x3e8f721b	0.28016743
50	0xbe839e7f	-0.2570686
51	0xbf08fd9a	-0.53511965
52	0x3e226b74	0.15861303
53	0xbf1378f1	-0.57606417
54	0x3ce87d46	0.028380048
55	0x3f0464ed	0.517165
56	0xbec537b7	-0.3851907
57	0xbf02e9fa	-0.5113827
58	0x3c74d848	0.014944144
59	0xbdf3731c	-0.1188719
60	0xbf052316	-0.5200666
61	0xbef3269a	-0.47490388
62	0x3ede80f1	0.4345775
63	0x3eefabb7	0.46810696

blocks.1.attn.proj.bias f4 [8]
0	0x3a2aec47	0.00065201934
1	0x3b8aa3fd	0.0042309747
2	0xbb646cd8	-0.0034854915
3	0xba973a3d	-0.0011537742
4	0xbb8c94d0	-0.004290201
5	0xb8869713	-6.417758e-05
6	0xbb139054	-0.0022516446
7	0x3b8041cb	0.003914093

blocks.1.norm2.weight f4 [8]
0	0x3f7e1dc3	0.9926416
1	0x3f7ea242	0.99466336
2	0x3f80361e	1.0016515
3	0x3f80aac6	1.0052116
4	0x3f7e9834	0.99450994
5	0x3f7e8ca5	0.99433357
6	0x3f80326d	1.0015389
7	0x3f7ed632	0.99545586

blocks.1.norm2.bias f4 [8]
0	0x3bc86e8f	0.0061166952
1	0x3b986ef4	0.0046518985
2	0xbb38934f	-0.0028163975
3	0x3bd14fbe	0.00638768
4	0xbb87a3e7	-0.0041394117
5	0xbb9e0903	-0.0048228516
6	0xbb801ad4	-0.003909448
7	0xbb585c2e	-0.0033013928
