configs/experiment/best_Moving_MNIST_MAE.pth (torch, 188283 bytes, 158 tensors)

cls_token f4 [1, 1, 8]
000000 38 8c a9 3c 98 de 94 bb 0c 3a 34 3c 8d fc 98 3c
       0.020696744 -0.004543137 0.011000168 0.018675113
000010 26 e7 92 bc ce 6b 91 3b 85 9b 94 3a 0c 92 9d bc
       -0.017932486 0.0044379 0.0011337852 -0.01923468

pos_embed f4 [1, 1281, 8]
000000 00 00 00 00 00 00 00 00 00 00 00 00 00 00 00 00
       0.0 0.0 0.0 0.0
000010 00 00 00 00 00 00 00 00 00 00 00 00 00 00 00 00
       0.0 0.0 0.0 0.0
000020 00 00 00 00 00 00 00 00 00 00 80 3f 00 00 80 3f
       0.0 0.0 1.0 1.0
000030 00 00 00 00 00 00 00 00 00 00 80 3f 00 00 80 3f
       0.0 0.0 1.0 1.0
000040 00 00 00 00 00 00 00 00 00 00 80 3f 00 00 80 3f
       0.0 0.0 1.0 1.0
000050 32 31 8d a5 bd b5 24 3a 00 00 80 3f fd ff 7f 3f
       -2.4492937e-16 0.00062831846 1.0 0.9999998
000060 00 00 00 00 00 00 00 00 00 00 80 3f 00 00 80 3f
       0.0 0.0 1.0 1.0
000070 32 31 0d a6 bb b5 a4 3a 00 00 80 3f f3 ff 7f 3f
       -4.8985874e-16 0.0012566367 1.0 0.9999992
000080 00 00 00 00 00 00 00 00 00 00 80 3f 00 00 80 3f
       0.0 0.0 1.0 1.0
000090 ca c9 53 a6 94 10 f7 3a 00 00 80 3f e2 ff 7f 3f
       -7.3478806e-16 0.0018849545 1.0 0.9999982
0000a0 00 00 00 00 00 00 00 00 00 00 80 3f 00 00 80 3f
       0.0 0.0 1.0 1.0
0000b0 32 31 8d a6 b3 b5 24 3b 00 00 80 3f cb ff 7f 3f
       -9.797175e-16 0.0025132715 1.0 0.99999684
0000c0 00 00 00 00 00 00 00 00 00 00 80 3f 00 00 80 3f
       0.0 0.0 1.0 1.0
0000d0 7e 7d b0 a6 18 e3 4d 3b 00 00 80 3f ad ff 7f 3f
       -1.2246468e-15 0.0031415876 1.0 0.99999505
0000e0 00 00 00 00 00 00 00 00 00 00 80 3f 00 00 80 3f
       0.0 0.0 1.0 1.0
0000f0 ca c9 d3 a6 77 10 77 3b 00 00 80 3f 89 ff 7f 3f
       -1.4695761e-15 0.0037699023 1.0 0.9999929
000100 00 00 00 00 00 00 00 00 00 00 80 3f 00 00 80 3f
       0.0 0.0 1.0 1.0
000110 17 16 f7 a6 e8 1e 90 3b 00 00 80 3f 5e ff 7f 3f
       -1.7145055e-15 0.0043982156 1.0 0.99999034
000120 00 00 00 00 00 00 00 00 00 00 80 3f 00 00 80 3f
       0.0 0.0 1.0 1.0
000130 32 31 0d a7 91 b5 a4 3b 00 00 80 3f 2c ff 7f 3f
       -1.959435e-15 0.005026527 1.0 0.99998736
000140 00 00 00 00 00 00 00 00 00 00 80 3f 00 00 80 3f
       0.0 0.0 1.0 1.0
000150 58 d7 1e a7 35 4c b9 3b 00 00 80 3f f4 fe 7f 3f
       -2.2043643e-15 0.0056548365 1.0 0.999984
000160 00 00 00 00 00 00 00 00 00 00 80 3f 00 00 80 3f
       0.0 0.0 1.0 1.0
000170 7e 7d 30 a7 d5 e2 cd 3b 00 00 80 3f b5 fe 7f 3f
       -2.4492936e-15 0.006283144 1.0 0.9999803
000180 00 00 00 00 00 00 00 00 00 00 80 3f 00 00 80 3f
       0.0 0.0 1.0 1.0
000190 e9 88 30 a8 6f 79 e2 3b 00 00 80 3f 6f fe 7f 3f
       -9.79965e-15 0.0069114487 1.0 0.9999761
0001a0 00 00 00 00 00 00 00 00 00 00 80 3f 00 00 80 3f
       0.0 0.0 1.0 1.0
0001b0 ca c9 53 a7 04 10 f7 3b 00 00 80 3f 23 fe 7f 3f
       -2.9391522e-15 0.007539751 1.0 0.99997157
0001c0 00 00 00 00 00 00 00 00 00 00 80 3f 00 00 80 3f
       0.0 0.0 1.0 1.0
0001d0 08 48 8d 27 49 d3 05 3c 00 00 80 3f d0 fd 7f 3f
       3.921346e-15 0.00816805 1.0 0.9999666
0001e0 00 00 00 00 00 00 00 00 00 00 80 3f 00 00 80 3f
       0.0 0.0 1.0 1.0
0001f0 17 16 77 a7 8d 1e 10 3c 00 00 80 3f 77 fd 7f 3f
       -3.429011e-15 0.008796346 1.0 0.9999613
000200 00 00 00 00 00 00 00 00 00 00 80 3f 00 00 80 3f
       0.0 0.0 1.0 1.0
000210 0f 2f 42 a8 cc 69 1a 3c 00 00 80 3f 17 fd 7f 3f
       -1.07793675e-14 0.009424638 1.0 0.9999556
000220 00 00 00 00 00 00 00 00 00 00 80 3f 00 00 80 3f
       0.0 0.0 1.0 1.0
000230 00 00 00 00 00 00 00 00 00 00 80 3f 00 00 80 3f
       0.0 0.0 1.0 1.0
000240 00 00 00 00 00 00 00 00 00 00 80 3f 00 00 80 3f
       0.0 0.0 1.0 1.0
000250 32 31 8d a5 bd b5 24 3a 00 00 80 3f fd ff 7f 3f
       -2.4492937e-16 0.00062831846 1.0 0.9999998
000260 00 00 00 00 00 00 00 00 00 00 80 3f 00 00 80 3f
       0.0 0.0 1.0 1.0
000270 32 31 0d a6 bb b5 a4 3a 00 00 80 3f f3 ff 7f 3f
       -4.8985874e-16 0.0012566367 1.0 0.9999992
000280 00 00 00 00 00 00 00 00 00 00 80 3f 00 00 80 3f
       0.0 0.0 1.0 1.0
000290 ca c9 53 a6 94 10 f7 3a 00 00 80 3f e2 ff 7f 3f
       -7.3478806e-16 0.0018849545 1.0 0.9999982
0002a0 00 00 00 00 00 00 00 00 00 00 80 3f 00 00 80 3f
       0.0 0.0 1.0 1.0
0002b0 32 31 8d a6 b3 b5 24 3b 00 00 80 3f cb ff 7f 3f
       -9.797175e-16 0.0025132715 1.0 0.99999684
0002c0 00 00 00 00 00 00 00 00 00 00 80 3f 00 00 80 3f
       0.0 0.0 1.0 1.0
0002d0 7e 7d b0 a6 18 e3 4d 3b 00 00 80 3f ad ff 7f 3f
       -1.2246468e-15 0.0031415876 1.0 0.99999505
0002e0 00 00 00 00 00 00 00 00 00 00 80 3f 00 00 80 3f
       0.0 0.0 1.0 1.0
0002f0 ca c9 d3 a6 77 10 77 3b 00 00 80 3f 89 ff 7f 3f
       -1.4695761e-15 0.0037699023 1.0 0.9999929
000300 00 00 00 00 00 00 00 00 00 00 80 3f 00 00 80 3f
       0.0 0.0 1.0 1.0
000310 17 16 f7 a6 e8 1e 90 3b 00 00 80 3f 5e ff 7f 3f
       -1.7145055e-15 0.0043982156 1.0 0.99999034
000320 00 00 00 00 00 00 00 00 00 00 80 3f 00 00 80 3f
       0.0 0.0 1.0 1.0
000330 32 31 0d a7 91 b5 a4 3b 00 00 80 3f 2c ff 7f 3f
       -1.959435e-15 0.005026527 1.0 0.99998736
000340 00 00 00 00 00 00 00 00 00 00 80 3f 00 00 80 3f
       0.0 0.0 1.0 1.0
000350 58 d7 1e a7 35 4c b9 3b 00 00 80 3f f4 fe 7f 3f
       -2.2043643e-15 0.0056548365 1.0 0.999984
000360 00 00 00 00 00 00 00 00 00 00 80 3f 00 00 80 3f
       0.0 0.0 1.0 1.0
000370 7e 7d 30 a7 d5 e2 cd 3b 00 00 80 3f b5 fe 7f 3f
       -2.4492936e-15 0.006283144 1.0 0.9999803
000380 00 00 00 00 00 00 00 00 00 00 80 3f 00 00 80 3f
       0.0 0.0 1.0 1.0
000390 e9 88 30 a8 6f 79 e2 3b 00 00 80 3f 6f fe 7f 3f
       -9.79965e-15 0.0069114487 1.0 0.9999761
0003a0 00 00 00 00 00 00 00 00 00 00 80 3f 00 00 80 3f
       0.0 0.0 1.0 1.0
0003b0 ca c9 53 a7 04 10 f7 3b 00 00 80 3f 23 fe 7f 3f
       -2.9391522e-15 0.007539751 1.0 0.99997157
0003c0 00 00 00 00 00 00 00 00 00 00 80 3f 00 00 80 3f
       0.0 0.0 1.0 1.0
0003d0 08 48 8d 27 49 d3 05 3c 00 00 80 3f d0 fd 7f 3f
       3.921346e-15 0.00816805 1.0 0.9999666
0003e0 00 00 00 00 00 00 00 00 00 00 80 3f 00 00 80 3f
       0.0 0.0 1.0 1.0
0003f0 17 16 77 a7 8d 1e 10 3c 00 00 80 3f 77 fd 7f 3f
       -3.429011e-15 0.008796346 1.0 0.9999613

mask_token f4 [1, 1, 8]
000000 36 eb 1e 3d d4 ea 1b 3c 3d ba 5e 3d 0d f7 ff bc
       0.038798533 0.009516437 0.05437683 -0.031245733
000010 8d 60 47 3d e5 37 01 3d b5 79 0e bc 4a 72 92 3c
       0.048676062 0.031547446 -0.008696009 0.017876763

decoder_pos_embed f4 [1, 1281, 8]
000000 00 00 00 00 00 00 00 00 00 00 00 00 00 00 00 00
       0.0 0.0 0.0 0.0
000010 00 00 00 00 00 00 00 00 00 00 00 00 00 00 00 00
       0.0 0.0 0.0 0.0
000020 00 00 00 00 00 00 00 00 00 00 80 3f 00 00 80 3f
       0.0 0.0 1.0 1.0
000030 00 00 00 00 00 00 00 00 00 00 80 3f 00 00 80 3f
       0.0 0.0 1.0 1.0
000040 00 00 00 00 00 00 00 00 00 00 80 3f 00 00 80 3f
       0.0 0.0 1.0 1.0
000050 32 31 8d a5 bd b5 24 3a 00 00 80 3f fd ff 7f 3f
       -2.4492937e-16 0.00062831846 1.0 0.9999998
000060 00 00 00 00 00 00 00 00 00 00 80 3f 00 00 80 3f
       0.0 0.0 1.0 1.0
000070 32 31 0d a6 bb b5 a4 3a 00 00 80 3f f3 ff 7f 3f
       -4.8985874e-16 0.0012566367 1.0 0.9999992
000080 00 00 00 00 00 00 00 00 00 00 80 3f 00 00 80 3f
       0.0 0.0 1.0 1.0
000090 ca c9 53 a6 94 10 f7 3a 00 00 80 3f e2 ff 7f 3f
       -7.3478806e-16 0.0018849545 1.0 0.9999982
0000a0 00 00 00 00 00 00 00 00 00 00 80 3f 00 00 80 3f
       0.0 0.0 1.0 1.0
0000b0 32 31 8d a6 b3 b5 24 3b 00 00 80 3f cb ff 7f 3f
       -9.797175e-16 0.0025132715 1.0 0.99999684
0000c0 00 00 00 00 00 00 00 00 00 00 80 3f 00 00 80 3f
       0.0 0.0 1.0 1.0
0000d0 7e 7d b0 a6 18 e3 4d 3b 00 00 80 3f ad ff 7f 3f
       -1.2246468e-15 0.0031415876 1.0 0.99999505
0000e0 00 00 00 00 00 00 00 00 00 00 80 3f 00 00 80 3f
       0.0 0.0 1.0 1.0
0000f0 ca c9 d3 a6 77 10 77 3b 00 00 80 3f 89 ff 7f 3f
       -1.4695761e-15 0.0037699023 1.0 0.9999929
000100 00 00 00 00 00 00 00 00 00 00 80 3f 00 00 80 3f
       0.0 0.0 1.0 1.0
000110 17 16 f7 a6 e8 1e 90 3b 00 00 80 3f 5e ff 7f 3f
       -1.7145055e-15 0.0043982156 1.0 0.99999034
000120 00 00 00 00 00 00 00 00 00 00 80 3f 00 00 80 3f
       0.0 0.0 1.0 1.0
000130 32 31 0d a7 91 b5 a4 3b 00 00 80 3f 2c ff 7f 3f
       -1.959435e-15 0.005026527 1.0 0.99998736
000140 00 00 00 00 00 00 00 00 00 00 80 3f 00 00 80 3f
       0.0 0.0 1.0 1.0
000150 58 d7 1e a7 35 4c b9 3b 00 00 80 3f f4 fe 7f 3f
       -2.2043643e-15 0.0056548365 1.0 0.999984
000160 00 00 00 00 00 00 00 00 00 00 80 3f 00 00 80 3f
       0.0 0.0 1.0 1.0
000170 7e 7d 30 a7 d5 e2 cd 3b 00 00 80 3f b5 fe 7f 3f
       -2.4492936e-15 0.006283144 1.0 0.9999803
000180 00 00 00 00 00 00 00 00 00 00 80 3f 00 00 80 3f
       0.0 0.0 1.0 1.0
000190 e9 88 30 a8 6f 79 e2 3b 00 00 80 3f 6f fe 7f 3f
       -9.79965e-15 0.0069114487 1.0 0.9999761
0001a0 00 00 00 00 00 00 00 00 00 00 80 3f 00 00 80 3f
       0.0 0.0 1.0 1.0
0001b0 ca c9 53 a7 04 10 f7 3b 00 00 80 3f 23 fe 7f 3f
       -2.9391522e-15 0.007539751 1.0 0.99997157
0001c0 00 00 00 00 00 00 00 00 00 00 80 3f 00 00 80 3f
       0.0 0.0 1.0 1.0
0001d0 08 48 8d 27 49 d3 05 3c 00 00 80 3f d0 fd 7f 3f
       3.921346e-15 0.00816805 1.0 0.9999666
0001e0 00 00 00 00 00 00 00 00 00 00 80 3f 00 00 80 3f
       0.0 0.0 1.0 1.0
0001f0 17 16 77 a7 8d 1e 10 3c 00 00 80 3f 77 fd 7f 3f
       -3.429011e-15 0.008796346 1.0 0.9999613
000200 00 00 00 00 00 00 00 00 00 00 80 3f 00 00 80 3f
       0.0 0.0 1.0 1.0
000210 0f 2f 42 a8 cc 69 1a 3c 00 00 80 3f 17 fd 7f 3f
       -1.07793675e-14 0.009424638 1.0 0.9999556
000220 00 00 00 00 00 00 00 00 00 00 80 3f 00 00 80 3f
       0.0 0.0 1.0 1.0
000230 00 00 00 00 00 00 00 00 00 00 80 3f 00 00 80 3f
       0.0 0.0 1.0 1.0
000240 00 00 00 00 00 00 00 00 00 00 80 3f 00 00 80 3f
       0.0 0.0 1.0 1.0
000250 32 31 8d a5 bd b5 24 3a 00 00 80 3f fd ff 7f 3f
       -2.4492937e-16 0.00062831846 1.0 0.9999998
000260 00 00 00 00 00 00 00 00 00 00 80 3f 00 00 80 3f
       0.0 0.0 1.0 1.0
000270 32 31 0d a6 bb b5 a4 3a 00 00 80 3f f3 ff 7f 3f
       -4.8985874e-16 0.0012566367 1.0 0.9999992
000280 00 00 00 00 00 00 00 00 00 00 80 3f 00 00 80 3f
       0.0 0.0 1.0 1.0
000290 ca c9 53 a6 94 10 f7 3a 00 00 80 3f e2 ff 7f 3f
       -7.3478806e-16 0.0018849545 1.0 0.9999982
0002a0 00 00 00 00 00 00 00 00 00 00 80 3f 00 00 80 3f
       0.0 0.0 1.0 1.0
0002b0 32 31 8d a6 b3 b5 24 3b 00 00 80 3f cb ff 7f 3f
       -9.797175e-16 0.0025132715 1.0 0.99999684
0002c0 00 00 00 00 00 00 00 00 00 00 80 3f 00 00 80 3f
       0.0 0.0 1.0 1.0
0002d0 7e 7d b0 a6 18 e3 4d 3b 00 00 80 3f ad ff 7f 3f
       -1.2246468e-15 0.0031415876 1.0 0.99999505
0002e0 00 00 00 00 00 00 00 00 00 00 80 3f 00 00 80 3f
       0.0 0.0 1.0 1.0
0002f0 ca c9 d3 a6 77 10 77 3b 00 00 80 3f 89 ff 7f 3f
       -1.4695761e-15 0.0037699023 1.0 0.9999929
000300 00 00 00 00 00 00 00 00 00 00 80 3f 00 00 80 3f
       0.0 0.0 1.0 1.0
000310 17 16 f7 a6 e8 1e 90 3b 00 00 80 3f 5e ff 7f 3f
       -1.7145055e-15 0.0043982156 1.0 0.99999034
000320 00 00 00 00 00 00 00 00 00 00 80 3f 00 00 80 3f
       0.0 0.0 1.0 1.0
000330 32 31 0d a7 91 b5 a4 3b 00 00 80 3f 2c ff 7f 3f
       -1.959435e-15 0.005026527 1.0 0.99998736
000340 00 00 00 00 00 00 00 00 00 00 80 3f 00 00 80 3f
       0.0 0.0 1.0 1.0
000350 58 d7 1e a7 35 4c b9 3b 00 00 80 3f f4 fe 7f 3f
       -2.2043643e-15 0.0056548365 1.0 0.999984
000360 00 00 00 00 00 00 00 00 00 00 80 3f 00 00 80 3f
       0.0 0.0 1.0 1.0
000370 7e 7d 30 a7 d5 e2 cd 3b 00 00 80 3f b5 fe 7f 3f
       -2.4492936e-15 0.006283144 1.0 0.9999803
000380 00 00 00 00 00 00 00 00 00 00 80 3f 00 00 80 3f
       0.0 0.0 1.0 1.0
000390 e9 88 30 a8 6f 79 e2 3b 00 00 80 3f 6f fe 7f 3f
       -9.79965e-15 0.0069114487 1.0 0.9999761
0003a0 00 00 00 00 00 00 00 00 00 00 80 3f 00 00 80 3f
       0.0 0.0 1.0 1.0
0003b0 ca c9 53 a7 04 10 f7 3b 00 00 80 3f 23 fe 7f 3f
       -2.9391522e-15 0.007539751 1.0 0.99997157
0003c0 00 00 00 00 00 00 00 00 00 00 80 3f 00 00 80 3f
       0.0 0.0 1.0 1.0
0003d0 08 48 8d 27 49 d3 05 3c 00 00 80 3f d0 fd 7f 3f
       3.921346e-15 0.00816805 1.0 0.9999666
0003e0 00 00 00 00 00 00 00 00 00 00 80 3f 00 00 80 3f
       0.0 0.0 1.0 1.0
0003f0 17 16 77 a7 8d 1e 10 3c 00 00 80 3f 77 fd 7f 3f
       -3.429011e-15 0.008796346 1.0 0.9999613

patch_embed.proj.weight f4 [8, 1, 4, 4, 4]
000000 59 3a 70 3e db a8 c7 3d fa 9b 9b bd 99 09 6e be
       0.23459758 0.097490035 -0.075981095 -0.23245849
000010 b9 60 bd 3a 13 52 87 3d 80 69 ab 3d 65 24 37 be
       0.0014448381 0.06607451 0.08369732 -0.17884977
000020 7f 28 f7 bd 51 2f 92 3e b8 57 73 bc 30 78 8a be
       -0.12068271 0.28551725 -0.014852457 -0.2704482
000030 ac be 69 bc 59 1b d6 3d 2c 31 43 ba 8f 1d c8 3d
       -0.014266651 0.10454435 -0.0007445987 0.09771263
000040 63 0a 7e 3d 74 a0 7f be 9a 3e 6a 3e 2d d2 6a be
       0.062021624 -0.24963552 0.22875443 -0.22931738
000050 f6 86 98 bc c3 fe 89 bc 5c 41 01 3b f0 26 08 be
       -0.018619042 -0.016845113 0.0019722795 -0.13296103
000060 36 77 03 bd 61 6a 97 3d 64 48 40 3e 33 4b 44 be
       -0.03209611 0.07393337 0.18777615 -0.19169311
000070 f7 16 90 be dd 8c 6b 3e 4e 4d a7 bd c6 75 90 be
       -0.2814252 0.23002954 -0.081690416 -0.28214854
000080 97 5d 0a 3e 04 37 f4 bc a4 4d 38 3e 3d 1e 76 be
       0.13512264 -0.02981139 0.17998368 -0.24034972
000090 19 5c b8 3d 78 2a 07 3e 58 71 9a bc 3d cc 9c 3d
       0.09001941 0.13199794 -0.018852875 0.07656143
0000a0 3a f9 93 3e 3e fb 38 3e ed d8 1e bd c9 d3 54 be
       0.28901082 0.18064591 -0.038781095 -0.20783915
0000b0 07 8d 7b 3e 36 2d 9f 3d 1a 43 23 3e c7 96 03 3d
       0.24565516 0.07772295 0.15943566 0.032126214
0000c0 94 4a 8e 3e 8d e7 29 be 8a 41 46 3e 3e 03 08 3d
       0.27791274 -0.16592236 0.19360939 0.033206217
0000d0 b7 dd 03 3e ab 69 85 be 53 99 44 3e e9 59 39 3e
       0.12877546 -0.2605718 0.19199114 0.18100704
0000e0 5d a0 65 be 9d 14 4f 3e 51 43 6e be ad 5b 4b 3e
       -0.22424455 0.20222707 -0.23267867 0.1985919
0000f0 96 c3 be bd 21 9f 0e 3e 12 e8 f8 3c 0b ec 54 be
       -0.09314649 0.1392789 0.030384097 -0.20793168
000100 8a bb 16 be 01 85 1d bd 16 c5 c5 3d d1 74 24 3e
       -0.14719978 -0.03845692 0.09656732 0.16060187
000110 00 79 59 3e c0 ab 94 3e ee 26 1a be fa 34 83 be
       0.21237564 0.29037285 -0.15053913 -0.25626355
000120 11 f9 6c be f3 d8 06 3e 51 ae 81 be 34 eb 83 3c
       -0.23141886 0.13168697 -0.25328305 0.016103365
000130 d2 49 f4 3c 70 b5 a6 3d 94 26 67 be 0c ac 71 3e
       0.029820357 0.08140075 -0.2257331 0.23600787
000140 c8 ef 8f 3c ca 08 67 3e 6e c5 a2 3d 6a a6 90 3e
       0.017570391 0.22561947 0.07947813 0.28251964
000150 a1 ae 46 3e 3b 1c fc bd 76 90 40 be 01 43 82 3e
       0.19402553 -0.12310072 -0.18805107 0.25441745
000160 66 65 d4 3d ad ef cf 3c 6b 66 76 3e 5e 16 3e be
       0.10370903 0.025382841 0.24062507 -0.1856322
000170 ac da 73 bd 47 5c 0e be 94 df 95 3e b3 d0 f2 bd
       -0.059534714 -0.13902389 0.2927214 -0.118562125
000180 06 a2 34 be cd 10 86 be be b2 3a be b8 8d f7 bd
       -0.17639932 -0.26184693 -0.18232247 -0.120875776
000190 2c 95 90 bb 00 ae 92 bd 6c aa 3d 3e 13 16 da bd
       -0.004412314 -0.07162094 0.18522042 -0.106487416
0001a0 2c ca bd 3d e9 85 9f 3c 43 b8 86 be d4 c3 a5 bd
       0.09267077 0.019473033 -0.26312456 -0.08093992
0001b0 30 4d 24 3d df 1f 23 3e 27 ca 89 3e 35 af ec 3b
       0.040112674 0.15930127 0.26912042 0.0072230347
0001c0 3a 2c 01 3e 7e 0c 39 be 6f 4d 91 3e 7f 33 f4 bd
       0.12614527 -0.18071172 0.2837939 -0.119238846
0001d0 5f 08 5c 3e b4 6d 87 3e b9 97 39 3e 0c dd 82 be
       0.21487568 0.26450884 0.18124284 -0.2555927
0001e0 06 a1 eb bc e9 97 6d 3e 7d 7c 53 be 55 fc 6c 3e
       -0.028763305 0.2320248 -0.20652957 0.23143132
0001f0 86 20 8e bc 78 04 0d be 7e d2 fd bd 12 b2 42 be
       -0.017349493 -0.13771236 -0.12393664 -0.19013241
000200 8f cf 51 be 92 f3 3f be c2 a2 08 3e b6 17 89 be
       -0.20489334 -0.18745258 0.13343337 -0.26775903
000210 0f c2 2a 3e 01 1e 17 3e 31 d2 9f bc 5f f8 04 be
       0.1667559 0.1475754 -0.019509407 -0.12985371
000220 6b 9f 6e 3e 87 68 67 3e ed 21 d2 3d 47 06 6c 3e
       0.23303 0.22598468 0.10260377 0.2304927
000230 d3 f0 cd 3d 1d c9 86 3e 54 6f 2f 3e d1 7d 2b be
       0.10055699 0.26325312 0.17132312 -0.16747214
000240 61 66 1a 3e e0 c5 1d be a2 d7 c5 3d c7 96 03 3e
       0.15078117 -0.15407515 0.09660269 0.12850486
000250 11 51 12 be 24 81 b9 3c d3 82 48 3e 34 31 b6 3c
       -0.14288737 0.022644587 0.19581155 0.022240259
000260 85 51 78 3b 28 cf 89 be 0c 48 dc 3d 69 88 1e be
       0.0037890386 -0.2691586 0.10755929 -0.15481724
000270 88 a9 b5 bd c5 1d 1e bd f3 76 5e 3e 45 e8 b5 bc
       -0.08870226 -0.03860261 0.21725063 -0.022205481
000280 23 71 c5 3d 9f af 4b be fa 89 1e 3e 9a 79 ec bd
       0.0964072 -0.19891213 0.15482321 -0.11546631
000290 79 ad bc bd b5 c3 03 bc b8 40 33 be 7a 48 ab 3d
       -0.09212775 -0.008042266 -0.17505157 0.08363433
0002a0 33 e4 80 3e cf 1c 8e be 89 50 d3 3d 58 60 78 be
       0.25174102 -0.27756354 0.10318095 -0.24255502
0002b0 2b 9a b9 bd f9 6a 43 3e 8c b2 39 bc c2 41 40 3d
       -0.09062608 0.19083776 -0.011334073 0.04693771
0002c0 95 a2 8c be a7 f9 19 3e e1 ce 05 be dd d2 12 3e
       -0.2746779 0.15036641 -0.130672 0.1433825
0002d0 13 3d 54 be 9f ff 5c 3e 1d 87 04 3e 38 03 fb bc
       -0.20726423 0.21581887 0.12942167 -0.030641183
0002e0 09 5d 3d bd 2e 60 2a be a7 db 0d be 4e ce cd 3b
       -0.046231303 -0.16638252 -0.13853322 0.006280697
0002f0 88 72 2b bb 89 52 8d be 68 67 6e 3d 2e 78 cd bd
       -0.0026160795 -0.27602032 0.058204085 -0.10032688
000300 32 14 1b 3c f8 67 72 be e1 5e 6b 3e f3 be 22 be
       0.009465264 -0.23672473 0.22985412 -0.15893154
000310 03 1b 14 3c aa 18 f4 3c db f0 19 3e b0 ec 0d be
       0.009039643 0.029796917 0.15033285 -0.1385982
000320 3d 42 62 3e 13 d2 70 bd 51 db 9a 3d 26 f3 6a be
       0.2209558 -0.058794092 0.075613625 -0.22944316
000330 dc 83 7e be 52 04 5c be 43 3a fe 3d 58 89 fe bd
       -0.24854988 -0.21486023 0.12413456 -0.1242854
000340 1d 39 26 be 92 31 08 be 33 23 76 3e f6 78 0b be
       -0.16232724 -0.1330016 0.24036865 -0.13620362
000350 52 91 4b be aa 1f cc 3d 38 d2 8f bd 45 ef 85 3e
       -0.19879654 0.09966977 -0.07022518 0.2615911
000360 b9 05 46 bd 1f dd 7d be 98 a6 0a 3e 88 a3 b3 bd
       -0.0483453 -0.24791382 0.13540113 -0.087714255
000370 1b df b6 3d df dc 64 3e 62 1c 25 be 9e 01 67 be
       0.08929273 0.2234988 -0.16124108 -0.2255921
000380 5c a7 89 be 04 84 2f be 1c 26 88 3d 59 d9 9a 3d
       -0.26885498 -0.17140204 0.06647894 0.07560987
000390 c0 bc 60 3e 57 c5 86 3e 5b 9b 88 3d 81 b5 44 3e
       0.21947002 0.26322433 0.06670257 0.19209863
0003a0 e2 1e 05 be 9d f3 8a be e0 aa 3d 3e 53 e5 f9 3d
       -0.13000062 -0.27138987 0.18522215 0.12201943
0003b0 e9 76 63 be 5e e9 f2 bd 03 dc f5 3a 43 f9 44 3e
       -0.2221333 -0.118609175 0.0018757585 0.19235711
0003c0 d5 35 0b bd 4b b2 e6 3d 11 25 0d 3e 49 57 4f 3d
       -0.033986885 0.112644754 0.13783671 0.05062035
0003d0 62 05 24 3d 2b 0f 27 bd d1 4b 00 be 5f 5a 1d 3d
       0.040044196 -0.04078595 -0.12528922 0.038416263
0003e0 67 b6 7f 3e 8f 9f 78 3e c5 a7 8a 3e 16 81 5d 3e
       0.24971925 0.24279617 0.27081123 0.21631274
0003f0 fb 27 6c bd 34 8f 53 bd 71 db b4 bc e4 99 43 be
       -0.057655316 -0.05165024 -0.022077294 -0.19101673

patch_embed.proj.bias f4 [8]
000000 27 ce cf bd 8c ff b1 bd 7f 82 24 3d dd 48 f2 3d
       -0.10146742 -0.0869132 0.040163513 0.11830304
000010 1d c5 5f bd 50 29 a9 3d ef d8 d0 3d 86 40 5a 3d
       -0.05463134 0.08259833 0.10197627 0.05328419

blocks.0.norm1.weight f4 [8]
000000 06 10 80 3f 02 19 80 3f 2c 79 7f 3f 75 5e 80 3f
       1.000489 1.0007632 0.9979427 1.0028826
000010 1a 05 7f 3f 3f 11 80 3f fb b4 7f 3f 98 51 7f 3f
       0.9961716 1.0005263 0.9988553 0.9973388

blocks.0.norm1.bias f4 [8]
000000 a6 d6 ae ba e5 83 01 bb ed 10 3b ba 01 e7 78 3b
       -0.0013339117 -0.0019762453 -0.0007136006 0.0037979486
000010 4c fb 31 3b 56 a5 ef ba 58 3c 19 bb 13 30 c1 ba
       0.0027157841 -0.0018283527 -0.0023381915 -0.0014739059

blocks.0.attn.qkv.weight f4 [24, 8]
000000 ca 30 06 3c f3 c2 9d bd 30 a5 0e 3e 0a 9b 38 be
       0.008190343 -0.07703199 0.13930202 -0.18027893
000010 09 df 49 be 26 e4 7a 3d 12 41 3d be 96 4d ae be
       -0.19713987 0.061252736 -0.18481854 -0.34043568
000020 9c 92 37 3e 07 39 bb 3e 4c 3f d5 3e b5 ab ca be
       0.17927021 0.36566946 0.41649854 -0.39584127
000030 06 31 97 3e c9 c3 b9 bd 99 ad 06 3e be 56 c4 bd
       0.2952959 -0.09070546 0.1315216 -0.09586857
000040 a9 93 84 be 63 bc b3 3e 54 a1 d2 be 98 40 60 be
       -0.25893906 0.35104665 -0.4113871 -0.2189964
000050 6c 54 77 bd 9c 30 10 bc 1f ec 35 be 95 b6 84 be
       -0.060383245 -0.008800652 -0.17765854 -0.2592055
000060 ae ed 27 be 90 5b 9b 3c 41 d5 76 be 4c 83 b5 3e
       -0.16399261 0.018964559 -0.24104787 0.35451734
000070 7b af 7f 3e 0f 4e 99 be 8d 71 6d be b4 d7 95 be
       0.24969284 -0.29942366 -0.23187847 -0.2926613
000080 06 bf bf 3e ea ab dc 3e 45 3a 7b 3e db 0b db be
       0.37450427 0.4309991 0.24533947 -0.42782483
000090 89 04 6d 3e 44 62 61 3e aa a9 09 bd a4 3f bd 3e
       0.23146261 0.22010142 -0.03360907 0.36962616
0000a0 6d 08 d0 3e 2e 75 9b 3e c3 0d dc 3e 63 66 a7 3e
       0.40631428 0.30362839 0.4297925 0.32695302
0000b0 97 ee 7f be 01 96 96 3e 0e ba 3a be f6 d3 d0 be
       -0.24993359 0.2941132 -0.18235037 -0.40786713
0000c0 88 21 6a be 54 38 4d be 47 74 ab 3e 73 69 99 3e
       -0.22864354 -0.20041019 0.3348715 0.29963264
0000d0 72 ad b0 be 08 5d 27 bd 6a b0 d0 3e 40 4b ad be
       -0.34507328 -0.040860206 0.40759593 -0.33846474
0000e0 6c 5b b4 be 2b 6a 4b be f1 18 62 3d 13 37 94 3e
       -0.35226 -0.19864719 0.055199567 0.28948268
0000f0 05 49 a7 3d 34 2d b0 3e fb 7f 05 be 7c 17 97 3e
       0.08168224 0.34409487 -0.13037102 0.29510105
000100 ba 73 c3 be db 30 8f 3e 8b b1 5b be 4b 86 c4 be
       -0.3817423 0.2796696 -0.21454446 -0.38383707
000110 12 44 29 be 87 86 19 be dd 94 8e 3e 73 39 86 be
       -0.16529873 -0.14992724 0.2784795 -0.26215705
000120 87 61 bb 3d 83 c1 ef 3d 97 ab 9b be d5 9c 87 be
       0.09149461 0.11706831 -0.3040435 -0.2648684
000130 58 0f 6a bd 2c 84 66 3e 79 09 b1 be 5e a8 d9 bc
       -0.05714354 0.22511357 -0.3457754 -0.026569542
000140 25 85 8e be 04 53 90 be 9e c4 45 be 0c b1 bc 3e
       -0.27835956 -0.28188336 -0.19313285 0.36853826
000150 d1 4d cf 3e 56 e4 3d bd 8c d2 ce 3e d2 3b aa be
       0.40489057 -0.046360336 0.4039501 -0.33248764
000160 fd d6 cc 3e e8 35 46 be 43 a1 65 3e 9d 75 87 be
       0.40007773 -0.19356501 0.22424798 -0.2645692
000170 b7 05 d7 be 4d 5b 8d be 5f 7c 9a bd b1 bf d8 be
       -0.41996548 -0.2760872 -0.07543253 -0.4233375
000180 3a de c4 be 69 66 4c 3e cc d7 b3 be c6 de 8a be
       -0.38450795 0.19960941 -0.35125577 -0.27123088
000190 1a ac 6d bd 03 b7 a9 3e d6 59 99 be 2f f9 0a 3c
       -0.058025457 0.3314744 -0.29951352 0.008482262
0001a0 69 61 98 3e 66 57 39 be 17 78 2f 3e cf 9b 8f be
       0.29761818 -0.18099746 0.17135654 -0.2804856
0001b0 76 76 b5 be bd ac 60 be 5f 05 b9 3e 8d 3c ba 3e
       -0.3544194 -0.21940894 0.3613691 0.36374322
0001c0 1d ce d7 be 57 82 8d be 7a 10 88 bd 2d a7 a8 3d
       -0.4214944 -0.27638504 -0.06643768 0.08235011
0001d0 82 79 a3 be 81 f9 19 3e d7 5a b0 3e 51 c6 b1 3e
       -0.3192864 0.15036584 0.34444305 0.34721616
0001e0 55 c6 51 be 47 4b 76 3e 4e dd 82 3e b8 14 9e 3e
       -0.20485814 0.24052154 0.25559467 0.30875182
0001f0 7b da a8 be fb 86 18 bc 54 93 ac 3e 13 65 c9 be
       -0.32979187 -0.009309526 0.33706152 -0.39334926
000200 51 6c 2b bc 42 2a dc be b6 c7 c3 3b ad cc 76 be
       -0.010462836 -0.4300099 0.005974735 -0.24101515
000210 6a 12 b1 be 1c e2 c4 3e 99 6f d1 3e ff d1 73 3e
       -0.3458436 0.38453758 0.40905455 0.23810576
000220 a7 c7 88 be cd c0 9c 3e 0a 8f 85 be 68 2a da 3c
       -0.26714823 0.30615845 -0.26085693 0.026631549
000230 6b 16 c3 bb 5f 11 75 3e f6 67 1d 3e 69 98 81 be
       -0.0059536 0.23932408 0.15371689 -0.25311592
000240 e0 7c 31 bb 0d 33 8a bd b3 3a 46 3d 65 e7 b4 be
       -0.0027082488 -0.067480184 0.048395824 -0.3533279
000250 f1 79 84 3e 08 ef d4 be 29 22 99 bc ec e7 86 be
       0.25874284 -0.41588616 -0.018693047 -0.26348817
000260 a6 ed a4 be 50 51 d8 3d d0 18 23 3e 59 24 a4 3e
       -0.3221256 0.10562384 0.15927434 0.3205898
000270 12 ba 85 3d 9e 2c a2 3e f6 43 98 be 4a 77 af be
       0.06529631 0.31674665 -0.2973935 -0.34270698
000280 30 33 93 be 70 6e 11 3e a2 06 d6 be f6 33 da bc
       -0.2874999 0.14202285 -0.41801935 -0.026636105
000290 72 4d b1 bd 90 33 76 be d0 64 d1 bd b3 ea 62 3e
       -0.0865735 -0.24043107 -0.102243066 0.22159843
0002a0 28 b9 03 bd 20 b9 80 bd 06 aa 1c be 7a fb 4a be
       -0.032159 -0.0628531 -0.15299234 -0.19822493
0002b0 19 0b 80 3e db ef af bd f2 4a 0d be 81 c8 af 3e
       0.25008467 -0.08590671 -0.1379812 0.3433266
0002c0 90 25 5e 3e eb 14 c3 bc af 9d af 3e ef 8a 4c 3e
       0.21694016 -0.023813685 0.3429999 0.19974874
0002d0 6b cb 74 3e f7 e4 30 3e 52 c6 a5 bd 9d 0e 9b 3e
       0.23905723 0.17274843 -0.08094467 0.30284587
0002e0 f1 6b 59 bd ce f2 3a be 3d 18 8f bd 37 75 a4 3e
       -0.053081457 -0.18256685 -0.06987045 0.32120678
0002f0 5b 61 87 3e 0f 82 c6 be 10 95 82 bd 1a b3 a2 be
       0.26441464 -0.38771102 -0.06376088 -0.3177727

blocks.0.attn.qkv.bias f4 [24]
000000 f7 fa 08 bb 1c dd de ba a4 b7 57 3a 51 c5 e7 ba
       -0.002090154 -0.0017003152 0.00082289637 -0.0017682706
000010 7b 5c 9c 3a c1 00 dc ba 78 ab 80 3b d7 61 1d 3b
       0.0011929417 -0.0016784893 0.0039266907 0.0024014616
000020 a8 f9 44 b8 93 e4 ae b8 e9 77 af b8 fd a4 93 b7
       -4.6962552e-05 -8.339542e-05 -8.366985e-05 -1.7600594e-05
000030 0b 4b 8c 36 6d e5 9f b6 2c 26 97 38 ff 92 11 38
       4.1810613e-06 -4.765278e-06 7.207351e-05 3.4707595e-05
000040 d5 32 df 3a 82 e0 91 ba d6 af e3 3a af 05 df 3a
       0.0017028699 -0.0011129531 0.0017371129 0.0017015244
000050 2a c9 9f ba c9 a2 e1 3a 2c 0f 4c ba 44 e3 06 3b
       -0.0012190689 0.0017214651 -0.0007784243 0.0020582238

blocks.0.attn.proj.weight f4 [8, 8]
000000 5e ee 73 3e 7c 08 fe 3e 27 7a 1f bc d2 49 91 be
       0.23821399 0.49615848 -0.009733713 -0.28376633
000010 b2 8d 54 3e 42 df 0c 3e f8 1e 1a bf db f6 2c 3d
       0.20757177 0.13757041 -0.60203505 0.042227607
000020 b1 05 5b 3e 79 6a 6b 3d c2 c7 1f 3e 7c 50 9a be
       0.2138889 0.057474587 0.15603545 -0.3013953
000030 b8 7a b7 3d 4b 42 48 3e f4 f8 04 3f be cb 0b 3f
       0.089589536 0.19556539 0.5194237 0.5460776
000040 da 8a 16 3f 41 18 41 be 23 1f 0f 3f 14 4a 16 3f
       0.5880562 -0.18856908 0.55906886 0.58706784
000050 b7 fc 74 3e fe bc 1d 3d 35 4a 0a 3f 7c ea 1c 3f
       0.23924528 0.038510315 0.5401948 0.61295295
000060 10 72 03 bf 3e 2c ee bd 56 f5 ab 3e ed 99 ea 3e
       -0.5134592 -0.11629532 0.33585614 0.4582056
000070 79 51 f3 3e 6e 8f c1 bd 03 7c 04 be 4b ab 98 3e
       0.47523096 -0.09451185 -0.12937932 0.29818186
000080 b4 f8 7d be 0c 72 9a 3d 67 be e5 be 4d 89 b2 be
       -0.24801904 0.07541284 -0.44871828 -0.34870377
000090 f5 e2 32 3e 56 c3 e4 3e 36 a3 2a be 75 b3 05 3e
       0.1746939 0.4468028 -0.16663823 0.13056739
0000a0 13 e1 36 be e6 04 9b be 53 2a c1 bd 64 80 06 bf
       -0.17859297 -0.30277175 -0.09431901 -0.5253966
0000b0 54 c3 89 be 62 de d9 3e 0e 04 ae 3d ac 56 9b 3e
       -0.26906836 0.42552477 0.08496867 0.30339563
0000c0 5b 39 69 be b4 c8 19 bf ba 58 14 3f bf cb e6 3e
       -0.22775786 -0.60071874 0.57947886 0.4507732
0000d0 c4 70 fa 3d 2b 7b cf be cc 27 ed 3e af 73 cd 3d
       0.122285396 -0.40523657 0.46319425 0.100318305
0000e0 4f 35 00 be f6 71 c4 bd df 5a b4 3e d5 93 14 3d
       -0.12520336 -0.09592049 0.3522558 0.036273796
0000f0 b4 25 b9 3e 59 8f b4 be 42 b6 cf 3e e2 7b 59 be
       0.36161578 -0.35265616 0.4056874 -0.21238664

blocks.0.attn.proj.bias f4 [8]
000000 58 3a 48 3a ef a6 b1 b9 2b 25 d3 3a 77 4e d4 3a
       0.00076380884 -0.00033884446 0.0016109099 0.0016197701
000010 fe bc be ba 05 86 a2 3a f0 8a bd ba d6 dd e8 ba
       -0.0014552174 0.001239956 -0.0014460962 -0.0017766308

blocks.0.norm2.weight f4 [8]
000000 a8 2a 80 3f 74 fc 7f 3f 2f b4 7f 3f 31 18 80 3f
       1.0013018 0.9999459 0.99884313 1.0007383
000010 45 12 80 3f 3c 0d 80 3f af 2e 7f 3f 03 0a 7f 3f
       1.0005575 1.0004039 0.9968061 0.9962465

blocks.0.norm2.bias f4 [8]
000000 f8 18 40 bb fa 22 98 ba 1e 95 04 b9 17 63 ea 3a
       -0.0029311758 -0.0011607104 -0.00012644051 0.0017882314
000010 5a d3 cd ba 4d f2 c8 ba 57 7c 34 bb 11 dd 2c bb
       -0.0015703246 -0.0015331 -0.0027539933 -0.0026376883

blocks.0.mlp.fc1.weight f4 [32, 8]
000000 85 0d 3a 3e b3 f5 87 3e 88 4b 70 be 02 74 29 bd
       0.1816922 0.2655464 -0.23466313 -0.0413704
000010 35 41 71 3e 63 c1 78 3e 29 1c 1d 3e 2d be 65 3e
       0.23560031 0.24292521 0.15342773 0.22435828
000020 0a 49 3b be 50 fb d1 bc 3a 8b 66 be 2c da c3 be
       -0.18289581 -0.02563253 -0.22514048 -0.3825239
000030 0d 76 25 be 45 76 a9 3e 12 83 1a 3e 18 3b 97 3e
       -0.16158314 0.33098045 0.15089062 0.29537272
000040 58 3a 8e be 94 bd c5 3e a0 27 68 be 84 3f 1d be
       -0.27778888 0.386212 -0.22671366 -0.1535626
000050 cf 1b a2 3e 81 28 87 3d f3 eb b2 be ea 7d b1 bc
       0.3166184 0.065995224 -0.3494564 -0.021666486
000060 4b 3d 16 3e 18 c9 b5 bd 4b 94 6a 3e cd 40 b4 be
       0.14671819 -0.08876246 0.22908132 -0.3520569
000070 71 97 18 3e 46 b2 88 3b 62 25 8d 3e d0 fb a3 3d
       0.1490152 0.0041716425 0.27567583 0.08007014
000080 8b 41 95 3d db f1 2a 3e 7a 29 75 3d a0 b9 a5 bc
       0.07287892 0.16693823 0.05985401 -0.020230114
000090 dc 3c 1a be 16 44 14 be ea 48 1b 3e 5a 6e 64 3e
       -0.15062279 -0.14479098 0.15164533 0.22307721
0000a0 9b d5 fd bd 1d 53 84 3e af f8 4c 3e c8 17 40 3e
       -0.12394258 0.2584466 0.2001674 0.18759072
0000b0 7c 48 9a 3c 9d 4e 2a 3d 81 d8 00 3e 47 3f 3e 3e
       0.018833391 0.041578878 0.1258259 0.18578826
0000c0 d9 09 a5 3e bd c1 96 3e 1d 6b b0 3e 8b 4c 5e be
       0.32234076 0.29444686 0.3445672 -0.21708886
0000d0 1d 00 86 be 24 a5 f5 bd 7d 7e 8b bd 6d 44 b7 3e
       -0.2617196 -0.11994389 -0.06811235 0.35794392
0000e0 7e ac 85 bd 30 87 c1 be f7 dc 30 be ab 29 50 bd
       -0.06527041 -0.37798452 -0.17271791 -0.050820988
0000f0 71 ba a5 3d aa d1 6e 3e 43 57 c7 3a 1c 1c 53 3e
       0.080922015 0.23322168 0.0015208501 0.20616192
000100 7a ec 06 bd b2 12 d1 3d 66 69 5c 3d e9 f3 ad be
       -0.032940365 0.10208644 0.053811453 -0.3397515
000110 70 03 ac 3e a0 9d a3 be aa b1 84 3e 81 f8 77 3e
       0.33596373 -0.31956196 0.25916797 0.2421589
000120 a1 f1 be be 5e cb 0b be aa 16 a4 be 88 ff 15 3e
       -0.37293723 -0.13651797 -0.3204854 0.14648259
000130 d5 3e 78 3e 3a 50 9f be 9b 46 b6 3e a5 9c b8 3c
       0.24242719 -0.31115896 0.35600743 0.022535631
000140 30 ab f1 bd be 87 9c 3e 99 8a 0e be 8c 8c 7a 3e
       -0.118002295 0.30572313 -0.13920058 0.24467677
000150 72 e6 c4 be f5 63 94 3e 61 db 1a 3e 5d cc dc 3c
       -0.38457066 0.2898251 0.15122749 0.026952917
000160 ee 1f ed bc 98 e0 01 be 53 42 c6 3c 90 0d 67 3e
       -0.02894589 -0.12683332 0.024201548 0.22563767
000170 05 8b a8 be 4d c6 a8 3d 20 b7 76 be f8 9c 47 3e
       -0.32918563 0.08240948 -0.24093294 0.19493473
000180 d3 05 26 3d 23 63 a3 be f1 66 91 be 6d 5b bf be
       0.0405329 -0.31911573 -0.2839885 -0.3737444
000190 3a a5 f6 3d 26 da 9a 3d 3f 54 16 3d c4 29 93 3e
       0.12043233 0.0756114 0.036701437 0.28742802
0001a0 f5 82 0e be 68 20 85 be dc fe a0 3d 7d 0b d1 bd
       -0.13917144 -0.26001287 0.078611106 -0.10207269
0001b0 88 94 53 be 4a 1c 3e 3c 6d 32 85 3e 70 89 38 3e
       -0.20662129 0.011603424 0.26015034 0.18021178
0001c0 e2 79 19 be 60 ac 9f be 8a 02 9e be 7c ad b7 be
       -0.14987901 -0.311862 -0.30861312 -0.35874546
0001d0 0a c1 9c 3e a2 02 ad 3e 14 e5 20 3e d4 f2 a1 3e
       0.30616027 0.3379107 0.15712386 0.31630576
0001e0 49 c4 3e 3e 0c bd 34 3e d8 ce 06 3e 7b 8b a8 3d
       0.18629564 0.1765024 0.13164842 0.08229729
0001f0 74 60 b9 bd 22 2e b3 3e c4 b3 b0 bd 35 c7 47 3e
       -0.090516 0.34996134 -0.086280376 0.19509585
000200 5a e0 2e be 3a 5e 54 be c2 b8 15 3e 2d da 3b 3e
       -0.17077771 -0.2073907 0.14621261 0.18344946
000210 3c e0 25 be 27 73 7b be 71 67 b0 be e8 9c 22 be
       -0.1619882 -0.24555646 -0.3445392 -0.15880167
000220 f4 5d a0 3e 5e de bb 3e 3a 2f 04 bd 7e 77 3b 3e
       0.3132168 0.3669309 -0.0322716 0.18307301
000230 69 1a 2c be 24 7c 6b be 82 74 ad be f1 a4 13 3d
       -0.1680695 -0.22996575 -0.3387795 0.036045972
000240 21 2a 7b bd de 42 50 be ff 70 aa 3e 5e a1 ed bd
       -0.061319474 -0.20338008 0.33289334 -0.11603044
000250 98 09 b4 be c9 b5 95 be f0 4d 8d be 2c ca 2e be
       -0.3516357 -0.29240254 -0.27598524 -0.1706931
000260 59 67 a6 be e8 50 ac be 27 44 22 3e 4c 4a c0 be
       -0.32500723 -0.33655477 0.1584631 -0.37556684
000270 c7 84 8d 3e 9f a4 ec bd e2 29 b6 3d d7 4a b4 3e
       0.27640364 -0.115548365 0.08894707 0.35213348
000280 05 65 13 3e 8c c3 0b 3e e4 ad bb be 12 16 a6 be
       0.14394005 0.13648814 -0.36656106 -0.32438713
000290 09 56 4e be 1f 5f 8f be 12 3a 59 bc 51 28 d4 3a
       -0.20150007 -0.2800226 -0.013258474 0.0016186332
0002a0 00 be 26 be ee 5a b7 be d1 f2 5e be ee c8 67 be
       -0.16283417 -0.3581156 -0.21772315 -0.22635242
0002b0 cd 23 90 3e 5c 76 a2 bd 9c 61 8c 3e 02 e4 8a be
       0.28152314 -0.079327315 0.2741822 -0.2712708
0002c0 30 19 b8 be 84 7e 98 bd dd 8d 58 3e 04 d1 9f 3e
       -0.35956717 -0.07446006 0.21147867 0.31214154
0002d0 3d 24 bb bd be 7f 8a be 91 a3 b2 3e 74 4f 28 3d
       -0.09137771 -0.27050585 0.34890416 0.041091397
0002e0 69 b9 a5 be 70 09 aa be 76 78 57 be 5c c1 97 3d
       -0.3236802 -0.33210325 -0.21042046 0.07409927
0002f0 4f 1a ad 3e 92 6f 75 3d 70 18 b0 3e 75 bd 68 be
       0.33809134 0.059920855 0.34393644 -0.22728522
000300 ae 78 4a 3b f4 8f f5 bb b1 fe 9d be 54 df 45 bd
       0.0030894685 -0.007493967 -0.30858377 -0.048308685
000310 01 71 11 bd cd 64 86 be 44 53 2d 3c 8a a0 a7 bd
       -0.03550816 -0.2624878 0.010578934 -0.08184917
000320 16 26 c3 be a5 cf bb 3e fa c6 97 be d0 38 71 3e
       -0.38114995 0.36681858 -0.29643995 0.23556828
000330 ef 99 a0 be 84 ae 9c be 34 b6 a8 3d e4 da bb 3d
       -0.31367442 -0.30601895 0.082378775 0.091726094
000340 a4 94 37 3e 2b 31 9c be 40 1b fc 3b 8d e3 0b be
       0.17927796 -0.30506262 0.007693678 -0.13661022
000350 99 f5 49 3e e1 7c c4 be c4 ec c9 3d 8a 3d 94 3e
       0.19722594 -0.38376525 0.098596126 0.289532
000360 54 0c bc 3e ee 71 08 3e f2 e1 b8 3e fc 9b 89 3e
       0.36728156 0.1332471 0.36109883 0.2687682
000370 0a d5 14 3e 10 4b 2c bd 33 3e 56 3e 6f b3 99 3e
       0.14534393 -0.042063773 0.20922165 0.3001971
000380 8f ad 7b be 6f ad 93 be e2 f9 9b 3e 6f e4 9c 3e
       -0.24577926 -0.28843257 0.30464083 0.3064303
000390 33 7a c2 be f8 1b 2b bc c7 43 fc 3d b1 b4 85 be
       -0.37983856 -0.01044368 0.12317615 -0.2611442
0003a0 bb 4b 51 3e b9 b4 aa be f9 66 cb bd c9 79 1f be
       0.20439045 -0.33341005 -0.0993175 -0.15573801
0003b0 a0 6a 37 3c fe 3c db bc 83 1b 9a 3e da f4 c2 3e
       0.011194855 -0.026762482 0.30099115 0.38077432
0003c0 26 77 89 3e e1 52 3c 3d 3e d3 16 be 15 0a 88 3d
       0.26848716 0.045977477 -0.1472902 0.06642548
0003d0 38 7a a5 bb 24 f6 a3 3e 00 f0 a7 be 4c d4 1b 3e
       -0.00504997 0.32023728 -0.32800293 0.15217704
0003e0 49 14 99 3e 24 01 4e 3c 7a 8b 55 be 04 c9 28 3e
       0.2989829 0.012573514 -0.20853987 0.16482931
0003f0 0d 71 1f be 46 48 93 be a7 91 4b 3d 9f c6 83 3e
       -0.15570469 -0.28766078 0.04969945 0.25737473

blocks.0.mlp.fc1.bias f4 [32]
000000 19 b7 d9 3a 63 aa 01 bb 7e e7 b3 ba 90 82 cb ba
       0.0016610353 -0.0019785396 -0.0013725606 -0.0015526582
000010 2c f0 b0 3a 37 3c 02 bb d3 0e ab ba 20 dd c5 3a
       0.0013499311 -0.0019872317 -0.0013050683 0.0015095808
000020 2d 26 25 39 8c f5 d8 ba 03 c9 c8 ba 40 d4 a2 3a
       0.00015749848 -0.0016552671 -0.0015318695 0.0012422875
000030 ee 6c 98 3a 58 0c 81 3a 74 dd f8 3a e0 c5 e6 ba
       0.0011629143 0.0009845598 0.0018986897 -0.0017606579
000040 b2 fb 64 ba a0 4f 3c 3a 41 ad b7 3a c1 72 d6 ba
       -0.0008735015 0.0007183496 0.0014013426 -0.0016361104
000050 79 7e 8d 3a 23 ef 01 bb 23 c3 c3 3a c1 09 c6 3a
       0.0010795138 -0.0019826374 0.0014935475 0.0015109108
000060 fc 58 88 3a 69 fc 3d 3b f2 f0 03 bb 22 4a ba 3a
       0.0010402496 0.002898956 -0.0020132628 0.0014212767
000070 0c 95 81 3a c1 fe b3 3a 98 c6 c2 ba ff d7 39 bb
       0.0009886338 0.0013732539 -0.0014860211 -0.0028357503

blocks.0.mlp.fc2.weight f4 [8, 32]
000000 c9 58 38 be 4b e5 82 be 24 01 e2 3d ea c6 78 be
       -0.18002619 -0.25565562 0.11035374 -0.2429463
000010 5a d1 33 3e 13 82 98 3e b5 ae 8b be 10 e1 72 3e
       0.1756033 0.2978674 -0.27281728 0.23718667
000020 f4 4d 9e be 23 a9 53 3e 8e 56 27 3d 1b 35 b7 3d
       -0.3091885 0.2066999 0.04085403 0.08945676
000030 9f 61 ac 3e 66 03 1e 3e 60 da 9b be 1a 5f 86 3e
       0.3366823 0.15430984 -0.30440044 0.26244432
000040 21 b9 09 be e4 4a ac 3e 98 39 19 3d b5 51 d7 3d
       -0.13449527 0.33650887 0.03740844 0.10513631
000050 37 74 c0 3e be cd a4 be c0 9f 48 3d 48 b2 6f bb
       0.37588665 -0.3218822 0.048980474 -0.003657477
000060 98 b3 67 3e 23 78 dd 3c a1 e3 97 3e b8 9c 10 be
       0.22627103 0.027034825 0.29665855 -0.14122283
000070 a8 ed 49 3e aa a6 7b 3c 71 de ba be 6d df a1 be
       0.19719565 0.01535956 -0.36497834 -0.31615773
000080 0f 4b 07 3c a0 92 1e be 21 a9 c1 3e 46 31 ac be
       0.008257641 -0.1548562 0.37824348 -0.33631343
000090 e2 77 08 3d c9 18 ab bd f6 62 96 3e d7 36 f9 3d
       0.033317454 -0.08354337 0.29372376 0.12168663
0000a0 b3 f7 02 3d e8 d9 22 be c0 76 93 be 74 2d 47 3d
       0.031974506 -0.15903437 -0.28801537 0.04862733
0000b0 33 7f a8 be 3f 22 04 be 21 e2 39 be 74 86 b7 be
       -0.32909545 -0.12903689 -0.18152668 -0.35844767
0000c0 06 66 c0 3e 2d 49 97 be 77 9b ae be e5 b1 aa be
       0.37577838 -0.29548016 -0.34102985 -0.33338848
0000d0 80 93 ff 3d 59 cb c1 be bc 2b 56 3e 9b 77 5e 3e
       0.12479305 -0.37850454 0.20915121 0.21725313
0000e0 42 15 86 be ac 5d af 3e 4f 7b 8f be ec 04 95 bd
       -0.26188093 0.34251153 -0.28023764 -0.072763294
0000f0 04 54 7e bd 88 1c ef bd 18 48 be be 8e f2 ae be
       -0.062091842 -0.11675364 -0.37164378 -0.3416943
000100 c4 3b 65 be f7 12 58 3e 05 d4 5a 3d a4 34 ab be
       -0.2238608 0.21100985 0.053424854 -0.334386
000110 20 e4 36 3e 38 40 15 3e ea e3 b7 be 94 76 4e be
       0.1786046 0.14575279 -0.35916072 -0.20162421
000120 d4 75 8d 3e 82 94 b6 be e7 bf 6f be 5e 6c be be
       0.27628958 -0.35660177 -0.23413049 -0.37192053
000130 32 31 95 3e 57 6e 18 bc ae 45 cd 3d 4d 4b c5 be
       0.29139096 -0.009303651 0.10023056 -0.38534012
000140 4a 49 b9 be 64 2b 96 bd f4 6c ad 3e 25 f6 bc be
       -0.36188728 -0.07332495 0.33872187 -0.36906543
000150 db 71 7a 3d 56 ee 5f be c6 6d 59 be bd 85 83 3e
       0.061143737 -0.21868262 -0.21233281 0.25687972
000160 a9 d1 bd bd 42 09 93 be 2a ae 8c be d6 aa 78 3d
       -0.09268505 -0.28718 -0.27476627 0.060709797
000170 12 57 ac 3e 3c 4a 29 be 0a d7 b3 3e cc 75 9e be
       0.3366018 -0.16532224 0.35125 -0.30949247
000180 6b b8 00 be 3e 69 2d 3d 71 1b 76 3e 4a 9d c3 be
       -0.1257035 0.042336695 0.24033906 -0.3820594
000190 b7 b9 3a be 4c ca bd 3e ee 0a 66 3c f6 d2 95 be
       -0.18234907 0.37068403 0.014040692 -0.29262513
0001a0 af f8 2f 3e 2f e5 18 be 42 54 97 be 3b 1c 93 3e
       0.17184709 -0.14931177 -0.2955647 0.28732476
0001b0 fa 0c b2 bd 6e ee b9 3e 8a 52 88 3e b3 9f 9f be
       -0.08693881 0.3631472 0.26625472 -0.31176528
0001c0 d9 d7 5d be b9 ac e0 3d 89 fb 46 3e a7 18 b2 3e
       -0.2166437 0.10970444 0.1943189 0.34784433
0001d0 6a 6f 17 3e d0 6d 79 be c8 fb fe 3d de 5b 08 bd
       0.14788595 -0.24358296 0.12450367 -0.033290736
0001e0 39 87 d5 3d 19 dd 29 3e b6 14 16 3e 26 d4 ae be
       0.10426182 0.16588248 0.14656338 -0.3414623
0001f0 29 c1 b2 be 62 62 59 3e 6a 67 5b 3c e2 75 76 3e
       -0.34912995 0.21228936 0.013391355 0.24068406
000200 c8 1e a3 3e 38 17 a6 bd ee 9e 18 be 8d 3e b7 3e
       0.31859422 -0.081098974 -0.14904377 0.3578991
000210 cf 92 47 be b8 bf 0b 3e b1 2a 88 3e a5 6f 06 be
       -0.19489597 0.13647354 0.2659507 -0.13128527
000220 53 6d 03 be 32 64 3f 3d 94 bf f6 3d 31 7a 12 be
       -0.12834673 0.046726413 0.120482594 -0.14304425
000230 aa f1 5e 3d b6 5c ce bc ca 2b a0 be 2f e2 33 3d
       0.054429688 -0.025190692 -0.31283408 0.043916877
000240 a2 a2 b0 be 94 af b5 be 86 4f 99 3d b9 ee d5 3c
       -0.3449908 -0.35485518 0.07485871 0.026114808
000250 1d 09 45 3e 02 49 95 bc 44 5a 93 3c 6f 1b b1 be
       0.19241758 -0.01822329 0.017987378 -0.34591243
000260 ca 81 a4 be 4b 39 8b 3e bf 43 51 be 86 9a 38 be
       -0.3213027 0.2719215 -0.20436 -0.18027696
000270 28 31 81 3e f3 08 75 be 55 b7 9c be ec aa b8 be
       0.25232816 -0.23929195 -0.3060862 -0.36067903
000280 a1 a5 17 be 09 e3 23 3e 8e b6 a4 3d 3d 01 6b 3e
       -0.14809276 0.16004576 0.08042632 0.22949691
000290 a7 b6 a1 be 38 18 72 be 57 e2 06 3e 31 c4 2b be
       -0.31584665 -0.23642051 0.1317228 -0.1677406
0002a0 75 8d 5d be f3 53 b0 3d 86 87 15 3e ee 23 59 3e
       -0.21635993 0.08609762 0.1460248 0.21205112
0002b0 63 0d b5 3e 86 6f b0 3e ce e8 57 be 7f e8 0b be
       0.35361776 0.34460086 -0.21084902 -0.13662909
0002c0 31 0b 9d bd 74 bd a1 3d 6a a8 80 3d 43 aa 44 be
       -0.0766815 0.078974634 0.062821224 -0.19205575
0002d0 d8 71 0b 3d d9 c0 6f 3e 2a 4e 64 3e 3a e3 8d be
       0.034044117 0.2341341 0.22295442 -0.27712423
0002e0 9d 92 49 3e fc c6 07 3e 38 71 9b 3a fe 6c 8d 3e
       0.19684835 0.132595 0.0011859303 0.27622217
0002f0 9d 6f a4 bd fd 0e 10 3e 17 55 f3 3d 3e 95 65 3e
       -0.08029101 0.14068218 0.11881464 0.22420213
000300 e7 4c c4 be c8 b1 da bc 0c f6 b3 bb fe 00 a5 bd
       -0.38339922 -0.0266961 -0.0054919776 -0.0805683
000310 02 32 73 be 92 60 20 be 5c 40 47 3d f9 94 1c bd
       -0.23749545 -0.15661839 0.048645362 -0.03822801
000320 34 35 24 be 15 ad 9b 3d 36 b9 a6 3e b1 bc 18 3d
       -0.1603592 0.07601372 0.3256318 0.037289325
000330 a0 11 4d be 97 57 a5 3e 9b 0e 07 3e 68 c7 e2 bd
       -0.20026255 0.32293388 0.13189165 -0.1107319
000340 53 7e ec 3c e2 08 96 3e 50 6c ac 3e 5d 86 26 3e
       0.02886883 0.29303652 0.33676386 0.16262193
000350 1c c8 08 be 22 e4 74 be 1f 53 18 be 80 52 96 bd
       -0.13357586 -0.23915151 -0.14875458 -0.073399544
000360 a2 64 29 3e e2 c0 b1 3e 2d 06 74 3e 17 1b 79 3a
       0.16542295 0.3471747 0.23830481 0.0009502633
000370 0f 36 55 3c 2a a1 81 bd ae cc 70 bd ce 9c 7d be
       0.013013377 -0.06329568 -0.058788948 -0.24766847
000380 ba b5 24 3d 46 b2 c2 3e 7f ab 6f be 63 a9 97 bd
       0.04021237 0.38026637 -0.23405264 -0.07405355
000390 eb de 14 be dd c3 be 3c 59 f7 4d 3e 64 b8 5f be
       -0.14538161 0.023286754 0.20113887 -0.21847683
0003a0 a5 c2 76 3e a4 3b a7 3d e5 e5 74 3e f7 07 cf bd
       0.24097688 0.081656724 0.23915823 -0.10108941
0003b0 b4 fe 89 be 56 33 a1 3d 08 ec 14 3d 5e 37 02 3e
       -0.26952136 0.0787112 0.03635791 0.12716433
0003c0 d1 5f 0d 3e ed 7c a1 bc ed 1e 8a be 13 ae c0 be
       0.13806082 -0.01971289 -0.2697672 -0.37632808
0003d0 4f 3d 02 be 07 97 4a 3c c1 b0 af bd c5 14 c5 3e
       -0.127187 0.012365109 -0.08578635 0.38492408
0003e0 4c 61 df bd 56 e4 bd be 3c 51 82 3e 1f 0d f1 bd
       -0.1090723 -0.3708827 0.25452602 -0.11770081
0003f0 d5 b4 29 be bb b5 ae be 87 88 eb 3d 0b 89 c0 3e
       -0.16572888 -0.34123024 0.1150065 0.37604555

blocks.0.mlp.fc2.bias f4 [8]
000000 4c 74 12 3a 85 f5 2a 3b 0e 03 bf 3a a2 eb bc 3a
       0.00055867876 0.0026086282 0.0014573054 0.0014413486
000010 80 2e b2 ba 9b 07 aa 3a e9 cb 89 ba f4 e5 d2 ba
       -0.001359418 0.0012972237 -0.001051304 -0.001609026

blocks.1.norm1.weight f4 [8]
000000 9b 35 7f 3f ae 11 7f 3f 82 07 80 3f d0 70 7f 3f
       0.9969117 0.9963635 1.0002291 0.99781513
000010 16 04 80 3f 50 bd 7e 3f 0f bb 7f 3f 03 08 80 3f
       1.0001247 0.9950762 0.99894804 1.0002445

blocks.1.norm1.bias f4 [8]
000000 5e 02 c4 3a ac 9a 26 3b 40 10 93 3a a1 d7 89 ba
       0.0014954319 0.0025421781 0.0011220053 -0.0010516533
000010 02 21 c8 ba 30 cb 13 3b 9c a7 67 b8 ff f0 b2 ba
       -0.0015268626 0.002255153 -5.523079e-05 -0.0013652145

blocks.1.attn.qkv.weight f4 [24, 8]
000000 5e e9 aa 3d 65 8f 70 be 4b e1 b2 3e a1 58 4c be
       0.083452925 -0.234922 0.3493751 -0.19955684
000010 81 1e 1f be 96 e6 d9 3d d1 47 ac be 95 3d 7d 3e
       -0.1553898 0.10639684 -0.33648542 0.24730523
000020 b3 2e a6 3e 54 0e 3d be 1f 3c b8 be 8a ec 28 be
       0.32457504 -0.18462497 -0.3598337 -0.16496482
000030 26 aa dd 3e 10 29 69 3e 79 66 81 3e a8 05 1e be
       0.43293875 0.2276957 0.25273493 -0.15431845
000040 ab c1 8f bb b7 1c 6e 3e ab 13 b5 3e fd 70 ad 3e
       -0.0043871007 0.23253141 0.35366568 0.33875266
000050 e8 14 8c be 0e 3d b2 bd a9 c4 83 be 81 b5 ad be
       -0.273597 -0.087030515 -0.25735977 -0.3392754
000060 ac 47 01 be af d5 1e 3e 0b 25 b3 be 78 6c d1 3d
       -0.12624997 0.15511201 -0.349892 0.10225767
000070 76 6c 74 3d 3f 37 68 3e 58 c1 67 be 99 8e 0f 3e
       0.05967375 0.22677325 -0.22632349 0.1401924
000080 58 d0 b4 be 77 ee ce 3e 2f 74 e5 3d a6 00 cf 3d
       -0.35315204 0.4041631 0.11203801 0.101075456
000090 8a 2d 35 be 96 e0 03 3e ba 1a ed 3d bc 8c f0 3d
       -0.17693153 0.12878641 0.11577363 0.11745593
0000a0 14 aa c6 be 18 34 75 3c 6d 73 c6 3d d7 fc 04 3d
       -0.38801634 0.014966033 0.096899845 0.03246769
0000b0 52 72 45 3d 9f fd 5b be 89 34 8d 3d f7 00 ce 3e
       0.048204727 -0.21483468 0.06894786 0.4023511
0000c0 d0 04 b8 bd da a7 8c be 9a 5c ff bd 54 35 cd 3e
       -0.08985293 -0.2747181 -0.12468834 0.4007975
0000d0 e3 21 d7 be 8e 16 97 3d 65 bd ce be da 1d 97 3e
       -0.4201804 0.07377349 -0.40378872 0.29514962
0000e0 7a 44 ac 3e f7 ef 94 3e 79 db a7 be 33 c3 87 be
       0.33645993 0.2908933 -0.32784632 -0.26516113
0000f0 21 ef be 3e b5 27 2b 3e 61 6b da 3e 0e 15 05 bd
       0.37291816 0.16714366 0.4266005 -0.032490782
000100 c1 ef 3b 3e dc ff 61 3e cf f4 dc 3e 60 b9 a5 be
       0.18353178 0.22070259 0.43155524 -0.32367992
000110 25 75 1e be 61 5a 29 bd 66 a2 b1 3d c6 78 31 3d
       -0.15474375 -0.041345958 0.08673553 0.04332807
000120 61 7d 7b be ca 60 2f be f7 ea 20 be 5e 63 9d 3e
       -0.24559547 -0.17126766 -0.15714632 0.30739874
000130 9d c2 9f bd ed 57 b1 3e 6f 91 fa bd ad af 3b 3d
       -0.078007914 0.34637395 -0.122347705 0.045821834
000140 17 f0 72 be 9a 0f a8 3e db ee b6 bd 6c 36 82 be
       -0.237244 0.32824403 -0.08932277 -0.25432146
000150 1c 4d 9e be 0b 12 6a 3e 1a 4a 50 3c 0a f7 6b be
       -0.30918205 0.22858445 0.01271298 -0.23043457
000160 85 25 dd 3d 0b bb 9f 3e 2a 13 0e 3e 5d 6f 2e be
       0.10798172 0.3119739 0.13874498 -0.17034669
000170 08 72 91 3e 4f 7f 4b be af 38 b0 3e 47 46 d4 be
       0.2840731 -0.19872783 0.34418246 -0.41459867
000180 74 5f 98 be 4d 39 4f 3d c1 72 b0 bd 12 7f d1 3e
       -0.29760325 0.050591756 -0.086156376 0.4091726
000190 39 02 41 3e 7d 62 b7 bd 43 42 af be 03 79 bf be
       0.18848504 -0.08954332 -0.3423024 -0.37397012
0001a0 22 c2 d8 3d a9 4c c5 bd 28 d4 89 3e a7 60 fb bc
       0.10583903 -0.096337624 0.26919675 -0.030685736
0001b0 24 c6 18 bd f7 1b cc 3d 7a b8 4b 3e e7 83 b2 3e
       -0.037298337 0.09966271 0.19894591 0.34866259
0001c0 61 ce 05 3e 38 72 d8 3c f4 c2 bb 3e 61 40 91 3e
       0.13067009 0.026421651 0.36672175 0.2836943
0001d0 22 6b 9e 3e 2f 89 bb 3e b9 82 85 3e 97 b2 79 3d
       0.3094111 0.366281 0.26076296 0.060961332
0001e0 05 4e 5f 3e a2 44 f5 3d 4d d3 64 be 1d 92 e1 bd
       0.21807106 0.11975981 -0.2234623 -0.11014197
0001f0 5d b7 8b 3e 1d f2 d1 be 7a 00 6c 3d d3 af 7c 3e
       0.27288333 -0.4100503 0.057617642 0.24676447
000200 12 e8 7b 3e 08 a4 41 be 3d b5 a0 3e 69 7e 85 bc
       0.24600247 -0.18910229 0.31388274 -0.016295629
000210 51 a2 9d 3e 6d cb b7 be d7 b7 99 bd 83 dd ce be
       0.307879 -0.3589739 -0.07505768 -0.40403375
000220 8b d0 6d be cf 6b 9e be 72 36 7b 3d 9b dc 13 3e
       -0.23224084 -0.30941626 0.06133122 0.14439623
000230 06 52 e9 3c 8a 8f b8 be 99 d9 03 be c0 3c b1 bd
       0.028481495 -0.36047012 -0.12875976 -0.08654165
000240 a3 fa 74 bc aa 2f 5f 3d 84 78 2f be 32 a6 6a be
       -0.014952335 0.054488815 -0.17135817 -0.22914961
000250 c3 a4 94 be 38 60 f6 3d b6 41 4d 3e 6a bf 89 3e
       -0.29031953 0.12030071 0.20044598 0.2690385
000260 39 bd 91 be dc db 90 be 81 03 92 3d 0e f9 84 3c
       -0.28464678 -0.2829274 0.071295746 0.01623204
000270 02 a4 7d 3e 26 dc b3 3c 3e 4e bd 3e 82 c2 9a 3e
       0.24769595 0.02195556 0.36973757 0.30226523
000280 ae c0 80 be e0 17 5f 3e 4b 66 2e be b1 7b 87 bb
       -0.25147003 0.21786451 -0.17031209 -0.004134618
000290 be 54 d5 bc 5c 41 22 be 20 ce db be b1 f1 66 3e
       -0.026041385 -0.15845245 -0.42930698 0.22553135
0002a0 3f b0 98 3e 6c 47 93 3e a2 36 cb be 80 f3 0d bc
       0.29821965 0.28765428 -0.3969012 -0.008664012
0002b0 b0 b0 c4 3e db 19 cd be d0 3c 29 3d 7c 8d be be
       0.38416052 -0.4005879 0.04131776 -0.3721732
0002c0 f7 0a c9 bc 0f 23 c3 3e 77 3f 49 3d e1 a8 d2 3e
       -0.024541361 0.38112685 0.04913279 0.4114447
0002d0 fe 81 cd bd 2a 68 a1 be 8b da fc 3b b4 44 bc be
       -0.1003456 -0.31524783 0.007716482 -0.36771166
0002e0 80 49 a1 be e6 89 ad 3d 7e 7c a7 be 9a 57 76 bc
       -0.3150139 0.08473568 -0.32712168 -0.015035534
0002f0 0f d9 85 3e f9 e6 99 bd fc 84 03 3e c7 b8 89 3e
       0.26142165 -0.07514758 0.12843698 0.26898786

blocks.1.attn.qkv.bias f4 [24]
000000 b8 4b 3d 38 b1 eb 52 ba d1 41 5c 3a 80 e8 2c ba
       4.513163e-05 -0.0008045985 0.00084021414 -0.00065959245
000010 2f df 12 ba 7d 70 f5 3a 78 37 41 3a 1f 15 57 b9
       -0.0005602715 0.0018725541 0.0007370631 -0.00020511866
000020 5e 12 ec b7 95 f7 ac 35 ab 8c e4 37 d6 d2 73 b9
       -2.8141945e-05 1.2887054e-06 2.7245222e-05 -0.00023252828
000030 59 cf ee 35 91 1a 1c 36 16 af 48 b7 be b5 2f b8
       1.7792728e-06 2.3261275e-06 -1.1961694e-05 -4.1892512e-05
000040 bd dc 01 3a bb 59 e3 ba 84 66 da 3a 7c 5a cd ba
       0.0004953852 -0.0017345467 0.0016662632 -0.0015667225
000050 e1 39 48 bb 5a 64 bd ba 9a 65 0b 3b d8 f9 5d ba
       -0.0030552077 -0.0014449463 0.0021270276 -0.00084677106
