configs/experiment/best_MNIST_MAE.pth (torch, 105087 bytes, 158 tensors)

cls_token f4 [1, 1, 8]
-0.019777173 -0.008253159 0.022912947 -0.0021157935 0.015312039 -0.015159053 -0.038797088 0.010902673
00000000: bd03 a2bc 4238 07bc efb3 bb3c 20a9 0abb
00000010: 59df 7a3c ad5d 78bc b2e9 1ebd 20a1 323c

pos_embed f4 [1, 50, 8]
0.0 0.0 0.0 0.0 0.0 0.0 0.0 0.0
0.0 0.0 1.0 1.0 0.0 0.0 1.0 1.0
0.84147096 0.009999833 0.5403023 0.99995 0.0 0.0 1.0 1.0
0.9092974 0.019998666 -0.41614684 0.9998 0.0 0.0 1.0 1.0
0.14112 0.029995501 -0.9899925 0.99955004 0.0 0.0 1.0 1.0
-0.7568025 0.039989334 -0.6536436 0.9992001 0.0 0.0 1.0 1.0
-0.9589243 0.04997917 0.2836622 0.99875027 0.0 0.0 1.0 1.0
-0.2794155 0.059964005 0.96017027 0.99820054 0.0 0.0 1.0 1.0
0.0 0.0 1.0 1.0 0.84147096 0.009999833 0.5403023 0.99995
0.84147096 0.009999833 0.5403023 0.99995 0.84147096 0.009999833 0.5403023 0.99995
0.9092974 0.019998666 -0.41614684 0.9998 0.84147096 0.009999833 0.5403023 0.99995
0.14112 0.029995501 -0.9899925 0.99955004 0.84147096 0.009999833 0.5403023 0.99995
-0.7568025 0.039989334 -0.6536436 0.9992001 0.84147096 0.009999833 0.5403023 0.99995
-0.9589243 0.04997917 0.2836622 0.99875027 0.84147096 0.009999833 0.5403023 0.99995
-0.2794155 0.059964005 0.96017027 0.99820054 0.84147096 0.009999833 0.5403023 0.99995
0.0 0.0 1.0 1.0 0.9092974 0.019998666 -0.41614684 0.9998
0.84147096 0.009999833 0.5403023 0.99995 0.9092974 0.019998666 -0.41614684 0.9998
0.9092974 0.019998666 -0.41614684 0.9998 0.9092974 0.019998666 -0.41614684 0.9998
0.14112 0.029995501 -0.9899925 0.99955004 0.9092974 0.019998666 -0.41614684 0.9998
-0.7568025 0.039989334 -0.6536436 0.9992001 0.9092974 0.019998666 -0.41614684 0.9998
-0.9589243 0.04997917 0.2836622 0.99875027 0.9092974 0.019998666 -0.41614684 0.9998
-0.2794155 0.059964005 0.96017027 0.99820054 0.9092974 0.019998666 -0.41614684 0.9998
0.0 0.0 1.0 1.0 0.14112 0.029995501 -0.9899925 0.99955004
0.84147096 0.009999833 0.5403023 0.99995 0.14112 0.029995501 -0.9899925 0.99955004
0.9092974 0.019998666 -0.41614684 0.9998 0.14112 0.029995501 -0.9899925 0.99955004
0.14112 0.029995501 -0.9899925 0.99955004 0.14112 0.029995501 -0.9899925 0.99955004
-0.7568025 0.039989334 -0.6536436 0.9992001 0.14112 0.029995501 -0.9899925 0.99955004
-0.9589243 0.04997917 0.2836622 0.99875027 0.14112 0.029995501 -0.9899925 0.99955004
-0.2794155 0.059964005 0.96017027 0.99820054 0.14112 0.029995501 -0.9899925 0.99955004
0.0 0.0 1.0 1.0 -0.7568025 0.039989334 -0.6536436 0.9992001
0.84147096 0.009999833 0.5403023 0.99995 -0.7568025 0.039989334 -0.6536436 0.9992001
0.9092974 0.019998666 -0.41614684 0.9998 -0.7568025 0.039989334 -0.6536436 0.9992001
00000000: 0000 0000 0000 0000 0000 0000 0000 0000
00000010: 0000 0000 0000 0000 0000 0000 0000 0000
00000020: 0000 0000 0000 0000 0000 803f 0000 803f
00000030: 0000 0000 0000 0000 0000 803f 0000 803f
00000040: a46a 573f 57d6 233c 4051 0a3f b9fc 7f3f
00000050: 0000 0000 0000 0000 0000 803f 0000 803f
00000060: b7c7 683f 3ed4 a33c 3311 d5be e5f2 7f3f
00000070: 0000 0000 0000 0000 0000 803f 0000 803f
00000080: c381 103e 20b9 f53c 2670 7dbf 83e2 7f3f
00000090: 0000 0000 0000 0000 0000 803f 0000 803f
000000a0: cfbd 41bf dbcb 233d 3055 27bf 94cb 7f3f
000000b0: 0000 0000 0000 0000 0000 803f 0000 803f
000000c0: 107c 75bf f5b6 4c3d 2c3c 913e 19ae 7f3f
000000d0: 0000 0000 0000 0000 0000 803f 0000 803f
000000e0: 8c0f 8fbe d19c 753d b8cd 753f 128a 7f3f
000000f0: 0000 0000 0000 0000 0000 803f 0000 803f
00000100: 0000 0000 0000 0000 0000 803f 0000 803f
00000110: a46a 573f 57d6 233c 4051 0a3f b9fc 7f3f
00000120: a46a 573f 57d6 233c 4051 0a3f b9fc 7f3f
00000130: a46a 573f 57d6 233c 4051 0a3f b9fc 7f3f
00000140: b7c7 683f 3ed4 a33c 3311 d5be e5f2 7f3f
00000150: a46a 573f 57d6 233c 4051 0a3f b9fc 7f3f
00000160: c381 103e 20b9 f53c 2670 7dbf 83e2 7f3f
00000170: a46a 573f 57d6 233c 4051 0a3f b9fc 7f3f
00000180: cfbd 41bf dbcb 233d 3055 27bf 94cb 7f3f
00000190: a46a 573f 57d6 233c 4051 0a3f b9fc 7f3f
000001a0: 107c 75bf f5b6 4c3d 2c3c 913e 19ae 7f3f
000001b0: a46a 573f 57d6 233c 4051 0a3f b9fc 7f3f
000001c0: 8c0f 8fbe d19c 753d b8cd 753f 128a 7f3f
000001d0: a46a 573f 57d6 233c 4051 0a3f b9fc 7f3f
000001e0: 0000 0000 0000 0000 0000 803f 0000 803f
000001f0: b7c7 683f 3ed4 a33c 3311 d5be e5f2 7f3f
00000200: a46a 573f 57d6 233c 4051 0a3f b9fc 7f3f
00000210: b7c7 683f 3ed4 a33c 3311 d5be e5f2 7f3f
00000220: b7c7 683f 3ed4 a33c 3311 d5be e5f2 7f3f
00000230: b7c7 683f 3ed4 a33c 3311 d5be e5f2 7f3f
00000240: c381 103e 20b9 f53c 2670 7dbf 83e2 7f3f
00000250: b7c7 683f 3ed4 a33c 3311 d5be e5f2 7f3f
00000260: cfbd 41bf dbcb 233d 3055 27bf 94cb 7f3f
00000270: b7c7 683f 3ed4 a33c 3311 d5be e5f2 7f3f
00000280: 107c 75bf f5b6 4c3d 2c3c 913e 19ae 7f3f
00000290: b7c7 683f 3ed4 a33c 3311 d5be e5f2 7f3f
000002a0: 8c0f 8fbe d19c 753d b8cd 753f 128a 7f3f
000002b0: b7c7 683f 3ed4 a33c 3311 d5be e5f2 7f3f
000002c0: 0000 0000 0000 0000 0000 803f 0000 803f
000002d0: c381 103e 20b9 f53c 2670 7dbf 83e2 7f3f
000002e0: a46a 573f 57d6 233c 4051 0a3f b9fc 7f3f
000002f0: c381 103e 20b9 f53c 2670 7dbf 83e2 7f3f
00000300: b7c7 683f 3ed4 a33c 3311 d5be e5f2 7f3f
00000310: c381 103e 20b9 f53c 2670 7dbf 83e2 7f3f
00000320: c381 103e 20b9 f53c 2670 7dbf 83e2 7f3f
00000330: c381 103e 20b9 f53c 2670 7dbf 83e2 7f3f
00000340: cfbd 41bf dbcb 233d 3055 27bf 94cb 7f3f
00000350: c381 103e 20b9 f53c 2670 7dbf 83e2 7f3f
00000360: 107c 75bf f5b6 4c3d 2c3c 913e 19ae 7f3f
00000370: c381 103e 20b9 f53c 2670 7dbf 83e2 7f3f
00000380: 8c0f 8fbe d19c 753d b8cd 753f 128a 7f3f
00000390: c381 103e 20b9 f53c 2670 7dbf 83e2 7f3f
000003a0: 0000 0000 0000 0000 0000 803f 0000 803f
000003b0: cfbd 41bf dbcb 233d 3055 27bf 94cb 7f3f
000003c0: a46a 573f 57d6 233c 4051 0a3f b9fc 7f3f
000003d0: cfbd 41bf dbcb 233d 3055 27bf 94cb 7f3f
000003e0: b7c7 683f 3ed4 a33c 3311 d5be e5f2 7f3f
000003f0: cfbd 41bf dbcb 233d 3055 27bf 94cb 7f3f

mask_token f4 [1, 1, 8]
0.099086165 -0.00048531688 -0.023003263 -0.02080514 -0.0441941 -0.007343016 0.020119462 -0.0010700447
00000000: b0ed ca3d 2172 feb9 5771 bcbc 8a6f aabc
00000010: df04 35bd af9d f0bb 92d1 a43c be40 8cba

decoder_pos_embed f4 [1, 50, 8]
0.0 0.0 0.0 0.0 0.0 0.0 0.0 0.0
0.0 0.0 1.0 1.0 0.0 0.0 1.0 1.0
0.84147096 0.009999833 0.5403023 0.99995 0.0 0.0 1.0 1.0
0.9092974 0.019998666 -0.41614684 0.9998 0.0 0.0 1.0 1.0
0.14112 0.029995501 -0.9899925 0.99955004 0.0 0.0 1.0 1.0
-0.7568025 0.039989334 -0.6536436 0.9992001 0.0 0.0 1.0 1.0
-0.9589243 0.04997917 0.2836622 0.99875027 0.0 0.0 1.0 1.0
-0.2794155 0.059964005 0.96017027 0.99820054 0.0 0.0 1.0 1.0
0.0 0.0 1.0 1.0 0.84147096 0.009999833 0.5403023 0.99995
0.84147096 0.009999833 0.5403023 0.99995 0.84147096 0.009999833 0.5403023 0.99995
0.9092974 0.019998666 -0.41614684 0.9998 0.84147096 0.009999833 0.5403023 0.99995
0.14112 0.029995501 -0.9899925 0.99955004 0.84147096 0.009999833 0.5403023 0.99995
-0.7568025 0.039989334 -0.6536436 0.9992001 0.84147096 0.009999833 0.5403023 0.99995
-0.9589243 0.04997917 0.2836622 0.99875027 0.84147096 0.009999833 0.5403023 0.99995
-0.2794155 0.059964005 0.96017027 0.99820054 0.84147096 0.009999833 0.5403023 0.99995
0.0 0.0 1.0 1.0 0.9092974 0.019998666 -0.41614684 0.9998
0.84147096 0.009999833 0.5403023 0.99995 0.9092974 0.019998666 -0.41614684 0.9998
0.9092974 0.019998666 -0.41614684 0.9998 0.9092974 0.019998666 -0.41614684 0.9998
0.14112 0.029995501 -0.9899925 0.99955004 0.9092974 0.019998666 -0.41614684 0.9998
-0.7568025 0.039989334 -0.6536436 0.9992001 0.9092974 0.019998666 -0.41614684 0.9998
-0.9589243 0.04997917 0.2836622 0.99875027 0.9092974 0.019998666 -0.41614684 0.9998
-0.2794155 0.059964005 0.96017027 0.99820054 0.9092974 0.019998666 -0.41614684 0.9998
0.0 0.0 1.0 1.0 0.14112 0.029995501 -0.9899925 0.99955004
0.84147096 0.009999833 0.5403023 0.99995 0.14112 0.029995501 -0.9899925 0.99955004
0.9092974 0.019998666 -0.41614684 0.9998 0.14112 0.029995501 -0.9899925 0.99955004
0.14112 0.029995501 -0.9899925 0.99955004 0.14112 0.029995501 -0.9899925 0.99955004
-0.7568025 0.039989334 -0.6536436 0.9992001 0.14112 0.029995501 -0.9899925 0.99955004
-0.9589243 0.04997917 0.2836622 0.99875027 0.14112 0.029995501 -0.9899925 0.99955004
-0.2794155 0.059964005 0.96017027 0.99820054 0.14112 0.029995501 -0.9899925 0.99955004
0.0 0.0 1.0 1.0 -0.7568025 0.039989334 -0.6536436 0.9992001
0.84147096 0.009999833 0.5403023 0.99995 -0.7568025 0.039989334 -0.6536436 0.9992001
0.9092974 0.019998666 -0.41614684 0.9998 -0.7568025 0.039989334 -0.6536436 0.9992001
00000000: 0000 0000 0000 0000 0000 0000 0000 0000
00000010: 0000 0000 0000 0000 0000 0000 0000 0000
00000020: 0000 0000 0000 0000 0000 803f 0000 803f
00000030: 0000 0000 0000 0000 0000 803f 0000 803f
00000040: a46a 573f 57d6 233c 4051 0a3f b9fc 7f3f
00000050: 0000 0000 0000 0000 0000 803f 0000 803f
00000060: b7c7 683f 3ed4 a33c 3311 d5be e5f2 7f3f
00000070: 0000 0000 0000 0000 0000 803f 0000 803f
00000080: c381 103e 20b9 f53c 2670 7dbf 83e2 7f3f
00000090: 0000 0000 0000 0000 0000 803f 0000 803f
000000a0: cfbd 41bf dbcb 233d 3055 27bf 94cb 7f3f
000000b0: 0000 0000 0000 0000 0000 803f 0000 803f
000000c0: 107c 75bf f5b6 4c3d 2c3c 913e 19ae 7f3f
000000d0: 0000 0000 0000 0000 0000 803f 0000 803f
000000e0: 8c0f 8fbe d19c 753d b8cd 753f 128a 7f3f
000000f0: 0000 0000 0000 0000 0000 803f 0000 803f
00000100: 0000 0000 0000 0000 0000 803f 0000 803f
00000110: a46a 573f 57d6 233c 4051 0a3f b9fc 7f3f
00000120: a46a 573f 57d6 233c 4051 0a3f b9fc 7f3f
00000130: a46a 573f 57d6 233c 4051 0a3f b9fc 7f3f
00000140: b7c7 683f 3ed4 a33c 3311 d5be e5f2 7f3f
00000150: a46a 573f 57d6 233c 4051 0a3f b9fc 7f3f
00000160: c381 103e 20b9 f53c 2670 7dbf 83e2 7f3f
00000170: a46a 573f 57d6 233c 4051 0a3f b9fc 7f3f
00000180: cfbd 41bf dbcb 233d 3055 27bf 94cb 7f3f
00000190: a46a 573f 57d6 233c 4051 0a3f b9fc 7f3f
000001a0: 107c 75bf f5b6 4c3d 2c3c 913e 19ae 7f3f
000001b0: a46a 573f 57d6 233c 4051 0a3f b9fc 7f3f
000001c0: 8c0f 8fbe d19c 753d b8cd 753f 128a 7f3f
000001d0: a46a 573f 57d6 233c 4051 0a3f b9fc 7f3f
000001e0: 0000 0000 0000 0000 0000 803f 0000 803f
000001f0: b7c7 683f 3ed4 a33c 3311 d5be e5f2 7f3f
00000200: a46a 573f 57d6 233c 4051 0a3f b9fc 7f3f
00000210: b7c7 683f 3ed4 a33c 3311 d5be e5f2 7f3f
00000220: b7c7 683f 3ed4 a33c 3311 d5be e5f2 7f3f
00000230: b7c7 683f 3ed4 a33c 3311 d5be e5f2 7f3f
00000240: c381 103e 20b9 f53c 2670 7dbf 83e2 7f3f
00000250: b7c7 683f 3ed4 a33c 3311 d5be e5f2 7f3f
00000260: cfbd 41bf dbcb 233d 3055 27bf 94cb 7f3f
00000270: b7c7 683f 3ed4 a33c 3311 d5be e5f2 7f3f
00000280: 107c 75bf f5b6 4c3d 2c3c 913e 19ae 7f3f
00000290: b7c7 683f 3ed4 a33c 3311 d5be e5f2 7f3f
000002a0: 8c0f 8fbe d19c 753d b8cd 753f 128a 7f3f
000002b0: b7c7 683f 3ed4 a33c 3311 d5be e5f2 7f3f
000002c0: 0000 0000 0000 0000 0000 803f 0000 803f
000002d0: c381 103e 20b9 f53c 2670 7dbf 83e2 7f3f
000002e0: a46a 573f 57d6 233c 4051 0a3f b9fc 7f3f
000002f0: c381 103e 20b9 f53c 2670 7dbf 83e2 7f3f
00000300: b7c7 683f 3ed4 a33c 3311 d5be e5f2 7f3f
00000310: c381 103e 20b9 f53c 2670 7dbf 83e2 7f3f
00000320: c381 103e 20b9 f53c 2670 7dbf 83e2 7f3f
00000330: c381 103e 20b9 f53c 2670 7dbf 83e2 7f3f
00000340: cfbd 41bf dbcb 233d 3055 27bf 94cb 7f3f
00000350: c381 103e 20b9 f53c 2670 7dbf 83e2 7f3f
00000360: 107c 75bf f5b6 4c3d 2c3c 913e 19ae 7f3f
00000370: c381 103e 20b9 f53c 2670 7dbf 83e2 7f3f
00000380: 8c0f 8fbe d19c 753d b8cd 753f 128a 7f3f
00000390: c381 103e 20b9 f53c 2670 7dbf 83e2 7f3f
000003a0: 0000 0000 0000 0000 0000 803f 0000 803f
000003b0: cfbd 41bf dbcb 233d 3055 27bf 94cb 7f3f
000003c0: a46a 573f 57d6 233c 4051 0a3f b9fc 7f3f
000003d0: cfbd 41bf dbcb 233d 3055 27bf 94cb 7f3f
000003e0: b7c7 683f 3ed4 a33c 3311 d5be e5f2 7f3f
000003f0: cfbd 41bf dbcb 233d 3055 27bf 94cb 7f3f

patch_embed.proj.weight f4 [8, 1, 4, 4]
0.05289161 -0.012427371 -0.12734951 0.16216604 0.5263894 0.3753593 0.1009062 -0.21195933
-0.00972537 0.28652975 -0.27833328 0.2929702 0.14286497 -0.16588958 -0.090801895 0.10419362
0.4926211 -0.15435065 0.18184434 -0.253461 -0.15552078 -0.27292678 -0.4734787 -0.0727946
0.06670159 -0.30007288 0.028159034 0.142211 0.25270203 0.08144646 0.018420607 0.056525256
-0.13789618 0.21720092 0.3298169 0.2841417 -0.044016067 0.0781388 -0.19216293 0.23087794
-0.43774402 0.27374345 -0.24200596 -0.45582438 -0.3175846 -0.3170177 -0.3146984 -0.3554238
0.3534588 0.102244265 0.27910224 0.3645931 -0.09149366 -0.07318785 0.07443431 -0.037013065
0.43181697 -0.0029884288 0.0837186 -0.10959956 -0.14746514 -0.25213897 -0.23917866 0.2464578
0.23628284 -0.292627 -0.14874628 -0.15197887 0.22199342 -0.42547756 -0.3566575 -0.27344328
-0.2940971 0.086858995 -0.3510964 -0.51063555 0.105811894 -0.13871492 0.11702652 -0.48052663
-0.61080635 -0.2841237 -0.23446503 -0.5061323 -0.24762265 -0.2285956 0.24230595 -0.010960477
0.1003724 0.24997738 -0.049166154 -0.3892129 -0.040360704 -0.21691123 0.23559068 -0.27766097
-0.1739967 -0.18542187 -0.2585416 -0.3643879 0.071845084 -0.03960576 0.20787528 -0.06170695
-0.44715735 0.04970621 -0.34536472 0.24272397 0.029094828 -0.09026236 -0.4328061 -0.06491526
-0.36567047 0.039290126 0.19046387 -0.26759052 -0.4504649 0.27210164 -0.4026564 -0.36567605
0.20081475 -0.4820537 -0.004145312 0.28368792 -0.05656041 0.14965512 0.029310904 -0.5097766
00000000: dfa4 583d 2c9c 4bbc e967 02be db0e 263e
00000010: 75c1 063f 182f c03e e9a7 ce3d de0b 59be
00000020: 2957 1fbc 07b4 923e b381 8ebe 3100 963e
00000030: 324b 123e f5de 29be 58f6 b9bd 7763 d53d
00000040: d538 fc3e 190e 1ebe 6735 3a3e a4c5 81be
00000050: d740 1fbe 0fbd 8bbe cd6b f2be 5615 95bd
00000060: d89a 883d 27a3 99be c6ad e63c c39f 113e
00000070: 2962 813e 67cd a63d d0e6 963c 0787 673d
00000080: a834 0dbe eb69 5e3e c3dd a83e 057b 913e
00000090: 314a 34bd 3c07 a03d 5cc6 44be 446b 6c3e
000000a0: fc1f e0be 1a28 8c3e 69d0 77be d061 e9be
000000b0: 739a a2be 2550 a2be 2620 a1be 1cfa b5be
000000c0: 8df8 b43e 7165 d13d 7de6 8e3e f2ab ba3e
000000d0: 0761 bbbd 83e3 95bd 0471 983d 039b 17bd
000000e0: 1d17 dd3e 84d9 43bb a874 ab3d bc75 e0bd
000000f0: 1a01 17be 5c18 81be 40eb 74be 6f5f 7c3e
00000100: 21f4 713e 35d3 95be f250 18be 59a0 1bbe
00000110: 3e52 633e 32d8 d9be d09b b6be c200 8cbe
00000120: e593 96be 21e3 b13d e8c2 b3be 03b9 02bf
00000130: e8b3 d83d 490b 0ebe 9aab ef3d 9607 f6be
00000140: ce5d 1cbf a978 91be 9a17 70be e391 01bf
00000150: cb90 7dbe f714 6abe 0d1f 783e 9393 33bc
00000160: 0b90 cd3d 12fa 7f3e 7362 49bd ea46 c7be
00000170: 4451 25bd fa1d 5ebe af3e 713e 9429 8ebe
00000180: 312c 32be 3bdf 3dbe 915f 84be 0d91 babe
00000190: 8423 933d a639 22bd 42dd 543e 6dc0 7cbd
000001a0: cff1 e4be bd98 4b3d a5d3 b0be a28c 783e
000001b0: 4758 ee3c 79db b8bd c398 ddbe 4bf2 84bd
000001c0: 2939 bbbe afee 203d f608 433e a001 89be
000001d0: 56a3 e6be e850 8b3e fb28 cebe e439 bbbe
000001e0: 62a2 4d3e becf f6be 66d5 87bb 8b3f 913e
000001f0: e3ab 67bd 313f 193e 6c1d f03c b880 02bf

patch_embed.proj.bias f4 [8]
-0.15989025 0.20730065 0.070442915 -0.1477064 0.20830365 0.10722534 -0.010814406 0.018577818
00000000: 45ba 23be 9f46 543e 6044 903d 5940 17be
00000010: 8d4d 553e f698 db3d e82e 31bc 8230 983c

blocks.0.norm1.weight f4 [8]
0.8871914 0.9508119 0.8618018 0.89472264 0.9016752 0.9737651 0.90820754 0.91554546
00000000: fa1e 633f 6968 733f 0b9f 5c3f 8b0c 653f
00000010: 30d4 663f ab48 793f 4a80 683f 3061 6a3f

blocks.0.norm1.bias f4 [8]
-0.015505125 -0.016973825 0.07239681 -0.02479384 0.03665032 -0.025918415 -0.050647754 0.0049369
00000000: 3509 7ebc b10c 8bbc c744 943d 731c cbbc
00000010: a51e 163d db52 d4bc 0574 4fbd b8c5 a13b

blocks.0.attn.qkv.weight f4 [24, 8]
-0.1362457 -0.15583588 -0.09279474 -0.31075627 0.10687729 0.25670695 0.07727732 0.30425352
-0.04690928 0.05094794 0.036493238 -0.32138517 -0.0749078 0.41186166 -0.3291995 -0.0889637
0.08589962 0.00086823583 -0.1474233 -0.14184879 -0.20987222 0.31287012 0.40964735 0.26989758
0.17019384 0.39753726 0.12591614 -0.061049357 0.21665381 0.05179076 0.42505434 -0.3793191
-0.10183078 -0.38882473 -0.17357603 -0.31234697 -0.022268431 -0.47030202 0.31367183 -0.07479621
-0.06321501 -0.11410716 -0.2666441 0.18885495 0.3422862 0.33590448 0.35838717 -0.2767446
0.22279148 0.2436583 -0.04148846 -0.0063403877 -0.24328198 -0.066710055 0.38045478 -0.15019944
-0.124823846 -0.02466177 -0.22248566 -0.385207 -0.16937397 -0.10989355 0.21197172 -0.3711111
0.25476062 0.014941379 -0.17975889 0.43858185 -0.1700684 -0.3529984 0.3288329 -0.067748204
0.34239447 0.22976501 -0.25260916 0.23436347 -0.25815696 -0.06822951 -0.24719302 0.07939363
0.15622382 -0.48399717 0.2701289 0.008801001 0.21692619 0.053061258 0.07841713 -0.17567919
0.072325416 0.033250898 -0.45572555 -0.20214452 -0.19068821 0.15873735 0.1749339 0.05018362
0.21741822 -0.022633027 0.2774386 0.32532594 0.050423697 0.28266582 0.024194669 -0.5433197
0.3546714 -0.05170508 0.07882305 -0.36426902 0.1981269 0.24945568 -0.057376344 -0.17369634
-0.12695085 -0.10296013 -0.44408208 -0.09182372 0.088539176 0.20341621 0.029122602 0.26369417
0.36608714 -0.31047615 -0.13374215 -0.19707938 0.032549705 0.19115685 0.14878114 -0.053574078
0.2821875 -0.022662096 0.21947652 -0.34888297 0.343265 0.31834728 0.023873277 -0.070483565
0.39569113 0.32755342 -0.1926448 0.31162962 -0.044689007 0.34575468 0.2676229 0.02577459
-0.18547443 0.045955587 0.3497971 -0.22080721 -0.032284882 -0.24183042 -0.19619109 0.3653888
0.28869703 0.052137647 0.3195201 0.057072498 -0.24050395 -0.20689014 -0.04295225 -0.32845315
-0.035037976 0.24844815 -0.09673808 -0.07391959 0.2104637 0.28865632 0.0149057 -0.097635195
0.035028975 0.035706658 0.0061459304 0.13595709 0.18957247 -0.25821808 -0.068520546 -0.020968214
0.25194472 -0.14958504 0.12817271 0.115954675 0.32793084 -0.3953635 0.08405612 -0.1940796
0.19017665 -0.07404571 -0.018738149 0.18405084 -0.364362 0.021406285 -0.0980392 -0.1252132
00000000: fe83 0bbe 7193 1fbe 2b0b bebd 721b 9fbe
00000010: 7be2 da3d 186f 833e 9243 9e3d 1ec7 9b3e
00000020: f223 40bd caae 503d ef79 153d 998c a4be
00000030: 4369 99bd 88df d23e d68c a8be 9a32 b6bd
00000040: 24ec af3d 529a 633a 22f6 16be cf40 11be
00000050: bee8 56be 8330 a03e 4cbd d13e 0430 8a3e
00000060: 4b47 2e3e 018a cb3e 29f0 003e e40e 7abd
00000070: 7fda 5d3e 8c22 543d b9a0 d93e 1d36 c2be
00000080: a88c d0bd 0914 c7be eabd 31be f1eb 9fbe
00000090: 496c b6bc 6dcb f0be 9899 a03e c12e 99bd
000000a0: df76 81bd 04b1 e9bd 9385 88be 3163 413e
000000b0: 2340 af3e acfb ab3e 867e b73e 78b1 8dbe
000000c0: 7323 643e 9081 793e ceef 29bd 07c3 cfbb
000000d0: e91e 79be 489f 88bd f8ca c23e e2cd 19be
000000e0: a5a3 ffbd 7b07 cabc 48d3 63be da39 c5be
000000f0: 5f70 2dbe df0f e1bd 1d0f 593e 4602 bebe
00000100: fc6f 823e b0cc 743c b712 38be cd8d e03e
00000110: 6926 2ebe 35bc b4be c95c a83e 92bf 8abd
00000120: 544e af3e 8547 6b3e fd55 81be fafc 6f3e
00000130: 262d 84be eabb 8bbd 2b20 7dbe 2199 a23d
00000140: 23f9 1f3e 7ace f7be 564e 8a3e 1332 103c
00000150: e621 5e3e c356 593d 2999 a03d 3fe5 33be
00000160: 591f 943d 1832 083d dc54 e9be f9fe 4ebe
00000170: c543 43be 0b8c 223e df21 333e 578d 4d3d
00000180: e2a2 5e3e e668 b9bc 6f0c 8e3e 1f91 a63e
00000190: 1489 4e3d 93b9 903e e633 c63c 0017 0bbf
000001a0: 7d97 b53e b5c8 53bd fb6d a13d 7881 babe
000001b0: c7e1 4a3e 4f71 7f3e 7503 6bbd 74dd 31be
000001c0: 67ff 01be c3dc d2bd ba5e e3be 130e bcbd
000001d0: 0754 b53d 574c 503e 8692 ee3c ec02 873e
000001e0: c66f bb3e bbf6 9ebe b4f3 08be 2dcf 49be
000001f0: d752 053d 9fbe 433e 155a 183e 7e70 5bbd
00000200: e17a 903e dca5 b9bc 74be 603e caa0 b2be
00000210: 6ec0 af3e 6afe a23e e491 c33c b059 90bd
00000220: 0798 ca3e 15b5 a73e ae44 45be eb8d 9f3e
00000230: d20b 37bd c206 b13e de05 893e 3c25 d33c
00000240: 02ed 3dbe ed3b 3c3d 9b18 b33e 491b 62be
00000250: 273d 04bd 65a2 77be 51e6 48be 3e14 bb3e
00000260: 19d0 933e 498e 553d 2398 a33e dac4 693d
00000270: ab46 76be 02db 53be b3ee 2fbd 032b a8be
00000280: fb83 0fbd 3169 7e3e 9d1e c6bd 2763 97bd
00000290: cc83 573e c3ca 933e 0a37 743c f6f4 c7bd
000002a0: 8b7a 0f3d 2541 123d cd63 c93b 5638 0b3e
000002b0: 491f 423e 2935 84be 8054 8cbd 88c5 abbc
000002c0: e6fe 803e d22c 19be b53f 033e a579 ed3d
000002d0: 8de6 a73e 166d cabe 9d25 ac3d cdbc 46be
000002e0: abbd 423e 47a5 97bd bf80 99bc d377 3c3e
000002f0: a88d babe 3c5c af3c c7c8 c8bd e437 00be

blocks.0.attn.qkv.bias f4 [24]
-0.024060355 0.03204411 -0.111730084 -0.023221988 0.07150068 -0.053910665 -0.14254476 -0.02039424
-1.7726713e-06 -4.890888e-05 1.6047326e-05 8.649281e-05 -1.6477019e-05 6.838558e-05 2.025887e-06 1.798916e-05
0.0034187655 -0.033469837 0.02928291 0.001253485 0.01001755 -0.003546367 0.012483401 -0.011135741
00000000: 391a c5bc af40 033d bed2 e4bd 0a3c bebc
00000010: f36e 923d 6ed1 5cbd 41f7 11be d211 a7bc
00000020: 86ec edb5 8323 4db8 5f9d 8637 7963 b538
00000030: 2138 8ab7 3b6a 8f38 79f4 0736 6de7 9637
00000040: 5e0d 603b ab17 09bd b7e2 ef3c fa4b a43a
00000050: a620 243c 2a6a 68bb 2e87 4c3c af72 36bc

blocks.0.attn.proj.weight f4 [8, 8]
-0.34592685 0.12704128 -0.2388124 -0.015220502 0.48551458 0.020165136 0.00852301 -0.47248858
-0.04673627 0.4705834 -0.27827495 0.14494784 0.022043336 0.43909886 0.4057902 0.23963518
-0.09086889 -0.28783137 0.1472155 0.0514842 0.07507251 0.5516454 0.05136668 -0.01074444
0.22325474 0.26894748 -0.3004719 -0.0034088995 -0.045993425 0.21812968 -0.14552377 0.10972358
0.16141914 0.45574963 -0.015472611 -0.06486988 -0.36122644 -0.5261478 0.41558066 -0.090830915
-0.2848255 0.19680746 0.12596503 -0.01653224 0.09028723 -0.3321974 0.3067238 -0.37070182
0.2358194 -0.22960542 0.21058421 -0.22662903 -0.08070646 0.0487745 -0.30572477 -0.129603
0.08655824 0.19235815 -0.13228199 -0.2420994 -0.21812725 0.36245084 0.29342794 0.5823978
00000000: 531d b1be 1c17 023e 3d8b 74be 6a5f 79bc
00000010: 5e95 f83e 5b31 a53c 18a4 0b3c 06ea f1be
00000020: 886e 3fbd 4ff0 f03e 0e7a 8ebe 356d 143e
00000030: 3a94 b43c 91d1 e03e bcc3 cf3e ed62 753e
00000040: 7819 babd a25e 93be a9bf 163e 19e1 523d
00000050: 9ebf 993d a238 0d3f de65 523d 7309 30bc
00000060: e49c 643e 7cb3 893e 74d7 99be d867 5fbb
00000070: 9a63 3cbd 635d 5f3e 2f04 15be c2b6 e03d
00000080: 0f4b 253e 0458 e93e d680 7dbc 80da 84bd
00000090: acf2 b8be 9fb1 06bf fdc6 d43e 8f05 babd
000000a0: a6d4 91be e587 493e fafc 003e 9f6e 87bc
000000b0: 83e8 b83d c715 aabe e70a 9d3e a1cc bdbe
000000c0: a47a 713e af1d 6bbe 63a3 573e 7111 68be
000000d0: 6e49 a5bd c5c7 473d f587 9cbe a6b6 04be
000000e0: 7245 b13d 89f9 443e ee74 07be e8e8 77be
000000f0: c05c 5fbe 2893 b93e 303c 963e 0618 153f

blocks.0.attn.proj.bias f4 [8]
-0.0077718194 0.005703099 0.029576194 -0.06173925 0.015222902 -0.00082464714 0.051323876 0.0020541546
00000000: bfaa febb 10e1 ba3b c649 f23c 4ce2 7cbd
00000010: 7b69 793c 222d 58ba fc38 523d ff9e 063b

blocks.0.norm2.weight f4 [8]
0.92654383 0.94852525 0.90769774 0.96786916 0.9857558 1.0212787 0.9029456 0.92114156
00000000: fa31 6d3f 8dd2 723f e15e 683f 46c6 773f
00000010: 7e5a 7c3f 43b9 823f 7127 673f efcf 6b3f

blocks.0.norm2.bias f4 [8]
-0.018359443 0.010005504 -0.0026183347 -0.019561784 -0.01611053 -0.015276467 -0.009012312 0.004369292
00000000: 8b66 96bc 20ee 233c 5e98 2bbb 0940 a0bc
00000010: 3bfa 83bc 264a 7abc 60a8 13bc 472c 8f3b

blocks.0.mlp.fc1.weight f4 [32, 8]
-0.35303953 -0.2755145 0.25220624 -0.040517922 -0.077607565 -0.20626779 0.1853458 0.033011675
0.2460139 -0.2864806 -0.071796805 -0.12777887 -0.18896045 -0.07926199 0.12843944 0.044348735
-0.31251308 0.10925482 -0.27167073 -0.055520184 0.18458937 -0.25212243 0.2656705 0.17047195
0.27923924 -0.23031022 0.2248166 -0.20738414 0.30420032 -0.35218748 0.12962134 0.01374834
0.15246615 0.21529356 0.28671932 0.2069007 -0.2026187 0.15765546 -0.02959253 -0.09046308
0.31117147 -0.122596405 -0.2696583 -0.14926964 0.26281965 -0.10908124 0.013352163 0.16078435
0.08259554 -0.2592332 0.029505271 -0.31681305 0.062333513 0.17600441 -0.20905341 0.31251723
-0.27257904 -0.3304132 -0.16197081 0.34274325 -0.21402673 0.2902411 0.10936906 -0.13928325
-0.29670158 0.16395916 0.036079418 -0.038734205 -0.21703573 -0.31503892 -0.14107943 -0.24283803
-0.038649373 0.20146967 0.14290413 0.29014185 -0.16454302 0.035238396 -0.17390537 0.16513094
0.21552144 0.040387016 0.28261608 -0.28595215 0.194154 -0.112854116 0.04948387 -0.13760972
0.046960216 -0.15025738 -0.037089143 0.1205044 0.10238468 0.43700972 -0.19823417 0.13173126
-0.25787848 -0.18665981 0.31339332 0.09416959 -0.09983062 0.19498666 0.0023617905 -0.05502941
0.1356386 0.2633759 0.1169663 0.34760848 -0.28893703 0.16162589 -0.28169307 -0.2589821
-0.33804104 -0.10474646 0.102022365 -0.11979475 0.4146072 -0.12229026 0.1690826 -0.26908767
0.15360652 -0.0010562674 -0.0951108 -0.31653222 0.50295603 0.21209021 0.020361623 0.2965072
-0.17482355 0.08793493 0.097689345 -0.21914408 -0.017502388 -0.07875424 -0.18310654 0.23311448
-0.34949648 -0.102291316 -0.09904078 -0.36957052 -0.31227508 -0.06551395 -0.08326306 -0.092767015
-0.010560641 0.3413614 0.036705256 0.22484426 0.018984059 -0.44447047 0.21909612 0.10553229
-0.013522716 -0.22587618 0.20976673 -0.075084224 -0.06233868 0.1697381 0.062139846 0.2555803
0.085734025 0.18358016 0.34269908 -0.0043194527 -0.11691341 -0.22921298 -0.279313 0.18971793
-0.28337824 0.16728528 0.34560737 0.2850436 0.19912852 -0.007934944 0.003957791 -0.24739687
-0.3006173 0.3159642 -0.23349051 0.2158548 0.43207443 0.046562247 -0.16716473 -0.27359703
-0.07262626 -0.3566426 0.2841597 -0.18775813 0.12999439 0.09394862 0.4080256 0.2712046
-0.2512079 -0.23945802 0.21999227 -0.22804382 0.096829034 -0.27474374 -0.3071431 -0.017234243
-0.26575777 -0.13954106 0.16565603 -0.026306845 -0.2595607 -0.28536835 -0.24470429 -0.16759413
-0.0968708 -0.031101407 -0.10146391 0.17959042 -0.016078267 -0.2554239 -0.22451364 -0.13589309
-0.18152095 0.22336946 0.25188646 0.13294968 0.09135741 -0.0776104 0.2055429 0.031023068
0.29098073 -0.25317675 -0.060614206 -0.08737671 -0.17042781 0.23887648 0.34817377 -0.2991341
-0.18065795 -0.29240236 0.22618113 -0.070040606 0.24955851 0.23070568 0.058348656 0.08421785
-0.25536284 -0.23277923 0.018538509 0.44070727 -0.104232 0.36075544 0.16009486 -0.220849
0.27752241 -0.17544125 0.13298309 -0.06267465 0.14353734 -0.29812086 -0.16965859 -0.3950915
00000000: 99c1 b4be 3d10 8dbe 2d21 813e 1ff6 25bd
00000010: b7f0 9ebd dd37 53be 4acb 3d3e 4037 073d
00000020: 11eb 7b3e 96ad 92be 340a 93bd 77d8 02be
00000030: d97e 41be 1c54 a2bd a185 033e 05a7 353d
00000040: b701 a0be fec0 df3d 6d18 8bbe 2269 63bd
00000050: ff04 3d3e 3116 81be f705 883e 3390 2e3e
00000060: 72f8 8e3e 71d6 6bbe 5336 663e 825c 54be
00000070: 25c0 9b3e eb51 b4be 75bb 043e b840 613c
00000080: 1620 1c3e ea75 5c3e e0cc 923e c7dd 533e
00000090: 477b 4fbe 6f70 213e 096c f2bc b544 b9bd
000000a0: de51 9f3e d313 fbbd a710 8abe 24da 18be
000000b0: 4c90 863e fc65 dfbd 08c3 5a3c a7a4 243e
000000c0: da27 a93d 37ba 84be 0ab5 f13c 5235 a2be
000000d0: 6d51 7f3d 803a 343e 1912 56be 4202 a03e
000000e0: 7b8f 8bbe eb2b a9be addb 25be 0b7c af3e
000000f0: d329 5bbe 7b9a 943e e3fc df3d 45a0 0ebe
00000100: 45e9 97be e9e4 273e 03c8 133d c2a7 1ebd
00000110: 9d3e 5ebe c84c a1be 2077 10be 88aa 78be
00000120: ce4e 1ebd 114e 4e3e 7655 123e 798d 943e
00000130: f77d 28be 2356 103d 4014 32be 1618 293e
00000140: a7b1 5c3e db6c 253d 0eb3 903e 5268 92be
00000150: 4ed0 463e 0f20 e7bd 99af 4a3d 90e9 0cbe
00000160: 5b59 403d 12dd 19be c9ea 17bd 03cb f63d
00000170: 0faf d13d bdbf df3e e6fd 4abe 8fe4 063e
00000180: a608 84be c023 3fbe 1775 a03e fcdb c03d
00000190: ff73 ccbd 95aa 473e 45c8 1a3b 8566 61bd
000001a0: d8e4 0a3e 35d9 863e 078c ef3d bdf9 b13e
000001b0: 8eef 93be 4281 253e 133a 90be 4d99 84be
000001c0: b713 adbe 5085 d6bd 1af1 d03d f356 f5bd
000001d0: 6547 d43e 5173 fabd fd23 2d3e dcc5 89be
000001e0: 074b 1d3e 7472 8aba 73c9 c2bd 8310 a2be
000001f0: bac1 003f 2d2e 593e 6bcd a63c cbcf 973e
00000200: f204 33be 3b17 b43d 5a11 c83d 4e67 60be
00000210: 2b61 8fbc e749 a1bd 4880 3bbe 90b5 6e3e
00000220: 34f1 b2be 1c7e d1bd e4d5 cabd 5938 bdbe
00000230: 85e2 9fbe 2e2c 86bd d385 aabd a2fc bdbd
00000240: 8a06 2dbc ecc6 ae3e 4058 163d 933d 663e
00000250: 7584 9b3c a291 e3be bc5a 603e 5021 d83d
00000260: 628e 5dbc 164c 67be 17cd 563e c2c5 99bd
00000270: d856 7fbd d3cf 2d3e 5a86 7e3d 6cdb 823e
00000280: 5295 af3d 70fc 3b3e 4176 af3e 328a 8dbb
00000290: 4c70 efbd cfb6 6abe 1d02 8fbe 6b45 423e
000002a0: f416 91be d54c 2b3e 73f3 b03e 3cf1 913e
000002b0: 59e8 4b3e 9101 02bc 5bb0 813b 9b55 7dbe
000002c0: 83ea 99be 0fc6 a13e 2318 6fbe 0a09 5d3e
000002d0: dc38 dd3e 0eb8 3e3d 3b2d 2bbe e914 8cbe
000002e0: 14bd 94bd dc99 b6be 617d 913e ab43 40be
000002f0: 401d 053e 2268 c03d bbe8 d03e 54db 8a3e
00000300: 529e 80be 7c34 75be a745 613e 5284 69be
00000310: 4d4e c63d 36ab 8cbe dc41 9dbe d42e 8dbc
00000320: 6711 88be dae3 0ebe bca1 293e 7481 d7bc
00000330: 24e5 84be cd1b 92be c393 7abe cc9d 2bbe
00000340: 3364 c6bd 61c8 febc 4fcc cfbd 8de6 373e
00000350: 92b6 83bc ecc6 82be e7e6 65be 8f27 0bbe
00000360: a1e0 39be f7ba 643e 43f7 803e f623 083e
00000370: 9819 bb3d 34f2 9ebd d779 523e 1724 fe3c
00000380: 6dfb 943e 62a0 81be 9a46 78bd 8ff2 b2bd
00000390: a184 2ebe 099c 743e d543 b23e 1b28 99be
000003a0: 66fe 38be c3b5 95be 079c 673e 7371 8fbd
000003b0: 448c 7f3e 1c3e 6c3e 00ff 6e3d 687a ac3d
000003c0: ebbe 82be ae5d 6ebe 12de 973c 62a4 e13e
000003d0: 9677 d5bd f0b4 b83e e8ef 233e 3e26 62be
000003e0: 6b17 8e3e dfa6 33be b82c 083e 915b 80bd
000003f0: 74fb 123e 4ca3 98be fbba 2dbe 6f49 cabe

blocks.0.mlp.fc1.bias f4 [32]
0.012228017 0.00024644303 -0.0073538916 0.014686425 0.019100366 -0.00017912219 0.029511893 0.0031205164
0.0024595426 0.0074776565 -0.012004953 -0.0021050733 -0.033567727 -0.014055263 0.038632497 0.00759896
0.020213023 0.010503104 -0.010523742 -0.03421633 -0.0026536935 0.0044233385 -0.036968093 0.0044012405
-0.0007478639 0.030839443 0.00046793022 -0.0034380225 0.014121464 -0.03900859 0.009190387 -0.05986237
00000000: 0558 483c 0635 8139 eaf8 f0bb 559f 703c
00000010: 5f78 9c3c bfd2 3bb9 edc2 f13c 9481 4c3b
00000020: 4730 213b 2107 f53b 6cb0 44bc 45f5 09bb
00000030: 507e 09bd 0c48 66bc 1c3d 1e3d b200 f93b
00000040: c895 a53c 3615 2c3c c66b 2cbc 6c26 0cbd
00000050: 97e9 2dbb a7f1 903b db6b 17bd 4838 903b
00000060: 4c0c 44ba 00a3 fc3c 8854 f539 7250 61bb
00000070: b75d 673c 79c7 1fbd 4793 163c 3f32 75bd

blocks.0.mlp.fc2.weight f4 [8, 32]
0.2738268 -0.15760256 -0.037848353 0.029329067 -0.05900069 0.02535665 -0.32448256 -0.16068728
-0.08111112 0.06799923 0.20096102 0.054957893 0.12255993 -0.11039274 0.3170098 -0.4443102
-0.06787244 -0.18301806 0.20109636 -0.047828 0.29908392 0.20049451 -0.088221714 0.023047645
-0.18648648 0.16050828 0.1483668 0.2710283 0.33472723 -0.2746981 0.119396605 0.36848658
0.3572886 -0.15932687 0.057891726 0.3419351 0.04600684 -0.27368873 0.121442184 -0.15796906
-0.099403806 0.25116494 -0.0782185 0.18996044 -0.26832193 -0.023174483 0.1629574 0.14508088
0.17702633 0.24515995 -0.42635447 0.032962758 0.30720848 0.0792792 0.007559036 0.12522776
-0.15017764 0.18978117 0.086683 -0.22526175 0.27401972 -0.23720539 -0.32683697 0.090425245
-0.04698429 -0.33289707 0.027591096 -0.04240005 0.1331902 -0.23259908 0.25996 -0.2310108
-0.24546763 0.34761637 0.12530345 0.07204698 0.18588234 0.2397864 0.24324737 0.24101612
-0.04538079 0.22079208 0.3107535 -0.27388698 -0.012452833 -0.26553294 -0.4293801 0.30674547
0.12965214 -0.050700113 -0.1285425 0.26040214 -0.012533097 -0.0030399398 -0.12076536 -0.32762232
0.22794648 -0.117709056 0.14366928 -0.32829 -0.27110693 -0.09965652 -0.36422044 -0.3497701
-0.23181446 -0.24741624 -0.053457454 0.0572503 0.18647844 -0.250706 0.33677933 -0.16529381
-0.3168882 -0.03408056 0.28846934 0.004997427 0.20819482 0.34679472 0.29799736 0.2973292
0.1231924 -0.120026626 -0.11453515 0.24112117 0.34583345 0.049125075 -0.18675451 -0.19500396
0.11427153 -0.065376095 -0.24794352 0.21897747 0.08729939 -0.088628784 -0.23531282 0.0859103
-0.36729905 -0.30658782 -0.12246093 0.17465286 0.0851478 -0.19052489 -0.057475492 -0.36778212
-0.2721467 0.11869473 -0.28541517 -0.267855 0.019119933 -0.30714348 0.001449181 0.26956218
0.19282924 0.18165474 0.30027476 -0.30659553 -0.1547353 -0.27684915 0.14507899 0.2777934
-0.37039572 0.14480998 0.17294602 -0.1782402 -0.24416438 0.28166267 0.08547381 0.18566185
-0.43770206 -0.15411112 0.26597175 0.3331856 0.13641864 0.04831885 0.20724007 -0.09118998
-0.3145285 0.20835187 -0.014204705 -0.07771349 -0.22150953 -0.34226936 0.20185943 0.12942284
0.15442845 -0.20072874 0.20381792 0.14058074 -0.15077394 -0.3390589 0.011621641 -0.26893753
0.23907514 0.27159315 -0.21463774 0.075667 0.24998805 0.36234716 -0.24482638 -0.31688187
-0.1240505 0.16611476 -0.029100306 -0.009322567 -0.22353414 -0.09904477 -0.28833497 -0.06341632
0.25924256 -0.32877448 -0.18244119 0.091258176 0.39645627 0.3095108 0.122926824 -0.10596319
0.33757746 -0.041201025 -0.13745622 -0.052683182 -0.13792415 -0.23976138 0.30362713 0.2604549
0.12824436 0.16670983 0.024708908 0.21454452 0.23701395 -0.16426833 -0.31277844 0.29020298
0.30883825 -0.30132824 0.31342044 -0.06178332 -0.11720886 0.28153178 -0.024988815 0.16384524
-0.22148217 -0.30756438 -0.033171553 0.14817014 -0.10244116 -0.13443585 -0.26899615 0.19393906
-0.3615897 0.08075101 0.23969507 -0.034150813 0.07191367 0.29956377 -0.25621316 0.2695968
00000000: 0733 8c3e 9162 21be e006 1bbd 8343 f03c
00000010: b5aa 71bd c0b8 cf3c 9422 a6be 358b 24be
00000020: 961d a6bd 2e43 8b3d bac8 4d3e 871b 613d
00000030: b300 fb3d 9715 e2bd 1c4f a23e a07c e3be
00000040: b500 8bbd 1669 3bbe 34ec 4d3e 4be7 43bd
00000050: 8721 993e 6f4e 4d3e 96ad b4bd 6ace bc3c
00000060: 50f6 3ebe 485c 243e 77ed 173e 39c4 8a3e
00000070: 5e61 ab3e 3ba5 8cbe 3586 f43d 46aa bc3e
00000080: 88ee b63e 9526 23be e01f 6d3d 1e12 af3e
00000090: ab71 3c3d ee20 8cbe aeb6 f83d a4c2 21be
000000a0: 3994 cbbd b198 803e 0531 a0bd fd84 423e
000000b0: 7e61 89be 6ad8 bdbc 4ede 263e 1590 143e
000000c0: 6446 353e 360b 7b3e 224b dabe f503 073d
000000d0: 6e4a 9d3e 225d a23d cab1 f73b b53b 003e
000000e0: 2bc8 19be ff55 423e db86 b13d 04ab 66be
000000f0: 504c 8c3e f8e5 72be 2d57 a7be df30 b93d
00000100: 9972 40bd 7c71 aabe b906 e23c adab 2dbd
00000110: 0363 083e 742e 6ebe 7a19 853e 188e 6cbe
00000120: de5b 7bbe c6fa b13e 8c4f 003e 5e8d 933d
00000130: f157 3e3e 918a 753e d715 793e eecc 763e
00000140: 35e1 39bd 5217 623e 151b 9f3e ea3a 8cbe
00000150: f806 4cbc eff3 87be b5d7 dbbe be0d 9d3e
00000160: 88c3 043e ecaa 4fbd a5a0 03be 6e53 853e
00000170: 9e57 4dbc ba39 47bb d453 f7bd 1dbe a7be
00000180: cd6a 693e 7211 f1bd 0a1e 133e a015 a8be
00000190: 87ce 8abe b818 ccbd 1a7b babe 1115 b3be
000001a0: c560 6dbe af5a 7dbe 34f6 5abd 4a7f 6a3d
000001b0: 34f4 3e3e 895c 80be 576e ac3e c842 29be
000001c0: 2c3f a2be 0f98 0bbd 41b2 933e 75c1 a33b
000001d0: 0631 553e 148f b13e 1c93 983e 883b 983e
000001e0: 4c4c fc3d 85d0 f5bd 6891 eabd 78e8 763e
000001f0: 1511 b13e 6037 493d 933c 3fbe 1eaf 47be
00000200: 3107 ea3d e7e3 85bd e8e4 7dbe a13b 603e
00000210: 06ca b23d 0283 b5bd d8f5 70be bdf1 af3d
00000220: 9f0e bcbe 14f9 9cbe cccc fabd 33d8 323e
00000230: f861 ae3d f518 43be 6c6b 6bbd f04d bcbe
00000240: d056 8bbe 3916 f33d f021 92be 4a24 89be
00000250: 68a1 9c3c e941 9dbe 72f2 bd3a 0e04 8a3e
00000260: 0775 453e b303 3a3e 9dbd 993e 17fa 9cbe
00000270: ee72 1ebe 2cbf 8dbe 968f 143e f03a 8e3e
00000280: 82a4 bdbe 1149 143e c318 313e 9984 36be
00000290: 3a06 7abe 1736 903e e50c af3d 241e 3e3e
000002a0: 7c1a e0be 4ecf 1dbe 732d 883e 4e97 aa3e
000002b0: 54b1 0b3e fde9 453d be36 543e d0c1 babd
000002c0: e109 a1be 315a 553e daba 68bc 4028 9fbd
000002d0: 65d3 62be ee3d afbe 3db4 4e3e 6c87 043e
000002e0: 7e22 1e3e d68b 4dbe a5b5 503e 66f4 0f3e
000002f0: 7c64 1abe 2199 adbe b268 3e3c 2eb2 89be
00000300: 1dd0 743e 420e 8b3e ffc9 5bbe 4df7 9a3d
00000310: defc 7f3e 9185 b93e c4b3 7abe 573e a2be
00000320: 300e febd fd19 2a3e c463 eebc aebd 18bc
00000330: 22e6 64be fcd7 cabd a4a0 93be 6ae0 81bd
00000340: 71bb 843e 2155 a8be ddd1 3abe 91e5 ba3d
00000350: 51fc ca3e 3378 9e3e 0fc1 fb3d 3b03 d9bd
00000360: f4d6 ac3e 68c2 28bd 53c1 0cbe 52ca 57bd
00000370: fd3b 0dbe 0284 75be 0475 9b3e 585a 853e
00000380: 7d52 033e fbb5 2a3e 566a ca3c 8fb1 5b3e
00000390: c9b3 723e f535 28be 7f24 a0be 7c95 943e
000003a0: 0c20 9e3e b247 9abe a578 a03e 8210 7dbd
000003b0: 330b f0bd ef24 903e 58b5 ccbc 0cc7 273e
000003c0: 39cc 62be 1479 9dbe e5de 07bd eab9 173e
000003d0: accc d1bd 8da9 09be ddb9 89be f697 463e
000003e0: 4922 b9be c960 a53d a072 753e b9e1 0bbd
000003f0: 7947 933d 6c60 993e 5f2e 83be 9708 8a3e

blocks.0.mlp.fc2.bias f4 [8]
-0.00610351 0.010671075 -0.0035559018 -0.010529311 0.015434721 0.0042209527 0.021013632 0.0012692899
00000000: f4ff c7bb bcd5 2e3c 220a 69bb 2283 2cbc
00000010: e9e1 7c3c eb4f 8a3b c824 ac3c 4d5e a63a

blocks.1.norm1.weight f4 [8]
0.953815 1.0183222 0.94548345 0.86383927 0.9060658 0.9008666 0.73184323 0.90290856
00000000: 382d 743f 6258 823f 340b 723f 9224 5d3f
00000010: eef3 673f 329f 663f 145a 3b3f 0425 673f

blocks.1.norm1.bias f4 [8]
-0.026360817 0.005393254 0.016057286 -0.0304323 -0.014257148 0.0020862904 0.03982674 -0.004508937
00000000: a4f2 d7bc e5b9 b03b 928a 833c 294d f9bc
00000010: d096 69bc 25ba 083b 5d21 233d b4bf 93bb

blocks.1.attn.qkv.weight f4 [24, 8]
0.18793376 -0.011604573 -0.18980546 -0.1029957 0.021814365 0.30060866 0.22466883 -0.02324663
0.0001243203 0.23987085 0.08198113 0.014835659 -0.049212877 -0.11493664 -0.2076529 -0.4541814
-0.3639771 0.09247835 -0.05771811 -0.31865436 0.14271276 0.07815707 -0.10790456 0.22852062
0.41160357 0.11096278 -0.26260966 -0.2687985 0.42225146 0.21323933 -0.27976677 0.09412355
-0.413724 0.0023394292 -0.16222402 0.020671591 -0.2807507 -0.12211315 -0.24532638 -0.3273381
0.3444818 0.3196606 0.10115476 0.020033488 0.30263492 0.13395348 -0.33597016 -0.16694823
0.060158916 0.0035022423 0.26138514 0.21337882 -0.2572582 -0.028756812 -0.32579094 0.047098488
0.0143674165 0.23238683 0.5238223 0.18385704 -0.48342487 -0.33538544 0.40756562 -0.081863895
0.10020045 -0.025186414 0.15154617 -0.1549849 0.076888405 -0.2858097 0.22006358 -0.28720865
0.19627671 0.20434959 0.40462664 0.16792347 0.33379894 -0.43646938 -0.298218 0.29187965
-0.24951398 -0.2728952 0.3143446 -0.11291934 -0.3236943 -0.29154417 0.16969347 0.07495459
-0.27428398 -0.43885353 -0.057578918 -0.1653277 -0.059570815 0.17933458 -0.30504677 -0.20512007
0.14073917 0.13853745 0.01129757 0.11079002 -0.29598895 -0.0015009571 0.03993832 0.1778517
-0.16649951 -0.20255265 0.3362376 0.10444732 -0.0644962 -0.21729368 0.33636007 0.29318154
0.049275775 -0.45205992 0.17474182 -0.114006564 0.1323636 -0.054497406 0.34244224 -0.110378034
-0.40346834 0.11013169 0.026180333 -0.14518383 0.20286165 0.33859584 0.14276756 0.048064623
-0.29586828 -0.17695273 -0.34930292 -0.14940354 -0.35689676 -0.15681775 -0.26801324 0.21700355
-0.41422203 0.45177028 -0.045181766 -0.06475488 -0.045501437 -0.20518388 0.30408058 -0.022958457
0.014740538 -0.27427676 0.23132879 -0.13832825 -0.25041327 0.17742167 -0.08154663 -0.34784576
0.15104176 0.15601149 0.1978659 -0.12880188 -0.17766403 -0.2781874 -0.19998044 -0.25680074
0.02910487 0.093379654 -0.44146052 -0.03716378 -0.044414908 -0.18517102 0.041372005 0.18581527
0.12007453 0.25028044 -0.27621368 -0.11404003 0.18095285 0.09020047 0.23220192 -0.07697279
0.11029768 -0.09169419 0.25916794 -0.24915572 -0.05736766 0.026342535 0.07831286 -0.06456694
0.08970786 -0.36389083 -0.023024512 0.105438985 0.24942836 -0.22894219 0.13433497 -0.21838543
00000000: b571 403e 1b21 3ebc 5d5c 42be 69ef d2bd
00000010: 0ab4 b23c 61e9 993e 960f 663e b76f bebc
00000020: fa5b 0239 b4a0 753e b9e5 a73d 4411 733c
00000030: 7193 49bd e763 ebbd f6a2 54be 778a e8be
00000040: 355b babe 4a65 bd3d d369 6cbd aa26 a3be
00000050: 4b23 123e d010 a03d 11fd dcbd 4f01 6a3e
00000060: b4bd d23e 7440 e33d c674 86be f59f 89be
00000070: 5831 d83e 695b 5a3e 973d 8fbe d9c3 c03d
00000080: a2d3 d3be 1c51 193b 0e1e 26be 7857 a93c
00000090: 8ebe 8fbe 7616 fabd d736 7bbe dc98 a7be
000000a0: eb5f b03e 8eaa a33e 3a2a cf3d 451d a43c
000000b0: f7f2 9a3e 1a2b 093e 4804 acbe 7af4 2abe
000000c0: 3269 763d e085 653b 46d4 853e fa7f 5a3e
000000d0: 59b7 83be 6893 ebbc 12ce a6be 58ea 403d
000000e0: 5065 6b3c d0f6 6d3e 3819 063f 0545 3c3e
000000f0: 7783 f7be a4b7 abbe 71ac d03e 42a8 a7bd
00000100: e535 cd3d bd53 cebc eb2e 1b3e 5db4 1ebe
00000110: ab77 9d3d a655 92be 5958 613e 030d 93be
00000120: c3fc 483e 0541 513e 392b cf3e 21f4 2b3e
00000130: b2e7 aa3e ea78 dfbe 08b0 98be 4071 953e
00000140: 9880 7fbe ebb8 8bbe c7f1 a03e 4142 e7bd
00000150: 42bb a5be 4745 95be 20c4 2d3e cb81 993d
00000160: f36e 8cbe 69b1 e0be dfd7 6bbd aa4b 29be
00000170: 8700 74bd 7ca3 373e 172f 9cbe ff0a 52be
00000180: ee1d 103e c3dc 0d3e 7119 393c e1e5 e23d
00000190: dd8b 97be c3bb c4ba 5d96 233d c21e 363e
000001a0: d97e 2abe f669 4fbe 5627 ac3e 7ae8 d53d
000001b0: 9516 84bd 3c82 5ebe 6337 ac3e e41b 963e
000001c0: 65d5 493d 6674 e7be 85ef 323e 467c e9bd
000001d0: 538a 073e ac38 5fbd 9754 af3e e10d e2bd
000001e0: 6793 cebe b98c e13d 2378 d63c 12ab 14be
000001f0: f7ba 4f3e 6f5c ad3e a931 123e 69df 443d
00000200: 0c7c 97be 1933 35be d5d7 b2be 3efd 18be
00000210: 2cbb b6be d594 20be 0839 89be 2e36 5e3e
00000220: e914 d4be 6f4e e73e 8410 39bd 359e 84bd
00000230: b75f 3abd b91b 52be 73b0 9b3e 6013 bcbc
00000240: 4c82 713c 016e 8cbe 74e1 6c3e eca5 0dbe
00000250: 2b36 80be 07ae 353e eb01 a7bd d718 b2be
00000260: b1aa 1a3e 7ac1 1f3e 5c9d 4a3e a4e4 03be
00000270: 8fed 35be 946e 8ebe acc7 4cbe 637b 83be
00000280: 566d ee3c d53d bf3d 1d07 e2be 0c39 18bd
00000290: 68ec 35bd 799d 3dbe b175 293d 5c46 3e3e
000002a0: a3e9 f53d c224 803e e16b 8dbe d28d e9bd
000002b0: b44b 393e 06bb b83d 57c6 6d3e e9a3 9dbd
000002c0: c0e3 e13d 2aca bbbd a9b1 843e ad22 7fbe
000002d0: 5afa 6abd 4dcc d73c 7e62 a03d ac3b 84bd
000002e0: c1b8 b73d e64f babe e79d bcbc 65f0 d73d
000002f0: 266a 7f3e d26f 6abe 1b8f 093e 6ea0 5fbe

blocks.1.attn.qkv.bias f4 [24]
-0.113413505 -0.06612847 0.05118523 -0.055604074 0.05287498 -0.0010252034 0.109238006 0.12520492
-4.8831324e-05 -4.063231e-05 2.8257991e-05 -6.165933e-05 1.624513e-05 -4.1381132e-05 4.1726355e-05 8.128603e-05
0.0025341301 0.023275211 0.02321175 -0.0108094625 -0.0018230455 0.02002715 0.018570475 0.0013903953
00000000: 5745 e8bd 5d6e 87bd 9ba7 513d 19c1 63bd
00000010: 6f93 583d 1e60 86ba 2db8 df3d b835 003e
00000020: 3cd0 4cb8 9c6c 2ab8 930b ed37 1a4f 81b8
00000030: 2746 8837 a790 2db8 5503 2f38 1b78 aa38
00000040: a613 263b a8ab be3c 9126 be3c 2c1a 31bc
00000050: 42f3 eeba fa0f a43c 1c21 983c ed3d b63a

blocks.1.attn.proj.weight f4 [8, 8]
-0.20724241 -0.10476929 0.2858706 -0.5017868 0.15260991 -0.31133437 0.3318272 -0.28245497
0.17787668 -0.15603761 0.32875562 0.17363864 0.16506185 0.2861485 0.44526818 0.2352932
0.48160276 -0.56033283 -0.325846 -0.05836251 0.098321505 -0.43370488 -0.052751377 -0.3343652
0.002396957 0.25398606 -0.16731922 0.22089016 0.08239891 -0.4710293 -0.4703983 0.3944538
0.3295667 0.5996391 -0.110087834 -0.48440978 -0.39282584 -0.060156263 0.4453001 -0.18549614
0.36200562 -0.11843313 -0.44647154 0.44844076 -0.17217138 0.49361697 0.25248703 -0.1510029
-0.029443154 0.5055386 0.53720504 0.17401996 0.40994695 -0.27793708 -0.35186297 0.12969884
-0.15965043 -0.5214181 -0.042242654 -0.2674635 -0.118745744 -0.0574115 0.12947512 -0.17755485
00000000: 5b37 54be 4891 d6bd a25d 923e 1a75 00bf
00000010: c645 1c3e 3867 9fbe 41e5 a93e f09d 90be
00000020: 4e25 363e 53c8 1fbe a852 a83e 54ce 313e
00000030: f905 293e 0e82 923e 31fa e33e b3f0 703e
00000040: a394 f63e f971 0fbf 49d5 a6be 870d 6fbd
00000050: c95c c93d 910e debe d411 58bd ea31 abbe
00000060: 4416 1d3b 760a 823e bb55 2bbe 0831 623e
00000070: c2c0 a83d c12a f1be 0cd8 f0be d9f5 c93e
00000080: f7bc a83e f381 193f bb75 e1bd 8f04 f8be
00000090: 7820 c9be 6a66 76bd 60fe e33e b3f2 3dbe
000000a0: cd58 b93e 128d f2bd eb97 e4be 079a e53e
000000b0: b24d 30be 5dbb fc3e fb45 813e 81a0 1abe
000000c0: c532 f1bc fa6a 013f 4586 093f 4a32 323e
000000d0: 91e4 d13e c54d 8ebe 6227 b4be c6cf 043e
000000e0: 677b 23be a87b 05bf a206 2dbd faf0 88be
000000f0: f830 f3bd 5228 6bbd 2095 043e f0d0 35be

blocks.1.attn.proj.bias f4 [8]
0.012358137 0.014661959 -0.01945825 -0.0104915295 0.026139626 -0.009019009 0.012374543 -0.0014518446
00000000: c979 4a3c b738 703c e866 9fbc aae4 2bbc
00000010: c522 d63c 77c4 13bc 98be 4a3c d24b beba

blocks.1.norm2.weight f4 [8]
0.7980129 0.96966344 0.9585667 0.91787773 0.97651225 0.96846277 0.94465697 0.8853494
00000000: 934a 4c3f dd3b 783f a164 753f 09fa 6a3f
00000010: b5fc 793f 2ded 773f 0ad5 713f 42a6 623f

blocks.1.norm2.bias f4 [8]
0.023179388 0.012331569 0.04196635 0.0063059563 -0.011553765 0.0029627776 0.008145812 0.011205178
00000000: b3e2 bd3c 590a 4a3c e8e4 2b3d 32a2 ce3b
00000010: 014c 3dbc 292b 423b 0376 053c ec95 373c

blocks.1.mlp.fc1.weight f4 [32, 8]
-0.2583793 0.020787599 0.27850893 -0.07680758 -0.19630668 0.40478116 0.11049461 0.174043
-0.1601524 0.101530336 -0.26046288 -0.17505236 -0.34987476 -0.20917511 0.12578864 0.044740647
0.09840546 0.27590886 -0.36712572 -0.31737432 -0.1572268 0.26080036 -0.18922037 -0.124724224
-0.23345827 -0.09141831 0.004044938 -0.037554037 0.072870694 0.11148556 -0.25391933 0.113790445
0.23333728 -0.11637575 0.052472506 0.14920901 0.12141105 0.27299222 -0.16056713 -0.25225496
0.32772705 -0.014027175 -0.39884388 0.14869659 0.016893055 -0.027818069 -0.033389833 -0.11081065
0.16134584 -0.13608111 -0.07074559 -0.013413975 -0.2591978 -0.046193887 -0.16110069 -0.13918689
0.1130567 0.09068405 -0.15996215 0.04396745 -0.27060908 -0.13168812 0.08383544 -0.18035215
-0.28560358 -0.10449542 0.19726206 -0.22939332 0.038744614 0.09837682 -0.1085774 -0.0820682
0.3089498 0.4123216 -0.28326303 -0.07400454 0.16800605 -0.24598032 -0.1499635 0.24980162
-0.25909036 0.2668692 -0.055144656 0.30288488 0.050667956 -0.21343033 0.18537696 0.094214946
0.086292125 0.008332524 -0.05962744 -0.2787141 -0.21434173 0.15492488 0.31927645 -0.2519181
-0.22131185 -0.27563128 0.0155357355 -0.06498074 0.25270715 -0.22620152 0.16599855 -0.32866418
-0.29685885 -0.23172237 -0.1840774 0.08637827 0.09842876 -0.08360091 0.08488165 0.22835477
0.032979924 -0.0035253093 -0.2645678 -0.061790362 0.043788437 0.40910926 -0.018865168 -0.13896732
0.028393531 0.0028009296 0.051922753 0.12214111 0.22933057 -0.14573058 0.20495702 -0.2589541
-0.13093393 -0.051146213 0.06567024 -0.28228658 -0.16841063 -0.27381256 -0.18922254 -0.15201622
-0.1772571 -0.10868666 0.15169518 -0.1654191 -0.2176345 -0.11231086 0.022779439 -0.05717664
0.304882 -0.2023819 0.29035956 0.22413783 0.12624058 0.3919718 -0.10319035 -0.06243192
0.20350057 0.36247027 0.18643479 -0.0015785138 0.34392896 -0.0073526325 -0.22840807 -0.0032535146
-0.39686197 -0.32967526 -0.30853423 0.3276407 -0.12792116 0.20193477 -0.20650168 0.081743106
-0.006957457 0.04445894 -0.013924915 0.3585331 0.44691312 0.1989597 -0.28400406 -0.31176934
0.19327804 -0.27537772 -0.33171213 -0.19870071 -0.365372 -0.22022995 0.38256344 -0.083614126
0.18364482 -0.07714716 0.06679295 -0.067241825 -0.13998167 0.16863355 0.13819721 0.19389422
0.08582407 -0.15481874 -0.42286825 -0.052874565 0.17462263 0.2600138 0.22062112 -0.12580146
-0.18667066 0.025323195 0.13903886 -0.22122937 0.026337527 0.040828235 -0.14724988 0.025115056
-0.04600049 -0.13283305 0.023788761 0.086731255 -0.36299244 0.12447137 -0.04437853 -0.30084008
0.06527841 0.126022 -0.13649456 0.32325786 0.21095018 -0.14193754 -0.35579237 0.21310607
-0.31075916 -0.3393456 0.06282997 0.08213703 -0.1731606 -0.329255 -0.11315437 0.23006272
-0.09130392 0.21821663 -0.21009888 0.082638875 0.014713446 -0.32503623 0.20893426 -0.14229728
0.10304795 0.18468794 0.22435866 -0.1085687 -0.37232932 0.0073443144 -0.2895041 0.30567175
0.17938982 0.1360809 0.27133155 -0.024400597 -0.2849099 -0.33293095 -0.14806063 0.19571741
00000000: 4b4a 84be c14a aa3c b998 8e3e 4b4d 9dbd
00000010: 9e04 49be 7a3f cf3e 004b e23d 5438 323e
00000020: fefe 23be 23ef cf3d 645b 85be ed40 33be
00000030: c922 b3be 0032 56be bdce 003e f841 373d
00000040: cd88 c93d ed43 8d3e e7f7 bbbe e37e a2be
00000050: 1000 21be a087 853e fcc2 41be 6a6f ffbd
00000060: af0f 6fbe 8639 bbbd 668b 843b 43d2 19bd
00000070: 3b3d 953d 8b52 e43d b701 82be f70a e93d
00000080: f8ef 6e3e 6956 eebd 69ed 563d 3fca 183e
00000090: 5ba6 f83d a3c5 8b3e b66b 24be 9027 81be
000000a0: d7cb a73e 3cd2 65bc 4435 ccbe eb43 183e
000000b0: 4e63 8a3c b8e2 e3bc c7c3 08bd b2f0 e2bd
000000c0: d837 253e d958 0bbe 10e3 90bd 4ac6 5bbc
000000d0: 93b5 84be cd35 3dbd 94f7 24be 0287 0ebe
000000e0: 458a e73d 8fb8 b93d 1ecd 23be 3617 343d
000000f0: 468d 8abe 40d9 06be eab1 ab3d 3cae 38be
00000100: a23a 92be b201 d6bd 11ff 493e 15e6 6abe
00000110: acb2 1e3d c979 c93d d45d debd 5f13 a8bd
00000120: ab2e 9e3e d11b d33e da07 91be b18f 97bd
00000130: c709 2c3e 44e2 7bbe 0890 19be ffcb 7f3e
00000140: 7ea7 84be 14a3 883e 5ddf 61bd ba13 9b3e
00000150: 3489 4f3d 7b8d 5abe 75d3 3d3e c4f3 c03d
00000160: edb9 b03d 2485 083c e73b 74bd 9db3 8ebe
00000170: 667c 5bbe a1a4 1e3e 3478 a33e 69fb 80be
00000180: 939f 62be 8b1f 8dbe 9989 7e3c 9f14 85bd
00000190: d562 813e 5fa1 67be 86fb 293e ac46 a8be
000001a0: e2fd 97be a148 6dbe c97e 3cbe 17e7 b03d
000001b0: 0595 c93d f436 abbd 6ed6 ad3d d5d5 693e
000001c0: f515 073d e008 67bb 6e75 87be e417 7dbd
000001d0: 815b 333d c576 d13e 208b 9abc 734d 0ebe
000001e0: 8d99 e83c cd8f 373b f4ac 543d 1e25 fa3d
000001f0: a2d5 6a3e 663a 15be 41e0 513e a295 84be
00000200: 8b13 06be b17e 51bd 1e7e 863d de87 90be
00000210: d673 2cbe 2931 8cbe 8ec3 41be 24aa 1bbe
00000220: e382 35be 1d97 debd fb55 1b3e a063 29be
00000230: 94db 5ebe 3c03 e6bd f29b ba3c 0d32 6abd
00000240: 7e19 9c3e 333d 4fbe 02aa 943e 6384 653e
00000250: 3645 013e 87b0 c83e 7655 d3bd 9db8 7fbd
00000260: 7462 503e b495 b93e c3e8 3e3e 22e6 ceba
00000270: 7517 b03e 5aee f0bb cee3 69be eb38 55bb
00000280: 7e31 cbbe 32cb a8be 33f8 9dbe 86c0 a73e
00000290: c4fd 02be fdc7 4e3e 2d75 53be ee68 a73d
000002a0: 61fb e3bb 941a 363d 5425 64bc a791 b73e
000002b0: ccd1 e43e 17bc 4b3e fb68 91be 3ba0 9fbe
000002c0: aeea 453e 4ffe 8cbe 2cd6 a9be 3378 4bbe
000002d0: 0a12 bbbe f683 61be 5bdf c33e e23d abbd
000002e0: 630d 3c3e 55ff 9dbd beca 883d 15b6 89bd
000002f0: 5b57 0fbe 46ae 2c3e 9283 0d3e 358c 463e
00000300: 88c4 af3d ce88 1ebe 3082 d8be 0093 58bd
00000310: 46d0 323e 8720 853e 81ea 613e 19d2 00be
00000320: 9826 3fbe 9772 cf3c 3460 0e3e f489 62be
00000330: ccc1 d73c 823b 273d acc8 16be 17be cd3c
00000340: 036b 3cbd 6305 08be a6e0 c23c 28a0 b13d
00000350: 25da b9be d8ea fe3d 43c6 35bd b607 9abe
00000360: b0b0 853d e90b 013e 3bc5 0bbe 0e82 a53e
00000370: 5303 583e 1358 11be 6b2a b6be 7a38 5a3e
00000380: d31b 9fbe b5be adbe 00ad 803d 7637 a83d
00000390: 0351 31be 1d94 a8be 7abd e7bd 9095 6b3e
000003a0: 8dfd babd 2e74 5f3e 2924 57be 923e a93d
000003b0: aa10 713c 266b a6be ddf2 553e 61b6 11be
000003c0: ce0a d33d d61e 3d3e 47be 653e 4459 debd
000003d0: f3a1 bebe 93a8 f03b e239 94be 0281 9c3e
000003e0: f7b1 373e cb58 0b3e f8eb 8a3e c3e3 c7bc
000003f0: b6df 91be ed75 aabe 359d 17be 256a 483e
