configs/experiment/best_MNIST_MAE.pth (torch, 105087 bytes, 158 tensors)

cls_token f4 [1, 1, 8]
00000000: 3af2 a3bc ee58 28bc f048 a93c c278 05bb
00000010: 9f67 703c a6bf 6abc 3f9e 21bd 8564 3f3c
-0.020012964 -0.010275109 0.020664662 -0.0020366167 0.014673143 -0.014327919 -0.039457556 0.011681681

pos_embed f4 [1, 50, 8]
00000000: 0000 0000 0000 0000 0000 0000 0000 0000
00000010: 0000 0000 0000 0000 0000 0000 0000 0000
00000020: 0000 0000 0000 0000 0000 803f 0000 803f
00000030: 0000 0000 0000 0000 0000 803f 0000 803f
00000040: a46a 573f 57d6 233c 4051 0a3f b9fc 7f3f
00000050: 0000 0000 0000 0000 0000 803f 0000 803f
00000060: b7c7 683f 3ed4 a33c 3311 d5be e5f2 7f3f
00000070: 0000 0000 0000 0000 0000 803f 0000 803f
00000080: c381 103e 20b9 f53c 2670 7dbf 83e2 7f3f
00000090: 0000 0000 0000 0000 0000 803f 0000 803f
000000a0: cfbd 41bf dbcb 233d 3055 27bf 94cb 7f3f
000000b0: 0000 0000 0000 0000 0000 803f 0000 803f
000000c0: 107c 75bf f5b6 4c3d 2c3c 913e 19ae 7f3f
000000d0: 0000 0000 0000 0000 0000 803f 0000 803f
000000e0: 8c0f 8fbe d19c 753d b8cd 753f 128a 7f3f
000000f0: 0000 0000 0000 0000 0000 803f 0000 803f
00000100: 0000 0000 0000 0000 0000 803f 0000 803f
00000110: a46a 573f 57d6 233c 4051 0a3f b9fc 7f3f
00000120: a46a 573f 57d6 233c 4051 0a3f b9fc 7f3f
00000130: a46a 573f 57d6 233c 4051 0a3f b9fc 7f3f
00000140: b7c7 683f 3ed4 a33c 3311 d5be e5f2 7f3f
00000150: a46a 573f 57d6 233c 4051 0a3f b9fc 7f3f
00000160: c381 103e 20b9 f53c 2670 7dbf 83e2 7f3f
00000170: a46a 573f 57d6 233c 4051 0a3f b9fc 7f3f
00000180: cfbd 41bf dbcb 233d 3055 27bf 94cb 7f3f
00000190: a46a 573f 57d6 233c 4051 0a3f b9fc 7f3f
000001a0: 107c 75bf f5b6 4c3d 2c3c 913e 19ae 7f3f
000001b0: a46a 573f 57d6 233c 4051 0a3f b9fc 7f3f
000001c0: 8c0f 8fbe d19c 753d b8cd 753f 128a 7f3f
000001d0: a46a 573f 57d6 233c 4051 0a3f b9fc 7f3f
000001e0: 0000 0000 0000 0000 0000 803f 0000 803f
000001f0: b7c7 683f 3ed4 a33c 3311 d5be e5f2 7f3f
00000200: a46a 573f 57d6 233c 4051 0a3f b9fc 7f3f
00000210: b7c7 683f 3ed4 a33c 3311 d5be e5f2 7f3f
00000220: b7c7 683f 3ed4 a33c 3311 d5be e5f2 7f3f
00000230: b7c7 683f 3ed4 a33c 3311 d5be e5f2 7f3f
00000240: c381 103e 20b9 f53c 2670 7dbf 83e2 7f3f
00000250: b7c7 683f 3ed4 a33c 3311 d5be e5f2 7f3f
00000260: cfbd 41bf dbcb 233d 3055 27bf 94cb 7f3f
00000270: b7c7 683f 3ed4 a33c 3311 d5be e5f2 7f3f
00000280: 107c 75bf f5b6 4c3d 2c3c 913e 19ae 7f3f
00000290: b7c7 683f 3ed4 a33c 3311 d5be e5f2 7f3f
000002a0: 8c0f 8fbe d19c 753d b8cd 753f 128a 7f3f
000002b0: b7c7 683f 3ed4 a33c 3311 d5be e5f2 7f3f
000002c0: 0000 0000 0000 0000 0000 803f 0000 803f
000002d0: c381 103e 20b9 f53c 2670 7dbf 83e2 7f3f
000002e0: a46a 573f 57d6 233c 4051 0a3f b9fc 7f3f
000002f0: c381 103e 20b9 f53c 2670 7dbf 83e2 7f3f
00000300: b7c7 683f 3ed4 a33c 3311 d5be e5f2 7f3f
00000310: c381 103e 20b9 f53c 2670 7dbf 83e2 7f3f
00000320: c381 103e 20b9 f53c 2670 7dbf 83e2 7f3f
00000330: c381 103e 20b9 f53c 2670 7dbf 83e2 7f3f
00000340: cfbd 41bf dbcb 233d 3055 27bf 94cb 7f3f
00000350: c381 103e 20b9 f53c 2670 7dbf 83e2 7f3f
00000360: 107c 75bf f5b6 4c3d 2c3c 913e 19ae 7f3f
00000370: c381 103e 20b9 f53c 2670 7dbf 83e2 7f3f
00000380: 8c0f 8fbe d19c 753d b8cd 753f 128a 7f3f
00000390: c381 103e 20b9 f53c 2670 7dbf 83e2 7f3f
000003a0: 0000 0000 0000 0000 0000 803f 0000 803f
000003b0: cfbd 41bf dbcb 233d 3055 27bf 94cb 7f3f
000003c0: a46a 573f 57d6 233c 4051 0a3f b9fc 7f3f
000003d0: cfbd 41bf dbcb 233d 3055 27bf 94cb 7f3f
000003e0: b7c7 683f 3ed4 a33c 3311 d5be e5f2 7f3f
000003f0: cfbd 41bf dbcb 233d 3055 27bf 94cb 7f3f
0.0 0.0 0.0 0.0 0.0 0.0 0.0 0.0
0.0 0.0 1.0 1.0 0.0 0.0 1.0 1.0
0.84147096 0.009999833 0.5403023 0.99995 0.0 0.0 1.0 1.0
0.9092974 0.019998666 -0.41614684 0.9998 0.0 0.0 1.0 1.0
0.14112 0.029995501 -0.9899925 0.99955004 0.0 0.0 1.0 1.0
-0.7568025 0.039989334 -0.6536436 0.9992001 0.0 0.0 1.0 1.0
-0.9589243 0.04997917 0.2836622 0.99875027 0.0 0.0 1.0 1.0
-0.2794155 0.059964005 0.96017027 0.99820054 0.0 0.0 1.0 1.0
0.0 0.0 1.0 1.0 0.84147096 0.009999833 0.5403023 0.99995
0.84147096 0.009999833 0.5403023 0.99995 0.84147096 0.009999833 0.5403023 0.99995
0.9092974 0.019998666 -0.41614684 0.9998 0.84147096 0.009999833 0.5403023 0.99995
0.14112 0.029995501 -0.9899925 0.99955004 0.84147096 0.009999833 0.5403023 0.99995
-0.7568025 0.039989334 -0.6536436 0.9992001 0.84147096 0.009999833 0.5403023 0.99995
-0.9589243 0.04997917 0.2836622 0.99875027 0.84147096 0.009999833 0.5403023 0.99995
-0.2794155 0.059964005 0.96017027 0.99820054 0.84147096 0.009999833 0.5403023 0.99995
0.0 0.0 1.0 1.0 0.9092974 0.019998666 -0.41614684 0.9998
0.84147096 0.009999833 0.5403023 0.99995 0.9092974 0.019998666 -0.41614684 0.9998
0.9092974 0.019998666 -0.41614684 0.9998 0.9092974 0.019998666 -0.41614684 0.9998
0.14112 0.029995501 -0.9899925 0.99955004 0.9092974 0.019998666 -0.41614684 0.9998
-0.7568025 0.039989334 -0.6536436 0.9992001 0.9092974 0.019998666 -0.41614684 0.9998
-0.9589243 0.04997917 0.2836622 0.99875027 0.9092974 0.019998666 -0.41614684 0.9998
-0.2794155 0.059964005 0.96017027 0.99820054 0.9092974 0.019998666 -0.41614684 0.9998
0.0 0.0 1.0 1.0 0.14112 0.029995501 -0.9899925 0.99955004
0.84147096 0.009999833 0.5403023 0.99995 0.14112 0.029995501 -0.9899925 0.99955004
0.9092974 0.019998666 -0.41614684 0.9998 0.14112 0.029995501 -0.9899925 0.99955004
0.14112 0.029995501 -0.9899925 0.99955004 0.14112 0.029995501 -0.9899925 0.99955004
-0.7568025 0.039989334 -0.6536436 0.9992001 0.14112 0.029995501 -0.9899925 0.99955004
-0.9589243 0.04997917 0.2836622 0.99875027 0.14112 0.029995501 -0.9899925 0.99955004
-0.2794155 0.059964005 0.96017027 0.99820054 0.14112 0.029995501 -0.9899925 0.99955004
0.0 0.0 1.0 1.0 -0.7568025 0.039989334 -0.6536436 0.9992001
0.84147096 0.009999833 0.5403023 0.99995 -0.7568025 0.039989334 -0.6536436 0.9992001
0.9092974 0.019998666 -0.41614684 0.9998 -0.7568025 0.039989334 -0.6536436 0.9992001

mask_token f4 [1, 1, 8]
00000000: 1b20 cc3d 092b ebb8 7be3 b7bc 2679 aebc
00000010: 78df 32bd 426e 04bc a048 ab3c 357b d7ba
0.09967061 -0.00011213689 -0.022447338 -0.021298002 -0.043670148 -0.008082928 0.020908654 -0.0016439917

decoder_pos_embed f4 [1, 50, 8]
00000000: 0000 0000 0000 0000 0000 0000 0000 0000
00000010: 0000 0000 0000 0000 0000 0000 0000 0000
00000020: 0000 0000 0000 0000 0000 803f 0000 803f
00000030: 0000 0000 0000 0000 0000 803f 0000 803f
00000040: a46a 573f 57d6 233c 4051 0a3f b9fc 7f3f
00000050: 0000 0000 0000 0000 0000 803f 0000 803f
00000060: b7c7 683f 3ed4 a33c 3311 d5be e5f2 7f3f
00000070: 0000 0000 0000 0000 0000 803f 0000 803f
00000080: c381 103e 20b9 f53c 2670 7dbf 83e2 7f3f
00000090: 0000 0000 0000 0000 0000 803f 0000 803f
000000a0: cfbd 41bf dbcb 233d 3055 27bf 94cb 7f3f
000000b0: 0000 0000 0000 0000 0000 803f 0000 803f
000000c0: 107c 75bf f5b6 4c3d 2c3c 913e 19ae 7f3f
000000d0: 0000 0000 0000 0000 0000 803f 0000 803f
000000e0: 8c0f 8fbe d19c 753d b8cd 753f 128a 7f3f
000000f0: 0000 0000 0000 0000 0000 803f 0000 803f
00000100: 0000 0000 0000 0000 0000 803f 0000 803f
00000110: a46a 573f 57d6 233c 4051 0a3f b9fc 7f3f
00000120: a46a 573f 57d6 233c 4051 0a3f b9fc 7f3f
00000130: a46a 573f 57d6 233c 4051 0a3f b9fc 7f3f
00000140: b7c7 683f 3ed4 a33c 3311 d5be e5f2 7f3f
00000150: a46a 573f 57d6 233c 4051 0a3f b9fc 7f3f
00000160: c381 103e 20b9 f53c 2670 7dbf 83e2 7f3f
00000170: a46a 573f 57d6 233c 4051 0a3f b9fc 7f3f
00000180: cfbd 41bf dbcb 233d 3055 27bf 94cb 7f3f
00000190: a46a 573f 57d6 233c 4051 0a3f b9fc 7f3f
000001a0: 107c 75bf f5b6 4c3d 2c3c 913e 19ae 7f3f
000001b0: a46a 573f 57d6 233c 4051 0a3f b9fc 7f3f
000001c0: 8c0f 8fbe d19c 753d b8cd 753f 128a 7f3f
000001d0: a46a 573f 57d6 233c 4051 0a3f b9fc 7f3f
000001e0: 0000 0000 0000 0000 0000 803f 0000 803f
000001f0: b7c7 683f 3ed4 a33c 3311 d5be e5f2 7f3f
00000200: a46a 573f 57d6 233c 4051 0a3f b9fc 7f3f
00000210: b7c7 683f 3ed4 a33c 3311 d5be e5f2 7f3f
00000220: b7c7 683f 3ed4 a33c 3311 d5be e5f2 7f3f
00000230: b7c7 683f 3ed4 a33c 3311 d5be e5f2 7f3f
00000240: c381 103e 20b9 f53c 2670 7dbf 83e2 7f3f
00000250: b7c7 683f 3ed4 a33c 3311 d5be e5f2 7f3f
00000260: cfbd 41bf dbcb 233d 3055 27bf 94cb 7f3f
00000270: b7c7 683f 3ed4 a33c 3311 d5be e5f2 7f3f
00000280: 107c 75bf f5b6 4c3d 2c3c 913e 19ae 7f3f
00000290: b7c7 683f 3ed4 a33c 3311 d5be e5f2 7f3f
000002a0: 8c0f 8fbe d19c 753d b8cd 753f 128a 7f3f
000002b0: b7c7 683f 3ed4 a33c 3311 d5be e5f2 7f3f
000002c0: 0000 0000 0000 0000 0000 803f 0000 803f
000002d0: c381 103e 20b9 f53c 2670 7dbf 83e2 7f3f
000002e0: a46a 573f 57d6 233c 4051 0a3f b9fc 7f3f
000002f0: c381 103e 20b9 f53c 2670 7dbf 83e2 7f3f
00000300: b7c7 683f 3ed4 a33c 3311 d5be e5f2 7f3f
00000310: c381 103e 20b9 f53c 2670 7dbf 83e2 7f3f
00000320: c381 103e 20b9 f53c 2670 7dbf 83e2 7f3f
00000330: c381 103e 20b9 f53c 2670 7dbf 83e2 7f3f
00000340: cfbd 41bf dbcb 233d 3055 27bf 94cb 7f3f
00000350: c381 103e 20b9 f53c 2670 7dbf 83e2 7f3f
00000360: 107c 75bf f5b6 4c3d 2c3c 913e 19ae 7f3f
00000370: c381 103e 20b9 f53c 2670 7dbf 83e2 7f3f
00000380: 8c0f 8fbe d19c 753d b8cd 753f 128a 7f3f
00000390: c381 103e 20b9 f53c 2670 7dbf 83e2 7f3f
000003a0: 0000 0000 0000 0000 0000 803f 0000 803f
000003b0: cfbd 41bf dbcb 233d 3055 27bf 94cb 7f3f
000003c0: a46a 573f 57d6 233c 4051 0a3f b9fc 7f3f
000003d0: cfbd 41bf dbcb 233d 3055 27bf 94cb 7f3f
000003e0: b7c7 683f 3ed4 a33c 3311 d5be e5f2 7f3f
000003f0: cfbd 41bf dbcb 233d 3055 27bf 94cb 7f3f
0.0 0.0 0.0 0.0 0.0 0.0 0.0 0.0
0.0 0.0 1.0 1.0 0.0 0.0 1.0 1.0
0.84147096 0.009999833 0.5403023 0.99995 0.0 0.0 1.0 1.0
0.9092974 0.019998666 -0.41614684 0.9998 0.0 0.0 1.0 1.0
0.14112 0.029995501 -0.9899925 0.99955004 0.0 0.0 1.0 1.0
-0.7568025 0.039989334 -0.6536436 0.9992001 0.0 0.0 1.0 1.0
-0.9589243 0.04997917 0.2836622 0.99875027 0.0 0.0 1.0 1.0
-0.2794155 0.059964005 0.96017027 0.99820054 0.0 0.0 1.0 1.0
0.0 0.0 1.0 1.0 0.84147096 0.009999833 0.5403023 0.99995
0.84147096 0.009999833 0.5403023 0.99995 0.84147096 0.009999833 0.5403023 0.99995
0.9092974 0.019998666 -0.41614684 0.9998 0.84147096 0.009999833 0.5403023 0.99995
0.14112 0.029995501 -0.9899925 0.99955004 0.84147096 0.009999833 0.5403023 0.99995
-0.7568025 0.039989334 -0.6536436 0.9992001 0.84147096 0.009999833 0.5403023 0.99995
-0.9589243 0.04997917 0.2836622 0.99875027 0.84147096 0.009999833 0.5403023 0.99995
-0.2794155 0.059964005 0.96017027 0.99820054 0.84147096 0.009999833 0.5403023 0.99995
0.0 0.0 1.0 1.0 0.9092974 0.019998666 -0.41614684 0.9998
0.84147096 0.009999833 0.5403023 0.99995 0.9092974 0.019998666 -0.41614684 0.9998
0.9092974 0.019998666 -0.41614684 0.9998 0.9092974 0.019998666 -0.41614684 0.9998
0.14112 0.029995501 -0.9899925 0.99955004 0.9092974 0.019998666 -0.41614684 0.9998
-0.7568025 0.039989334 -0.6536436 0.9992001 0.9092974 0.019998666 -0.41614684 0.9998
-0.9589243 0.04997917 0.2836622 0.99875027 0.9092974 0.019998666 -0.41614684 0.9998
-0.2794155 0.059964005 0.96017027 0.99820054 0.9092974 0.019998666 -0.41614684 0.9998
0.0 0.0 1.0 1.0 0.14112 0.029995501 -0.9899925 0.99955004
0.84147096 0.009999833 0.5403023 0.99995 0.14112 0.029995501 -0.9899925 0.99955004
0.9092974 0.019998666 -0.41614684 0.9998 0.14112 0.029995501 -0.9899925 0.99955004
0.14112 0.029995501 -0.9899925 0.99955004 0.14112 0.029995501 -0.9899925 0.99955004
-0.7568025 0.039989334 -0.6536436 0.9992001 0.14112 0.029995501 -0.9899925 0.99955004
-0.9589243 0.04997917 0.2836622 0.99875027 0.14112 0.029995501 -0.9899925 0.99955004
-0.2794155 0.059964005 0.96017027 0.99820054 0.14112 0.029995501 -0.9899925 0.99955004
0.0 0.0 1.0 1.0 -0.7568025 0.039989334 -0.6536436 0.9992001
0.84147096 0.009999833 0.5403023 0.99995 -0.7568025 0.039989334 -0.6536436 0.9992001
0.9092974 0.019998666 -0.41614684 0.9998 -0.7568025 0.039989334 -0.6536436 0.9992001

patch_embed.proj.weight f4 [8, 1, 4, 4]
00000000: 2ab1 533d 7cf5 ccbc 7689 08be 1cce 1d3e
00000010: 5f5e 063f d9e9 bc3e 5864 ce3d b0ee 53be
00000020: 8805 78bb f863 903e c947 8dbe 812d 963e
00000030: ce0b 123e 249e 24be 730a babd 58dd d13d
00000040: 331c fb3e f6bb 1abe 591a 3f3e fd4b 7fbe
00000050: dbf5 24be 9d1c 8dbe 2da8 f0be a498 9cbd
00000060: 70db 853d 1c49 9bbe cdc6 c63c bbeb 0e3e
00000070: cf7f 823e 420c ae3d d9dc bf3c 8264 813d
00000080: aa67 06be 1203 623e e8a4 a73e 78d6 8f3e
00000090: 0917 32bd a256 993d e2e2 41be d285 673e
000000a0: c78c debe 7101 8c3e d45d 73be da02 e8be
000000b0: 8997 a6be aa2a a3be 05c2 9dbe ac3f b7be
000000c0: 2a50 b63e e44b e03d 6264 903e b10e b93e
000000d0: 492e b1bd ed64 88bd 229b 993d 3b2b e7bc
000000e0: ea0c db3e 70d0 25ba 5aa9 aa3d 4c69 d3bd
000000f0: 823d 13be d95d 81be 39a7 75be 3e64 7b3e
00000100: 0bf4 6f3e d6c3 95be 0625 16be aecd 1bbe
00000110: 0753 5e3e c2df d7be 0d6e b2be 84ae 8abe
00000120: b0c2 95be f8c8 af3d 8c4a b1be 6f8f 02bf
00000130: 3a3c da3d 1785 0ebe 5bba e83d de40 f9be
00000140: a193 1dbf 90d9 93be 9547 75be 518d 01bf
00000150: 77a3 7bbe e652 63be ef0f 753e c0da 3ebc
00000160: d331 cf3d 396f 7e3e 3d20 4abd 9e6d c5be
00000170: e253 1fbd f755 5dbe c44b 6a3e d5fc 8bbe
00000180: 2b6d 2dbe 8ef2 31be 382e 80be 906d b7be
00000190: bc07 aa3d 5b4e 07bd 349f 493e e027 89bd
000001a0: 6cc2 e3be b4bd 553d c521 afbe fca4 783e
000001b0: 825f da3c 6723 bcbd 7d49 d9be b619 6fbd
000001c0: edb5 bcbe 9146 083d d65f 3c3e 3e8f 86be
000001d0: 3e26 e6be ec00 893e 81df cdbe 882d b9be
000001e0: b4c9 493e 0eda f3be ad03 c4bb af28 8e3e
000001f0: 044a 6abd e2c0 163e 5bd9 c73c b94f 03bf
0.05168263 -0.0250194 -0.13333687 0.15410656 0.5248775 0.36897162 0.10077733 -0.20696521
-0.0037845094 0.2820127 -0.2759383 0.29331592 0.14262316 -0.16075951 -0.09084024 0.10247296
0.49044952 -0.15110764 0.18662395 -0.24931331 -0.16109411 -0.27560893 -0.47003308 -0.076463014
0.06535995 -0.30329216 0.024264717 0.13957112 0.25488135 0.08498432 0.023420738 0.063179985
-0.13125482 0.22071484 0.32743 0.28093314 -0.043479 0.07487227 -0.18934205 0.22609642
-0.4346678 0.2734485 -0.23766261 -0.45314676 -0.32537487 -0.31868488 -0.30812088 -0.35790765
0.35608035 0.10951975 0.28201586 0.3614402 -0.08651406 -0.06659875 0.07500292 -0.028218856
0.4278329 -0.000632531 0.083330825 -0.10322818 -0.14378932 -0.25266913 -0.23989572 0.24549958
0.23432939 -0.29250973 -0.14662561 -0.1521518 0.2171136 -0.421629 -0.34849587 -0.2708627
-0.29250097 0.085832536 -0.34627187 -0.5100011 0.106560186 -0.13917957 0.113636695 -0.48682302
-0.6155339 -0.28876925 -0.23953088 -0.50606257 -0.24574076 -0.22199592 0.2393186 -0.011648834
0.10116925 0.24847116 -0.04934715 -0.38560194 -0.038898356 -0.21614824 0.22880465 -0.27341333
-0.16936176 -0.17377684 -0.25035262 -0.35825777 0.083022565 -0.03303371 0.19689637 -0.06697059
-0.4448427 0.052182868 -0.34205452 0.24281687 0.02665687 -0.0918644 -0.4243888 -0.05837413
-0.36857548 0.033270422 0.18395934 -0.2628116 -0.4495105 0.26758516 -0.40209582 -0.3616755
0.1970585 -0.476273 -0.0059818835 0.27765414 -0.057199493 0.14722016 0.024395635 -0.5129352

patch_embed.proj.bias f4 [8]
00000000: fc05 24be 9498 533e 950b 903d 1f21 18be
00000010: 8312 553e c22b da3d 38f0 f1bb cfb4 933c
-0.16017908 0.20663673 0.07033459 -0.14856385 0.20807843 0.106528774 -0.0073833726 0.018030552

blocks.0.norm1.weight f4 [8]
00000000: 9f02 623f aa90 733f d737 5c3f fa2a 643f
00000010: 31ba 663f 9155 783f 4aea 683f 4373 693f
0.8828525 0.95142615 0.86022705 0.8912808 0.90127856 0.97005564 0.90982497 0.911915

blocks.0.norm1.bias f4 [8]
00000000: e789 86bc 9664 88bc 8193 963d daf2 cebc
00000010: 7b6d 1e3d e940 d0bc 6db3 57bd a21a b53b
-0.016423179 -0.016649526 0.07352353 -0.025262285 0.038678627 -0.025421577 -0.052661348 0.0055268565

blocks.0.attn.qkv.weight f4 [24, 8]
00000000: 111c 0dbe ba66 21be ba74 babd 6171 a0be
00000010: a1c2 de3d 5b08 843e e198 a93d 6e6c 993e
00000020: 3be6 5cbd ad02 463d d83c 1c3d f5da a3be
00000030: 6a76 91bd c25c d13e b481 a6be ad25 b4bd
00000040: 75e8 b53d d324 b6b9 02a1 17be b068 15be
00000050: 3b22 5ebe b3ca a23e 175e d23e 372d 893e
00000060: 9848 2a3e 5c51 cb3e c4c1 ff3d 2c2c 79bd
00000070: ac04 633e 47e4 493d 29f1 d93e 7541 c2be
00000080: f35f cdbd fdf4 c7be bc6c 35be cff4 9ebe
00000090: d27e d8bc 3ff4 efbe 42c6 a13e cbab 91bd
000000a0: 1643 77bd 8956 e7bd 38cc 89be eb10 423e
000000b0: 89c9 af3e 5aab a93e 9270 b73e d530 8dbe
000000c0: bba2 663e 82f8 803e 391e 35bd 5c5d 2bbc
000000d0: 40c4 75be fe9f 80bd a772 c33e cfbf 1ebe
000000e0: 4956 f6bd e737 a8bc 1bc1 64be 3f2d c8be
000000f0: be24 2ebe 8053 d3bd ce03 5e3e d43b c0be
00000100: b5cc 843e e4b4 823c db99 3cbe 2a61 e13e
00000110: 6ba1 30be 50d9 b5be 0570 aa3e 178c 98bd
00000120: 2eb0 ac3e 0bce 633e aea7 80be 423d 6e3e
00000130: aa56 82be 6109 97bd bb57 79be 34d4 b13d
00000140: 7c71 203e f01c fabe 0379 893e 9dfb 013c
00000150: d3d0 5e3e b712 413d 5988 a93d 015f 37be
00000160: 7982 983d 31d3 003d 19d4 e9be 3ebf 4cbe
00000170: 38c6 41be ea59 1b3e cc30 363e fd0b 383d
00000180: 93e0 663e 4f7a e2bc 1d02 8c3e 9716 a53e
00000190: d22c 483d 49d6 8f3e 6af9 d13c 4f09 0cbf
000001a0: 0438 b53e a414 67bd b44d 983d 04f1 b8be
000001b0: fd60 4b3e f5ea 7e3e 0fca 6abd fbed 32be
000001c0: 2891 00be adaf cfbd 80e9 e4be 111d c4bd
000001d0: 22dd b23d 3e8d 513e bce5 363d 79f0 853e
000001e0: 78e1 ba3e 7cc5 9dbe d427 0ebe 467a 4dbe
000001f0: 80cc 013d 594b 443e f13b 2a3e 844d 64bd
00000200: 3092 8f3e bb7a b8bc 418d 5e3e 2a21 b2be
00000210: 4539 ae3e 55c8 a23e 90ad d03c b53b 8fbd
00000220: 4c99 c93e 00a7 a93e 7696 3ebe f399 9e3e
00000230: 5a84 34bd 32e7 af3e 128a 883e 2c2a c63c
00000240: fe17 3dbe c762 263d 2f88 b23e fde4 60be
00000250: d341 e6bc f138 76be fcc5 49be 618f ba3e
00000260: 6275 923e f1df 653d 4a01 a23e 383d 6a3d
00000270: be14 73be 0621 54be facc 2cbd 174d a7be
00000280: faef 0bbd 3dde 7d3e 89bd c9bd 5790 92bd
00000290: 3ae9 573e 6b89 913e 1353 203c f506 c5bd
000002a0: 55af 0d3d e619 143d 921c 993b 1655 0a3e
000002b0: 7e64 413e 40c4 83be 592b 86bd c7c9 abbc
000002c0: cacd 7f3e b5ac 14be 583f 023e 78b5 ec3d
000002d0: 479c a83e d8ae c9be 63b8 ab3d 22ac 46be
000002e0: 7012 423e 774d 93bd 8a11 9cbc b2a2 3a3e
000002f0: e2bc babe 53cf b53c 0ec2 c2bd 1456 00be
-0.13780238 -0.15761843 -0.09104295 -0.313365 0.10876966 0.25787625 0.082811125 0.29965538
-0.053930502 0.048342396 0.038143963 -0.32002988 -0.07102664 0.4089108 -0.3252083 -0.087962486
0.08882228 -0.0003474118 -0.14807513 -0.14590716 -0.21692745 0.31795272 0.4108741 0.2679231
0.16629255 0.3971051 0.1248813 -0.06083314 0.22169751 0.049289968 0.42566803 -0.37940565
-0.100280665 -0.390541 -0.1771726 -0.3104615 -0.02642766 -0.46866032 0.3159657 -0.07112845
-0.060366713 -0.11295802 -0.2691362 0.18951766 0.34333447 0.33138543 0.35828072 -0.27576318
0.22523014 0.25189596 -0.044218276 -0.01045927 -0.24000645 -0.06280516 0.3817341 -0.15502857
-0.12028176 -0.020534469 -0.22339289 -0.3909702 -0.17006204 -0.10318661 0.21681139 -0.37545645
0.2593743 0.015955396 -0.18418066 0.44019443 -0.17249076 -0.3551736 0.3328859 -0.07448595
0.33728164 0.22246568 -0.2512793 0.23265556 -0.25456744 -0.07374836 -0.24349873 0.08683053
0.15668291 -0.48850203 0.26850137 0.007933524 0.21759348 0.04713699 0.082779594 -0.17907335
0.07446761 0.031451408 -0.4566963 -0.19994828 -0.1892327 0.15171018 0.17792052 0.044933308
0.22546606 -0.027646212 0.27345362 0.32243797 0.04887087 0.28093174 0.025631625 -0.54701704
0.353943 -0.05641617 0.07436696 -0.3612138 0.19861217 0.24894316 -0.057321604 -0.17473595
-0.12555373 -0.10140929 -0.44709396 -0.095758565 0.08733584 0.20464036 0.044652686 0.2616003
0.36500144 -0.3081473 -0.1388238 -0.20066175 0.031689167 0.19169368 0.16624428 -0.055737987
0.2804122 -0.02251946 0.21733572 -0.34790927 0.34028068 0.31793466 0.025473386 -0.0699381
0.3937477 0.33135223 -0.18612084 0.3097683 -0.044071533 0.34356076 0.2666784 0.024190031
-0.18466184 0.040621545 0.34869525 -0.21962352 -0.02810756 -0.24045159 -0.19704431 0.36437514
0.2860518 0.05612177 0.31641608 0.05718729 -0.23738381 -0.20715722 -0.04218767 -0.32676002
-0.034164406 0.24791808 -0.09850604 -0.07156437 0.21085063 0.28425154 0.009785431 -0.096204676
0.034591038 0.03615751 0.0046725953 0.1350902 0.18885991 -0.25735664 -0.06551237 -0.020970238
0.24980846 -0.14519008 0.12719476 0.1155805 0.3293173 -0.39391208 0.08384778 -0.19401601
0.18952346 -0.071925096 -0.019051332 0.18226126 -0.3647223 0.022193586 -0.09509669 -0.12532836

blocks.0.attn.qkv.bias f4 [24]
00000000: 7457 debc b377 053d 3ad7 e8bd e497 c9bc
00000010: 2a4a 953d 27c5 5bbd 8eb1 17be 5d04 ddbc
00000020: ca27 27b7 09ab 7db8 5e7c 8c36 175d b838
00000030: 1464 bcb7 4d6c 6538 afab 1938 6713 1838
00000040: 38ec 523b ca41 0dbd a1f3 f43c 76b3 913a
00000050: 6375 373c e495 80bb 61e8 423c 269d 46bc
-0.02714131 0.032584857 -0.11369176 -0.02460856 0.07289536 -0.053654816 -0.14813825 -0.02697962
-9.96324e-06 -6.047919e-05 4.1868034e-06 8.791143e-05 -2.2457949e-05 5.4698718e-05 3.6637935e-05 3.6257694e-05
0.0032184254 -0.03448657 0.029901328 0.0011116106 0.011197421 -0.0039241184 0.011896224 -0.012122428

blocks.0.attn.proj.weight f4 [8, 8]
00000000: 1cce b0be 6eb0 ff3d 2155 73be 5d72 6fbc
00000010: e5b7 f63e 91a0 b93c bac2 6b3c 6569 efbe
00000020: 838a 40bd a95c ef3e 67c9 8dbe f42a 133e
00000030: bb47 b33c 4140 e03e 72c5 ce3e 69d3 723e
00000040: dcc7 b8bd 5500 93be f2c5 153e cc04 3f3d
00000050: d7d1 9a3d 3e85 0c3f f755 373d 38c7 7bbc
00000060: a1ae 643e 5a49 893e cd5a 99be d5f7 08bb
00000070: 2bce 38bd d0ae 5c3e 0397 17be 7e16 e23d
00000080: 2b5c 243e 39b9 e83e 848a 70bc 9791 81bd
00000090: f5ad b7be 4e5e 06bf 0adf d03e 7bc9 b2bd
000000a0: a400 91be 1126 493e a295 003e 5649 8abc
000000b0: 1257 b83d ecf8 a8be 167e 9e3e 2d2b bebe
000000c0: a2ef 6e3e b093 69be e4ae 573e d722 67be
000000d0: 6bf8 a7bd e0a6 423d d8bd 9dbe b1fb fdbd
000000e0: 8049 b23d 0f8c 453e dac0 07be fe10 73be
000000f0: eb25 5ebe 7eae b73e 1c9d 963e 9beb 143f
-0.3453225 0.12484823 -0.23762943 -0.014614669 0.48187175 0.022659572 0.014389688 -0.46760097
-0.047007095 0.46750382 -0.2769272 0.14371854 0.02188479 0.43799022 0.40385014 0.23713459
-0.09022495 -0.2871119 0.14626291 0.046635434 0.07559555 0.5489081 0.044759717 -0.015367322
0.2233224 0.26813775 -0.29952088 -0.0020899673 -0.045118492 0.2155106 -0.148037 0.11039446
0.16050784 0.45453814 -0.014681462 -0.06326597 -0.35874906 -0.5248765 0.40795165 -0.087298356
-0.283208 0.19643427 0.1255708 -0.016880672 0.09000982 -0.33002412 0.3095557 -0.37142316
0.233336 -0.22810245 0.21062809 -0.22571884 -0.08201679 0.047522426 -0.30808902 -0.12401522
0.08705425 0.1929171 -0.13257161 -0.23736951 -0.21694152 0.35875314 0.2941674 0.58172005

blocks.0.attn.proj.bias f4 [8]
00000000: 0b76 d8bb 6447 b63b 935a ed3c a2f7 7ebd
00000010: d894 773c 57a0 37ba 13bd 573d 88b2 b73a
-0.0066058687 0.0055627096 0.028973853 -0.06224788 0.015111171 -0.00070047885 0.05267055 0.0014014998

blocks.0.norm2.weight f4 [8]
00000000: 326d 6c3f 12cb 713f d84f 673f b4a9 773f
00000010: e28e 7b3f 43d1 833f e555 663f 65c7 6a3f
0.9235412 0.94450486 0.90356207 0.9674332 0.98264897 1.0298237 0.89974815 0.917105

blocks.0.norm2.bias f4 [8]
00000000: a9d8 99bc aa11 1e3c 033e 3fbb e387 9abc
00000010: 2671 88bc 1b37 72bc d0da 0fbc b9b0 863b
-0.01878007 0.009647766 -0.002918125 -0.018863624 -0.016655516 -0.014783646 -0.008780196 0.0041104225

blocks.0.mlp.fc1.weight f4 [32, 8]
00000000: 14ba b4be f06d 8cbe a3b3 803e 1541 1dbd
00000010: 20a3 9dbd f7c0 54be 8245 3d3e 75b7 073d
00000020: f383 7a3e b861 92be 0446 93bd adf1 02be
00000030: d793 3fbe 8923 9fbd d763 033e 1717 333d
00000040: ae73 9ebe 7c41 d63d 0d80 8abe 6647 4dbd
00000050: 56e0 3d3e 4b10 84be 4792 883e e16b 2b3e
00000060: a7b0 8e3e 2135 6dbe ae8c 643e f388 52be
00000070: 57ba 9a3e a839 b4be 50b9 073e b8e4 593c
00000080: 1cd4 1a3e 945d 5d3e c33e 923e d235 543e
00000090: 8c5c 4dbe 7714 223e 12ec ffbc 7b00 bcbd
000000a0: 8e7d 9c3e a1e4 f1bd a565 89be a130 1abe
000000b0: 4548 863e 3f97 dfbd 85fd 873c 818e 223e
000000c0: 5ef9 ac3d 9c34 84be ebe7 e13c 65a3 a2be
000000d0: c2cb 7f3d 5169 343e 5efb 54be b518 9f3e
000000e0: fded 8abe dd75 a8be b4f7 24be 94d2 af3e
000000f0: ffbc 59be d6db 943e 785d d93d 6166 0ebe
00000100: 2131 98be 6aaa 253e aa1f 1c3d 6b1c 1bbd
00000110: bf63 5bbe 4b1a a1be 04d4 11be 1f85 77be
00000120: 4d1d 1abd a51f 4f3e 071a 103e f3e8 923e
00000130: bd5c 27be b516 123d ad28 2fbe 66c2 273e
00000140: e562 5d3e 5980 213d 175d 903e 6fce 92be
00000150: 9c53 443e f50b e1bd 4630 543d 388c 0cbe
00000160: 56fa 3d3d f80b 16be 4478 16bd 87f5 f33d
00000170: 7580 cb3d a658 e13e de84 4bbe 7ce5 063e
00000180: d62b 82be ba9f 3ebe dcd3 9e3e 18f2 c03d
00000190: da99 ccbd 4e7f 483e 58e8 4c3b 9025 5fbd
000001a0: a884 0b3e 3e25 873e 0bb0 eb3d ace3 b13e
000001b0: ee2a 93be 2f98 2a3e eee3 8fbe 736c 85be
000001c0: 07d9 acbe d71f d9bd ba99 ce3d dc5e f5bd
000001d0: 2814 d63e 6c07 f4bd fa25 2b3e e576 88be
000001e0: 51ab 213e 8379 debb bf87 c4bd 5bf5 a3be
000001f0: 7dbf fe3e 0094 5a3e 0d2a b23c 6d21 983e
00000200: 74f9 31be 63b0 b43d 7eb5 c43d 3029 5fbe
00000210: 86b6 88bc 2fc5 a1bd ed3f 3abe bb7e 6d3e
00000220: 25ed b1be 80eb cfbd 11fa cabd 88bf bbbe
00000230: f31b a0be d7d4 87bd de4a a6bd aaff bbbd
00000240: a465 1bbc 9f8b ad3e 49c6 0f3d ad4f 693e
00000250: 2bf3 913c 8fbf e5be 8c7b 613e 47df d73d
00000260: e549 6ebc 9e73 66be fd9b 563e 8376 9bbd
00000270: b3a3 78bd b4d6 2c3e 0cb0 7a3d 0008 823e
00000280: 4de8 ac3d 858c 3b3e 849f ae3e 6107 95bb
00000290: b3a7 ecbd 06e8 6cbe 0225 8ebe 7361 413e
000002a0: 0256 91be 440c 293e a3b7 b03e bf42 913e
000002b0: 3d52 4d3e 0ce4 02bc 76fc 7a3a 57d4 7bbe
000002c0: 908e 9abe 08ba 9f3e 2d82 65be 1558 553e
000002d0: 6e99 de3e a8b4 473d a4e0 2cbe 3c68 8bbe
000002e0: 934f 96bd dcab b5be 10ec 913e d762 41be
000002f0: 3fdb 033e 8626 c03d 7518 d03e fc66 8a3e
00000300: 5dd9 7ebe e9fa 73be dcf1 5f3e 860c 6abe
00000310: a40e cb3d d230 8cbe 6b01 9dbe 6ee0 94bc
00000320: b65b 88be a635 0dbe fa37 2a3e ce47 d1bc
00000330: 0be8 83be b202 92be 917c 79be c99b 2abe
00000340: bfe8 c5bd 6b29 fcbc 24aa cebd d4a3 383e
00000350: 0f42 85bc f088 81be 7d9b 66be b18f 0abe
00000360: e512 37be 03c2 623e bea9 7f3e 97f6 093e
00000370: a06e bd3d 0f13 abbd e104 523e 1be4 f43c
00000380: 7232 933e 730d 80be c660 72bd 2702 b5bd
00000390: 64ab 2cbe 9647 703e 5086 b23e 41ee 98be
000003a0: 93fe 36be 56b2 95be a331 683e 0c1d 96bd
000003b0: 8384 7c3e 26eb 6b3e 63b8 723d 69e4 a93d
000003c0: bd41 82be d64c 6ebe d528 9c3c c73d e13e
000003d0: 96cd d9bd 39f2 b93e 1bcd 213e f389 5fbe
000003e0: 0199 8e3e 03d3 33be 874e 0b3e 379a 6ebd
000003f0: b29d 123e 7c88 99be 8fe9 2ebe fe6e cbbe
-0.35298216 -0.27427626 0.25137052 -0.038392145 -0.07697129 -0.20776735 0.18483546 0.033133943
0.24464397 -0.28590178 -0.07191089 -0.12787504 -0.1870874 -0.0777045 0.12831055 0.043723192
-0.30947632 0.10461709 -0.2705082 -0.05011692 0.18542609 -0.2579368 0.266741 0.16740371
0.2786915 -0.23164798 0.2231929 -0.20560054 0.3022029 -0.35200238 0.13254285 0.01329916
0.15119976 0.21617728 0.28563508 0.20723656 -0.20054835 0.15828119 -0.031240497 -0.09179779
0.3056454 -0.11811186 -0.2683536 -0.15057613 0.26227012 -0.1091752 0.01660038 0.15874673
0.084460005 -0.25821388 0.027576407 -0.31765285 0.062450178 0.176183 -0.20799014 0.31073537
-0.27134696 -0.32902423 -0.16110116 0.34340346 -0.21263503 0.29073972 0.10613531 -0.13906242
-0.29724982 0.16178289 0.038116135 -0.0378689 -0.21424769 -0.31465372 -0.14241034 -0.24171875
-0.0376256 0.20226915 0.14072429 0.2869335 -0.1634397 0.035666186 -0.1710536 0.16382751
0.21619757 0.039429042 0.28196022 -0.2867312 0.1917252 -0.10988609 0.05180385 -0.13725364
0.046381317 -0.14653003 -0.036735788 0.11912065 0.099366106 0.44012946 -0.19874904 0.13173479
-0.2542407 -0.18615618 0.3102101 0.09421176 -0.09990282 0.19579813 0.0031266417 -0.05447918
0.13624823 0.263956 0.11508187 0.34744012 -0.2874369 0.16659616 -0.28103584 -0.26059303
-0.3375933 -0.10601776 0.10087915 -0.119809836 0.41812253 -0.11915478 0.16713706 -0.2665321
0.15788008 -0.0067893877 -0.09596204 -0.3202313 0.4975547 0.2134552 0.021748567 0.29713002
-0.17380315 0.088227056 0.096049294 -0.21793056 -0.016688596 -0.07898938 -0.18188448 0.23192875
-0.3475124 -0.1015234 -0.09910978 -0.36669564 -0.31271324 -0.06632393 -0.081197485 -0.091796234
-0.009484682 0.33895585 0.03510121 0.227843 0.017816147 -0.4487271 0.22019786 0.10540634
-0.014543985 -0.22505042 0.20957942 -0.07590964 -0.06070299 0.16878778 0.061203048 0.2539673
0.08442745 0.18315323 0.34106076 -0.004547999 -0.115554236 -0.23135385 -0.2776261 0.1888483
-0.2838593 0.16508585 0.34515104 0.28371236 0.20050903 -0.007988941 0.0009574363 -0.2459272
-0.30186892 0.31196618 -0.2241294 0.20834382 0.43476433 0.04875627 -0.16882569 -0.27227962
-0.07339396 -0.3548268 0.28500414 -0.1888536 0.12876604 0.09382348 0.4064366 0.27031696
-0.24887605 -0.23826183 0.21869606 -0.2285634 0.09914902 -0.27380997 -0.30665144 -0.018173423
-0.2663247 -0.13789997 0.16622916 -0.025546934 -0.25762972 -0.2851768 -0.24363925 -0.1666099
-0.096635334 -0.030781468 -0.100910455 0.18031245 -0.01626685 -0.25299788 -0.22520252 -0.13531376
-0.17878301 0.22144322 0.24967095 0.13472973 0.09249616 -0.083532445 0.20509674 0.029893925
0.28749424 -0.2501026 -0.05917432 -0.08838301 -0.16862255 0.23464808 0.34868097 -0.29869273
-0.1787055 -0.29237622 0.22675185 -0.07329759 0.24659924 0.23038921 0.059257876 0.08295519
-0.2544078 -0.23271498 0.019062439 0.43992445 -0.106349155 0.36317614 0.15800898 -0.21829967
0.27851108 -0.17560963 0.13604175 -0.05825254 0.14317968 -0.29986942 -0.17081283 -0.39733118

blocks.0.mlp.fc1.bias f4 [32]
00000000: a06b 4c3c 3e07 2c3a 3029 09bc 0ea9 6e3c
00000010: 0551 993c 8bd4 dcba cc60 eb3c 6dbe 7e3b
00000020: 234f 2d3b e03d e33b d3b9 3cbc fb59 00bb
00000030: 9191 0abd 944c 71bc 33c9 193d d242 113c
00000040: 32f4 a43c 23af 293c a97e 2dbc f3c0 0abd
00000050: 7a27 33bb 730f 9c3b 2f4e 19bd 2fb5 593b
00000060: 8d20 26bb da95 013d bdae aa3a 2dff 8dbb
00000070: 76bc 403c 7b5b 1ebd a2f1 203c 03d6 76bd
0.012476832 0.00065623585 -0.008371636 0.014566673 0.018715391 -0.0016848011 0.02873268 0.0038870827
0.0026444874 0.0069348663 -0.011518913 -0.0019584883 -0.03383023 -0.01472773 0.037545394 0.008866029
0.020135973 0.010356697 -0.01058928 -0.033875417 -0.0027336762 0.004762584 -0.037428077 0.0033219566
-0.0025348992 0.03163705 0.0013022047 -0.004333398 0.011763683 -0.03866146 0.009823235 -0.06026269

blocks.0.mlp.fc2.weight f4 [8, 32]
00000000: c703 8c3e 00ed 20be ec78 15bd e364 f33c
00000010: 5286 7cbd 34b3 bb3c 4a28 a7be 3c37 20be
00000020: bce6 a0bd da93 863d 9b31 4e3e 3850 573d
00000030: 564b fd3d 2630 ebbd 87b1 a23e 45cf e4be
00000040: b8fe 87bd 8be8 39be e816 503e 1ff3 48bd
00000050: 163c 983e 82b6 543e a1d8 abbd 5719 b33c
00000060: 7aa7 3cbe a15d 243e a7e0 173e 968f 8b3e
00000070: 52c4 aa3e 8256 8bbe 78f7 ff3d 197c bd3e
00000080: 7186 b63e 4862 23be a836 6f3d 45e4 ae3e
00000090: c9c6 3d3d a555 8bbe 7b99 f73d 2064 22be
000000a0: ad85 cbbd 0ed0 7f3e c8c4 9ebd 3786 413e
000000b0: ecb4 88be abf9 b2bc 18c7 2a3e 93cc 163e
000000c0: f8da 343e 4431 7a3e 18bf dabe 5037 063d
000000d0: d8a2 9c3e b0b2 a03d 2b6e bc3b 8fb3 003e
000000e0: 97ab 18be 016d 413e 1cdf ad3d e286 64be
000000f0: 284b 8a3e f8e0 70be 9278 a7be 8c5f ba3d
00000100: 1062 43bd 6a9d a8be 27fa dc3c d375 21bd
00000110: 4132 073e e6fb 6bbe d67b 843e 4167 6bbe
00000120: 5432 7bbe e2fe af3e 9a29 003e 7a6e 933d
00000130: b4a7 393e cb07 753e 74a8 723e 992b 743e
00000140: a870 46bd 5c74 5f3e a118 9f3e 7f23 8cbe
00000150: 7be8 6dbc 75a2 89be 0663 dbbe 9ada 9b3e
00000160: bb7a 013e d63b 59bd 88ab 03be 7c18 843e
00000170: 326f 19bc a08a ecbb 089d fabd 02ed a6be
00000180: d27b 683e 3853 ecbd 5865 103e 1c6f a8be
00000190: 36b0 8bbe 3590 cabd d995 b9be 71e0 b2be
000001a0: eaac 6cbe a53d 7cbe 9e6b 58bd b948 5f3d
000001b0: d071 3e3e 0713 81be 79b2 ac3e 4ff1 2abe
000001c0: 688c a1be e20d 0dbd 4705 933e 257d ad3b
000001d0: 6fe8 543e ec46 b13e 067c 973e 3a78 973e
000001e0: 1864 fc3d 4c98 f3bd 3897 e7bd 97d5 753e
000001f0: 77bd af3e ece3 4a3d 4591 3fbe 63f5 47be
00000200: 5853 e93d 8738 87bd 1fcb 7bbe 6d0f 5a3e
00000210: 11f1 b43d 4a12 b5bd efe7 6fbe 6830 b03d
00000220: ddf2 babe a67a 9bbe c564 00be 7bf4 323e
00000230: 72c7 ae3d 965a 3fbe 01a6 76bd 0d8d bbbe
00000240: 4af4 89be 9f25 f43d 3295 92be 1a23 88be
00000250: 34dd a63c 1be8 9cbe c850 f33a c966 893e
00000260: 0392 433e 66cc 393e 4f34 993e 6d08 9cbe
00000270: 5e05 1fbe 8311 8ebe 0768 143e 3f1c 8e3e
00000280: 6235 bdbe 4224 133e 632d 303e 0437 33be
00000290: 98fd 75be 3e0c 8f3e 7af3 af3d ab87 3e3e
000002a0: 70b5 dfbe 942e 1cbe 3942 883e ee48 ab3e
000002b0: 68fc 0a3e 7c95 573d 4e82 4e3e 6777 b4bd
000002c0: 4b3b a0be 40bf 543e be95 4bbc 1196 9dbd
000002d0: f437 62be b918 b1be b83b 4d3e 15e8 033e
000002e0: e9d6 1c3e 2c2b 4dbe 53f0 4e3e 88ed 0c3e
000002f0: 0eb7 18be d9b4 acbe 1683 4c3c 0a88 89be
00000300: b80d 733e c6a2 8a3e 8e27 5cbe 3666 9c3d
00000310: 78a8 7e3e 2d64 b83e e8f1 78be e0ff a1be
00000320: 8136 fbbd 6812 2a3e 6c69 e9bc 6663 0bbc
00000330: 5744 64be bcf3 cabd 1b99 92be 6e17 79bd
00000340: 9733 843e bbb1 a7be 8815 3abe 8f73 b93d
00000350: 9ad3 c93e 7c10 9f3e 95e1 fc3d 5254 d9bd
00000360: ccbe ac3e 960c 27bd 05c8 0cbe 6827 5bbd
00000370: 4a8f 0bbe d7fb 73be 8d9d 993e 0e60 833e
00000380: 4ad2 023e 6572 293e f037 db3c 7d1a 5b3e
00000390: 7f24 713e 88a7 25be dc32 9fbe d1b2 933e
000003a0: 2bb5 9d3e 976b 99be 2017 a03e 2eef 79bd
000003b0: fcbe edbd 4df9 8f3e 68c1 cfbc d3bd 273e
000003c0: d0b7 61be 7fc7 9cbe 8dcf 04bd ec30 173e
000003d0: 6c7c d0bd 0164 07be 39c9 88be 9b72 463e
000003e0: 9238 b8be 3462 a53d c680 753e eb96 08bd
000003f0: 00bc 933d 83e4 983e 3c1d 82be 68fd 883e
0.27346632 -0.15715408 -0.036492273 0.029711192 -0.061651535 0.0229126 -0.32647926 -0.1564607
-0.07856509 0.06571169 0.2013611 0.052566737 0.12367885 -0.11483793 0.31776068 -0.44689384
-0.066403806 -0.18155114 0.20321238 -0.049059983 0.29733342 0.20772746 -0.08390928 0.021862669
-0.18423262 0.16051342 0.14831792 0.27257985 0.33352906 -0.27214438 0.12498373 0.37008741
0.35649446 -0.1595546 0.058401734 0.3415853 0.046332154 -0.2721378 0.12089821 -0.15858507
-0.09937606 0.2498171 -0.07752377 0.18898855 -0.26700532 -0.021847567 0.1667751 0.14726476
0.17661655 0.24432856 -0.42723918 0.032767594 0.3059299 0.07846582 0.0057504377 0.12568496
-0.14909206 0.18889238 0.0848982 -0.22317079 0.27010465 -0.23523319 -0.32709175 0.09100255
-0.04770094 -0.32932597 0.02697475 -0.039419007 0.13202764 -0.2304531 0.2587573 -0.22988607
-0.24530917 0.34374148 0.1251587 0.07198806 0.1813038 0.23928754 0.23697072 0.23844756
-0.04844728 0.21821731 0.31073478 -0.2737083 -0.01452076 -0.26881757 -0.42848986 0.30440217
0.12644474 -0.05303558 -0.12858403 0.2579993 -0.00936489 -0.007218674 -0.122369826 -0.32602698
0.22703484 -0.1153931 0.1410116 -0.3289727 -0.27282876 -0.098907866 -0.36247137 -0.3493686
-0.23112836 -0.2463289 -0.052837007 0.054512713 0.18598104 -0.2520983 0.33729914 -0.16693614
-0.31552434 -0.034437068 0.28714964 0.0052944594 0.20791791 0.34624422 0.2958681 0.29583913
0.12323779 -0.11894283 -0.113081396 0.2400726 0.34324238 0.04953377 -0.1870776 -0.19527201
0.1139285 -0.066025786 -0.24589203 0.21294947 0.08835042 -0.08841379 -0.2342832 0.08602983
-0.36513415 -0.3036701 -0.1253844 0.17476074 0.08534135 -0.186869 -0.060216907 -0.3663105
-0.2694419 0.11921238 -0.28629452 -0.2658928 0.02036915 -0.30645832 0.0018563503 0.2683623
0.19098668 0.18144378 0.2992272 -0.30475178 -0.15529391 -0.27747735 0.14492808 0.27755925
-0.3695479 0.143693 0.17204814 -0.17501456 -0.2402252 0.27939028 0.08591361 0.1860644
-0.43693113 -0.15252143 0.26613024 0.33454078 0.13572848 0.052632794 0.20166895 -0.08811837
-0.31295237 0.20776081 -0.012425838 -0.076946385 -0.22091657 -0.34589174 0.20042312 0.12881501
0.15316357 -0.20036 0.20208864 0.13762486 -0.1491358 -0.33731726 0.012482425 -0.26861602
0.23735702 0.2707731 -0.21499464 0.07636683 0.24868953 0.36013928 -0.2431103 -0.3164053
-0.12266255 0.16608584 -0.028492652 -0.008507585 -0.22291695 -0.0990977 -0.28632435 -0.06081336
0.2582061 -0.32752785 -0.18172276 0.09055244 0.39419252 0.31067264 0.12347714 -0.10611786
0.33739316 -0.040783487 -0.13748176 -0.053504378 -0.13628879 -0.23826538 0.30003014 0.2565922
0.12775531 0.16547544 0.026760072 0.21396823 0.23549078 -0.1617719 -0.3109349 0.28847364
0.30802283 -0.29964897 0.31267643 -0.061019115 -0.11608693 0.2811989 -0.025360778 0.16381006
-0.22042775 -0.30620953 -0.0324245 0.14764756 -0.101799816 -0.13221742 -0.2671602 0.19379656
-0.3598066 0.080753714 0.23974904 -0.03334705 0.072135925 0.2986184 -0.2541293 0.26755834

blocks.0.mlp.fc2.bias f4 [8]
00000000: 2bb3 e7bb eaa2 2c3c d057 92bb eaca 2fbc
00000010: 853b 853c 1f88 983b d015 ab3c 113b cc3a
-0.007070919 0.010536889 -0.0044660345 -0.010729531 0.016263733 0.004654899 0.020884424 0.0015581568

blocks.1.norm1.weight f4 [8]
00000000: e443 743f 1646 823f 33cd 703f 06a7 5c3f
00000010: 4948 673f 57b4 653f 5fd2 393f d412 663f
0.9541609 1.0177639 0.9406311 0.8619236 0.90344673 0.897283 0.72586626 0.8987248

blocks.1.norm1.bias f4 [8]
00000000: 5b3e e3bc 2995 de3b fb07 8c3c 844b f2bc
00000010: f97a 6ebc 126f 073b 6be7 283d 2571 80bb
-0.027739694 0.0067926836 0.01709365 -0.029577024 -0.014555686 0.0020665568 0.041236322 -0.003919738

blocks.1.attn.qkv.weight f4 [24, 8]
00000000: e0ba 423e 8b77 64bc ddc4 43be 91c0 d9bd
00000010: cb32 c93c 737f 9a3e 294e 683e 22cb dcbc
00000020: 9d5e 8b3b bdd0 713e 89e2 a23d 0966 4d3c
00000030: 515c 46bd 0989 e8bd ea42 4ebe e937 e9be
00000040: d9d6 b9be 2137 c03d 7bb4 6cbd 3b3b a2be
00000050: c68b 113e d3e4 9e3d 2eef d8bd 6fff 673e
00000060: 212d d23e 317c e73d 346b 85be 6b37 8bbe
00000070: 1df3 d83e b5bb 5a3e 5388 90be 7855 ba3d
00000080: 16a3 d6be c294 0a3c f525 25be 554a 993c
00000090: 4e5a 8dbe a766 f4bd 7aa9 7fbe 7f2f a7be
000000a0: 0df3 ae3e 2c94 a13e 6f4f c83d d4c1 bc3c
000000b0: 7025 9a3e 276e 063e 9c3e aabe a9a7 28be
000000c0: 476f 643d 77b4 cb3b 4a0a 873e da36 5b3e
000000d0: 6126 86be 043d ffbc 00ee a6be c61a 553d
000000e0: 1bef 883c 22e6 673e 2f88 053f c1d2 403e
000000f0: 2679 f9be d3a0 aebe c139 d33e 8724 9ebd
00000100: 592e d43d 88cb bfbc 8dbf 1c3e de03 20be
00000110: ad79 913d ee8b 94be 760c 613e e15c 92be
00000120: 0bc8 463e 8f53 543e 4e7d cf3e a6d5 213e
00000130: 0697 aa3e 460b dfbe e5ad 97be 16c2 943e
00000140: f1e0 81be 389f 8ebe 56fd 9e3e 5a48 d3bd
00000150: 9c9a a0be 877f 94be 9175 333e 2642 993d
00000160: 08f0 8bbe d8ef e0be 200d 6cbd 53c1 2dbe
00000170: 4cc4 67bd 933c 383e 7c19 9abe 3257 50be
00000180: f3f4 0f3e f524 0e3e 560c 253c 3803 df3d
00000190: c736 9abe a12c 353a 75d1 273d 170a 3b3e
000001a0: b8e1 27be bfa6 51be 728e aa3e 8aac e83d
000001b0: c0a5 89bd c237 5cbe 842d ac3e 19f2 933e
000001c0: 19d9 313d e84f e7be 178a 323e c4fb e9bd
000001d0: 59b9 093e 9b59 64bd 72aa b13e 0628 e7bd
000001e0: 4afc cfbe 4052 de3d 1476 d43c c315 15be
000001f0: 1757 523e b507 ac3e be9a 153e df7b 383d
00000200: 5b7f 97be 7593 33be bcac b1be 2cfd 17be
00000210: 600a b6be 4693 20be 40be 87be 43be 5d3e
00000220: ee12 d5be 4901 e93e a2a0 30bd df82 80bd
00000230: 9ab1 45bd ecdc 50be 4f8a 9b3e bd77 abbc
00000240: ea62 6b3c 11d4 8bbe ba71 6b3e d7ba 0dbe
00000250: b686 7fbe fd43 353e 7963 9fbd 2d20 b1be
00000260: 0e94 1a3e a619 1d3e b6a9 493e 874d 04be
00000270: 67a6 34be 7523 8ebe f909 46be 17da 82be
00000280: 3a84 e33c c8be b83d c833 e1be f4bf 1ebd
00000290: b164 2fbd 4d80 3cbe 6c4a 403d 258d 3d3e
000002a0: 5a94 f33d b8b5 7f3e bb44 8bbe 46ab e4bd
000002b0: 7016 373e cfca b33d e9ae 6a3e 2e3b 9cbd
000002c0: 4aa3 e13d af5a b5bd c0c9 843e 2d7b 7ebe
000002d0: 3863 6bbd 9ba7 cf3c 008c 9a3d 366d 84bd
000002e0: d9d1 b53d dd8c b9be 27c9 c4bc d491 d83d
000002f0: 7beb 7e3e 227c 68be b826 093e 5cc1 5ebe
0.190166 -0.013944517 -0.19118066 -0.10632432 0.024560353 0.3017536 0.22686066 -0.02695233
0.004253222 0.23614784 0.079533644 0.012536534 -0.048427884 -0.113542624 -0.20142713 -0.4555047
-0.36296728 0.09385515 -0.057789307 -0.31685814 0.14213476 0.077584885 -0.10592495 0.22656034
0.41050056 0.113029845 -0.26058352 -0.27190718 0.4237298 0.21360667 -0.28229007 0.09098333
-0.419213 0.008458318 -0.1612776 0.018712202 -0.2760796 -0.11933642 -0.24966994 -0.32653424
0.34169808 0.3155836 0.09780776 0.023041643 0.30106688 0.13127957 -0.33250892 -0.16470207
0.055770185 0.0062165814 0.26375037 0.21407643 -0.26201156 -0.031157024 -0.32603455 0.052027486
0.016715577 0.22646382 0.52160925 0.18830396 -0.4872524 -0.34107074 0.41255 -0.07721811
0.103604026 -0.023412481 0.15307446 -0.15626475 0.07103286 -0.29013008 0.2197741 -0.28586486
0.19412248 0.20735 0.40525287 0.15804157 0.33318347 -0.43563288 -0.29624858 0.29054326
-0.2536693 -0.2785585 0.31052655 -0.10316534 -0.31367958 -0.29003546 0.17525317 0.0748332
-0.27331567 -0.43932986 -0.057629704 -0.16968279 -0.056583688 0.17991857 -0.30097568 -0.20345762
0.14058284 0.13881285 0.010073742 0.10889286 -0.30119917 0.0006911252 0.04097124 0.18265568
-0.16394699 -0.20473765 0.33311802 0.11361034 -0.067210674 -0.21505645 0.33628476 0.28895643
0.04341993 -0.4517815 0.1743549 -0.114249736 0.13449611 -0.055749517 0.34700352 -0.11286931
-0.4062217 0.10855532 0.02593521 -0.14559083 0.20541035 0.3359963 0.1460981 0.045040008
-0.29589352 -0.17536719 -0.34702098 -0.14842671 -0.3555479 -0.1568118 -0.26512337 0.2165461
-0.41616005 0.45508793 -0.04312194 -0.06274962 -0.048265077 -0.20396775 0.3037896 -0.02093112
0.014366845 -0.2731023 0.22992602 -0.13840805 -0.24953732 0.17701717 -0.07782645 -0.3459486
0.15095541 0.15341815 0.19693646 -0.129202 -0.17641602 -0.27761427 -0.19339742 -0.25557014
0.027773011 0.09020764 -0.43984818 -0.03875728 -0.042820636 -0.18408318 0.046945974 0.18510874
0.1189353 0.24971664 -0.27200875 -0.1116548 0.17879653 0.08778917 0.22918285 -0.07628475
0.11017473 -0.08855187 0.25935173 -0.24851675 -0.05746767 0.025348475 0.07546234 -0.06466143
0.08877916 -0.36240283 -0.024021698 0.105746895 0.24894516 -0.22703603 0.13393676 -0.21753448

blocks.1.attn.qkv.bias f4 [24]
00000000: be8e efbd 83eb 8ebd 7b2c 4d3d 412e 6bbd
00000010: 2abe 543d 6973 79b9 8c0b e63d 06e8 043e
00000020: 7824 71b8 1cc3 06b8 0497 e037 676f 9bb8
00000030: 2138 3537 0bcc 6cb8 0672 8638 bf23 d538
00000040: c63e 2b3b b721 c83c 0f24 b93c 258a 36bc
00000050: b728 26bb 0b2c a43c aa1a 953c b3df 7b3a
-0.11697148 -0.06978514 0.050091248 -0.057417158 0.051939167 -0.00023789484 0.11232671 0.12979135
-5.749284e-05 -3.21298e-05 2.6773203e-05 -7.411726e-05 1.0801509e-05 -5.6456814e-05 6.4108564e-05 0.0001016329
0.0026129945 0.024430139 0.022600202 -0.011141335 -0.0025353858 0.020040533 0.018201191 0.0009608224

blocks.1.attn.proj.weight f4 [8, 8]
00000000: 80be 53be 6d07 d7bd 1f29 8f3e ffb6 ffbe
00000010: 9156 1f3e f4e2 9dbe e79e aa3e 8ad1 8fbe
00000020: dbc6 343e 9aa0 1ebe 4aec a63e 70fe 303e
00000030: ded8 263e 6fbf 913e 2d4f e13e a74f 703e
00000040: be33 f53e 3dee 0ebf cda4 a8be 4902 73bd
00000050: 37af c23d 684e ddbe 3424 31bd 4a6c a9be
00000060: ed6d 143b 2b70 813e 80de 28be 3390 603e
00000070: 49eb ad3d 2949 efbe 16f9 f1be 882a c93e
00000080: 3b7a a83e 734e 193f 676e dbbd 2d6c f6be
00000090: 5eac c8be 7a63 7dbd 63c7 e23e 2749 3fbe
000000a0: e7c5 b83e 3592 f0bd 2562 e5be c24d e63e
000000b0: 70cd 2fbe 6fd4 fa3e bfb9 813e 731c 18be
000000c0: bae9 e1bc 581d 013f 07f6 083f 920c 303e
000000d0: c6c4 d03e 852b 8ebe 3d8b b5be fec5 033e
000000e0: d82e 23be 0937 05bf fe14 1cbd 185c 88be
000000f0: 720e f2bd 954a 67bd 7089 053e ff84 35be
-0.20678139 -0.10499463 0.2796106 -0.49944302 0.15560366 -0.30837214 0.33324358 -0.28089553
0.17653982 -0.15490952 0.3260215 0.1728456 0.16293666 0.28466365 0.4400572 0.23467885
0.4789104 -0.5583227 -0.32938233 -0.05932835 0.09506076 -0.43223882 -0.043247417 -0.3309043
0.0022648529 0.2528089 -0.16491127 0.21930008 0.08492143 -0.46735504 -0.4726035 0.3929026
0.32905754 0.5988533 -0.10714417 -0.48129407 -0.39194006 -0.061862446 0.44292745 -0.18680249
0.36088488 -0.11746637 -0.4480144 0.449812 -0.17168212 0.489902 0.25337026 -0.14854603
-0.02757727 0.504354 0.5350041 0.17192295 0.40775126 -0.27767578 -0.35457793 0.12868497
-0.15935838 -0.520371 -0.038105957 -0.26632762 -0.118191615 -0.05646761 0.1304071 -0.17726515

blocks.1.attn.proj.bias f4 [8]
00000000: 051e 493c e435 643c 08c2 a2bc 8e75 30bc
00000010: 3c98 dd3c fcf3 09bc e8bf 573c 9e28 a6ba
0.012275224 0.013928864 -0.019867912 -0.010770215 0.02705013 -0.008419987 0.013168313 -0.00126769

blocks.1.norm2.weight f4 [8]
00000000: fd0b 4b3f d870 773f 6d5b 743f e60b 6a3f
00000010: c54d 793f 4067 773f 9127 713f fd1e 613f
0.7931517 0.9665656 0.95452005 0.91424406 0.9738429 0.9664192 0.94201 0.8793791

blocks.1.norm2.bias f4 [8]
00000000: 7c44 c63c 44be 503c bcc8 313d a2bb be3b
00000010: eb76 4bbc 4b0c 3c3b 7380 0c3c 19b6 433c
0.024202578 0.012740675 0.043404326 0.0058207074 -0.012418489 0.002869385 0.008575547 0.011945271

blocks.1.mlp.fc1.weight f4 [32, 8]
00000000: 6ab3 83be 210d ce3c 7881 8d3e 3d41 a2bd
00000010: 2b8b 48be c8a6 ce3e a34d e13d c1a0 333e
00000020: f780 22be 3dd4 cf3d e630 85be 25c9 2cbe
00000030: 2b48 b3be bcb1 56be 6849 ff3d ed8f 3b3d
00000040: a9ab ca3d 634b 8e3e 368b b8be 8edf a3be
00000050: 0619 20be ef24 833e d0a6 41be 6302 03be
00000060: 0e28 70be a214 babd 95c1 fc3a d9fe 07bd
00000070: 5e9a 983d 6145 e43d 23d4 80be f5ef e63d
00000080: 73cc 733e 429d f0bd 3e37 423d c961 1d3e
00000090: 77b6 f63d b3bf 8a3e 0e28 22be fb5b 81be
000000a0: 3b24 a93e a6fe 2fbc cfe3 cdbe 4384 163e
000000b0: 2f03 a23c ab38 dabc 467b 0ebd d1f1 e4bd
000000c0: 7a22 233e 4991 0bbe f074 8fbd 1040 55bc
000000d0: d0a0 84be 95ce 2dbd 0bdd 26be 26ea 0bbe
000000e0: b768 e63d 2075 be3d bdec 25be 6e18 473d
000000f0: 85fd 8abe 38a4 05be cda5 a93d 541b 36be
00000100: 41dd 90be f697 d8bd 28d9 493e 2cdc 6bbe
00000110: 61b3 143d 4299 c83d c96b e1bd 3c9d a0bd
00000120: 546b 9a3e 3e21 d83e 7a4c 90be 9043 96bd
00000130: dff0 273e f15e 78be 1232 17be 9fcf 803e
00000140: e7e2 82be 042a 883e eab7 5bbd 9eeb 9a3e
00000150: da4c 503d 1d3f 5bbe f88f 3a3e 44ef b83d
00000160: 3bd9 af3d 91d5 dc3b 1e30 77bd 8905 8ebe
00000170: 8805 5bbe 4138 203e d8c2 a23e df4f 7fbe
00000180: 1a57 62be 965f 8bbe 8d7d 803c 53b0 87bd
00000190: f82d 7d3e 9c46 66be 9354 2a3e ed01 a6be
000001a0: fa59 96be 19fa 69be 8cc5 3cbe 0205 ab3d
000001b0: 6f74 c13d 9756 aabd c607 ae3d ff59 6b3e
000001c0: 1f86 cb3c ce52 bc39 2410 88be ffa2 84bd
000001d0: 1c76 4d3d 2053 d33e b69e a5bc ddef 0dbe
000001e0: d6e1 e53c e912 843b ff37 533d a22b f63d
000001f0: d99d 673e fc53 14be 627d 523e 65e1 81be
00000200: f492 05be af8e 55bd 03c4 853d 8792 8fbe
00000210: d91e 2bbe 6ba3 89be 947d 43be e2c5 1bbe
00000220: f0fb 33be d666 e1bd e66f 1a3e dad4 27be
00000230: a063 5ebe 4b8e e2bd de3a b23c 8ae3 62bd
00000240: 30b6 9b3e 63f9 4fbe 7923 943e 3a35 643e
00000250: d06c ff3d b2aa c83e 5a13 dbbd 0c72 71bd
00000260: 9ba1 503e b807 b93e 1b86 3e3e 68c0 c1ba
00000270: 292f b13e 548f 08bc e915 6ebe fc6b c9bb
00000280: 72aa cabe 5d39 aabe 69ae 9cbe da1f a73e
00000290: 550d 01be bede 4c3e 5839 4ebe e68d a23d
000002a0: d7bc e8bb 5146 3a3d 79f1 60bc 8e58 b63e
000002b0: 7dcc e43e 7acc 4a3e 8296 90be d0cd 9fbe
000002c0: b249 453e c24e 8bbe 9f7b a8be ed69 4abe
000002d0: 7a3e babe f820 62be b37d c23e af4e acbd
000002e0: 3cef 3c3e 6e36 a1bd 3949 883d da76 86bd
000002f0: 4660 0fbe f374 2b3e d507 0d3e 8b39 463e
00000300: 7932 af3d e498 1bbe bbc8 d9be 9849 51bd
00000310: ffff 313e 91b2 853e ba2b 623e 4719 02be
00000320: ec28 3ebe a179 d03c 00d9 0c3e 2a14 61be
00000330: f3fb cf3c 10c3 273d c871 15be ec0e db3c
00000340: 51cd 2cbd 8b67 04be bd2f bf3c 9927 b23d
00000350: b4b1 b9be 45b2 013e 49f9 53bd 1248 9abe
00000360: 6b59 843d b881 003e 2267 0bbe 7cb7 a53e
00000370: 2e00 5c3e 16ca 12be 90c8 b5be 1857 573e
00000380: a7ed 9cbe e013 acbe c912 823d 834a a53d
00000390: fc1c 32be 4315 a8be e9e5 e6bd a5dd 673e
000003a0: ad98 b9bd 12b2 5f3e 89b4 54be 30f8 a23d
000003b0: de35 543c 6101 a6be 13ab 563e 4a80 10be
000003c0: 8870 d63d 7fbe 3b3e 3f4f 653e 0cfe d9bd
000003d0: c218 bfbe de36 003c bf9b 95be 2131 9c3e
000003e0: 5f9d 343e d28b 083e ae98 8a3e a75e bbbc
000003f0: 4675 90be 3b66 aabe 4e6d 15be 0d11 4a3e
-0.2572282 0.025152745 0.2763784 -0.079225995 -0.19584338 0.4036162 0.11001136 0.17541791
-0.15869509 0.10147903 -0.2601387 -0.16873606 -0.35015997 -0.20966238 0.12465173 0.045791555
0.09896023 0.2779189 -0.3604371 -0.32006496 -0.15634546 0.25614116 -0.1891129 -0.12793879
-0.2345278 -0.09085967 0.0019283766 -0.033202026 0.07451318 0.111460455 -0.25161847 0.11276237
0.2380846 -0.117487445 0.047415964 0.15369333 0.12046521 0.2709938 -0.15835592 -0.25265488
0.33035454 -0.010741865 -0.40212867 0.14698891 0.019776909 -0.02663835 -0.03478553 -0.11178935
0.1593112 -0.1362964 -0.07004726 -0.013015762 -0.2590394 -0.04243334 -0.16295259 -0.1366354
0.112504415 0.092996836 -0.1620359 0.048607282 -0.27146545 -0.13050926 0.08283577 -0.17783862
-0.28293803 -0.10575859 0.19711745 -0.23033208 0.03630388 0.097948566 -0.110068865 -0.0784249
0.3016001 0.42212862 -0.28183347 -0.07337105 0.16400479 -0.24254967 -0.14765194 0.25158402
-0.25563738 0.26594555 -0.05364219 0.30257887 0.05085454 -0.21410795 0.18218982 0.09030011
0.08586355 0.0067393263 -0.060348623 -0.27738598 -0.21388829 0.15646459 0.3178928 -0.24932812
-0.22103539 -0.27221364 0.015684867 -0.06625428 0.24724567 -0.22487873 0.16633825 -0.32423344
-0.29365522 -0.22849311 -0.18434733 0.083505645 0.09446036 -0.08317297 0.084975764 0.2298355
0.024844227 0.0003591985 -0.26574814 -0.064764015 0.050161466 0.41274357 -0.02021728 -0.13861032
0.028061789 0.0040305746 0.051567074 0.12020041 0.22618808 -0.14485162 0.20555642 -0.25367275
-0.1304434 -0.052138027 0.06531527 -0.2804148 -0.16710986 -0.2688249 -0.19090873 -0.15212205
-0.17576575 -0.110059425 0.15081748 -0.1638979 -0.21717691 -0.110622965 0.021756586 -0.05539278
0.30412436 -0.20309977 0.28933313 0.2228593 0.12471926 0.3919273 -0.106970504 -0.058946654
0.20374148 0.361387 0.18605845 -0.0014782073 0.34606293 -0.008334953 -0.23250546 -0.006146906
-0.39583164 -0.3324689 -0.30601814 0.32641488 -0.12602742 0.20006844 -0.20139062 0.07937221
-0.0071025896 0.045477215 -0.013729447 0.35614437 0.44687262 0.19804564 -0.28239828 -0.3121171
0.19266394 -0.27208525 -0.32906815 -0.1976697 -0.3637579 -0.22082889 0.37986526 -0.08413445
0.18450636 -0.0787171 0.06654591 -0.06565638 -0.14001569 0.16743831 0.13772519 0.19357888
0.08554549 -0.15195042 -0.42535958 -0.051095575 0.17382811 0.26112798 0.22086993 -0.12704955
-0.18570298 0.025448622 0.13754654 -0.21980348 0.025388693 0.04095751 -0.14594185 0.026740514
-0.042187992 -0.12930124 0.023338193 0.08698959 -0.3626839 0.1266566 -0.05175141 -0.3013311
0.064623676 0.12549484 -0.13613561 0.3236655 0.21484444 -0.14334902 -0.3550458 0.21029317
-0.30650064 -0.33608913 0.06351239 0.080708526 -0.17393869 -0.3282872 -0.11274321 0.22643144
-0.09062324 0.21845272 -0.20771994 0.07957494 0.012952296 -0.32422927 0.20963697 -0.14111438
0.104706824 0.18334387 0.22393511 -0.10644159 -0.37323576 0.007825581 -0.29220387 0.30506232
0.17638157 0.13334587 0.2706961 -0.022872282 -0.28214473 -0.3328112 -0.14592478 0.19733067
