configs/experiment/best_MM_MNIST_MAE.pth (torch, 50831 bytes, 80 tensors)

cls_token f4 [1, 1, 8]
000000 11 fc 46 bb f1 53 d8 3b 63 dc b2 3c 1b b0 e5 bb
       -0.0030362646 0.0066018035 0.021833604 -0.007009519
000010 73 d9 b7 3c 59 f3 e1 3b 6c 2c ef bb 60 6b 81 bc
       0.022442555 0.0068954644 -0.0072989967 -0.01579827

mask_token f4 [1, 1, 8]
000000 72 06 a5 3d ad 36 9e bc 3c 3d 90 bc 48 01 b2 bc
       0.0805787 -0.01931318 -0.017607324 -0.021729127
000010 06 41 b7 bb 98 f3 e9 bc 80 ce 3f 3c 90 13 83 bc
       -0.005592468 -0.028558537 0.011706948 -0.016000539

blocks.0.norm1.weight f4 [8]
000000 43 23 7e 3f 50 5c 7e 3f 80 be 7e 3f 99 a8 7e 3f
       0.99272555 0.9935961 0.9950943 0.9947601
000010 f1 30 7d 3f a0 a7 7b 3f 2c 25 80 3f 85 ba 7f 3f
       0.98902804 0.9830265 1.0011344 0.9989398

blocks.0.norm1.bias f4 [8]
000000 28 22 72 b9 c8 b9 ad 3b 4b c3 4e 3c 27 49 ca bb
       -0.00023091643 0.005301688 0.012619804 -0.006173271
000010 2d fd 1f 3c ed b9 4b bb 14 64 61 ba 67 c2 0b 3b
       0.009764952 -0.0031086162 -0.00085979817 0.002132559

blocks.0.attn.qkv.weight f4 [24, 8]
000000 08 53 6a bd 5e 9c ab 3e fd b1 a8 be 92 19 b3 3e
       -0.05720809 0.33517736 -0.32948294 0.34980446
000010 69 aa 1f 3e eb e5 b2 3e a2 31 8f be 5b b5 78 3e
       0.1559235 0.34941038 -0.27967554 0.24287932
000020 51 ae 99 3e a1 22 d1 3e c5 e1 68 be 5f c0 21 3e
       0.30015805 0.40846732 -0.22742374 0.1579604
000030 b5 b9 9a bd 61 7d 8b 3d 1b d5 c5 3e 1e dd 22 3e
       -0.07554952 0.068110235 0.3863915 0.15904662
000040 6d ea a9 3e 50 cc 30 be 2a aa b0 3e 1b 69 aa 3e
       0.33186665 -0.17265439 0.34504825 0.33283314
000050 7d b1 a4 3e b5 aa d8 3d 76 ce 59 3e b8 65 84 3e
       0.32166663 0.10579435 0.21270165 0.25858855
000060 f0 df d7 be 02 16 c0 3e e3 75 2e be ae fb d4 3e
       -0.42163038 0.3751679 -0.17037158 0.41598266
000070 6a 28 81 3e a6 c3 bd 3e 7d a8 ba be 10 af 8b be
       0.25226146 0.3706333 -0.3645667 -0.27282
000080 40 a0 2b be 97 18 81 be cb 44 46 3d 5c 1b 69 be
       -0.1676035 -0.25214073 0.04840545 -0.22764343
000090 1a 62 ac bd 63 c0 cf bd 5e 0b c9 bd f8 34 92 3e
       -0.08417149 -0.10144117 -0.09816621 0.28556037
0000a0 3d ea 9e 3e 84 b1 85 3d 3d f8 28 be e0 3b ce be
       0.31038085 0.06527999 -0.16500945 -0.40280056
0000b0 67 fe c8 3e 76 d2 0f 3e 9a 58 78 be bd 82 c7 3e
       0.39256594 0.14045128 -0.24252549 0.38966933
0000c0 d0 68 38 be 9b c4 13 be 3b 1a c3 be 3b 9d 17 be
       -0.18008733 -0.14430468 -0.3810595 -0.14806072
0000d0 6c 2d 81 be 0d 9f cd be a3 2d 8f 3e 92 41 ea 3d
       -0.25229967 -0.4016041 0.27964506 0.11438288
0000e0 6f f0 66 be 76 13 73 bd 07 5a 2c be da 91 5e be
       -0.22552656 -0.05934473 -0.16831218 -0.21735325
0000f0 ac eb c1 bd 13 39 51 be b3 71 30 3e fb 2f 6e 3e
       -0.09468779 -0.20431928 0.17230873 0.2326049
000100 bf 6b a0 3d d7 79 39 be 9a ee 9e be c2 3e cc 3d
       0.07833051 -0.18112884 -0.31041414 0.099729076
000110 fd 91 c9 be e9 a5 b3 3d 83 fe 37 3e 8e 19 4b be
       -0.39369193 0.08771879 0.17968182 -0.19833967
000120 f3 1a e0 bd 76 4e 2a 3e 71 e1 f5 bc 2e 5e b5 bc
       -0.1094264 0.16631493 -0.030014725 -0.022139635
000130 1a 0d af be 0f 2b 8a be d4 28 48 bd 15 4b 7e bd
       -0.34189683 -0.26985976 -0.04886706 -0.062083323
000140 f5 7c af 3e c5 4f 2f 3e 01 89 99 be 27 23 a9 3e
       0.34275022 0.17120273 -0.29987338 0.33034632
000150 0d 5f b2 3e 78 01 74 3e fd 98 d2 be 81 42 97 3e
       0.34838143 0.23828685 -0.41132346 0.29542926
000160 a7 1e 9c bd 17 14 f7 bd 02 3d 88 3e e3 bd 96 3e
       -0.07623034 -0.12064379 0.26609045 0.29441747
000170 4b c8 87 be 4a da 27 3d 78 62 d5 3e d1 54 9b 3d
       -0.2652 0.04097966 0.41676688 0.07584537
000180 29 b9 c7 be a1 83 ac 3e 8b 3b 35 be bf 6a 9b 3e
       -0.39008453 0.33694175 -0.17698495 0.30354878
000190 0c a4 71 3e 7d da 72 bd 65 fc bb be 8f 64 db 3e
       0.23597735 -0.059290398 -0.36716 0.42850158
0001a0 0f 70 61 3e 5b 49 01 be 78 7e 0c 3e 35 7b b6 be
       0.22015403 -0.12625639 0.13720119 -0.35640875
0001b0 ab c6 58 3e d4 05 9b be 1f 06 cd be b5 4a 7f be
       0.21169536 -0.30277884 -0.40043733 -0.24930842
0001c0 c2 c4 bf bc f7 52 32 3e be 89 80 be 6f 24 78 be
       -0.023409251 0.17414461 -0.2510509 -0.24232648
0001d0 b7 6c a7 be 8c 34 1c be 8b 44 d7 3e 36 8b 82 be
       -0.3270013 -0.1525442 0.42044482 -0.25496835
0001e0 f9 10 ae be a1 0a 33 be eb a2 43 be 41 9e d4 3b
       -0.33997324 -0.17484523 -0.19105117 0.006488592
0001f0 70 2e bd 3d 72 17 97 bd 22 e2 5b be b6 25 a0 3d
       0.09237373 -0.07377519 -0.21472982 0.07819693
000200 53 4e 95 be a2 0b 56 be 74 bd d4 3e 48 00 41 3c
       -0.2916132 -0.20902875 0.4155079 0.011779852
000210 69 3f c3 3d fa a1 29 3d 8c 39 35 3d 9c 1d cd be
       0.09533579 0.04141424 0.044244334 -0.40061653
000220 e7 d2 2e be 9d 6b bc be f4 80 91 3e a6 81 03 3d
       -0.1707264 -0.36800852 0.28418696 0.032106064
000230 3f 90 86 be 0b 9d 79 bd 49 39 39 3d 1a 6a bf bd
       -0.26281926 -0.060940783 0.045220647 -0.09346409
000240 66 4c 76 be c9 a3 1c 3e 9e 7c 97 3e e3 25 0b be
       -0.24052581 0.15296854 0.29587263 -0.13588671
000250 3b 91 79 3e 61 0c 5a be 4a 15 48 be db 87 75 3e
       0.24371807 -0.21293785 -0.19539371 0.23977606
000260 df 20 d4 be c7 1a 47 be d8 c6 c3 3e 6e e9 4b 3e
       -0.4143133 -0.19443808 0.38237643 0.19913265
000270 17 7c cb 3d ca bc 84 be f6 30 b2 be d7 13 5f be
       0.09935778 -0.25925285 -0.3480298 -0.21784912
000280 b4 99 cc 3e e9 c8 21 be 76 b2 72 3e 30 18 00 3e
       0.39961016 -0.15799297 0.2370089 0.12509227
000290 2b 3d ae 3e 94 0c 9c 3e 92 c4 99 3e 8a ce d2 3e
       0.34031042 0.30478346 0.30032784 0.41173202
0002a0 7a 88 b2 bd 51 4d 9e 3b 17 f2 c2 bd ea f1 34 be
       -0.08717437 0.004830994 -0.09518831 -0.17670408
0002b0 7b 26 2d be f7 a0 bd be 5a bf 30 be 06 a7 d4 3e
       -0.1690921 -0.3703687 -0.17260495 0.4153368
0002c0 e2 1c 0a 3e 53 41 bb 3e c6 28 09 bc cd 05 84 be
       0.1348758 0.36573276 -0.008371538 -0.25785676
0002d0 5f d8 84 bd b2 60 9e 3c cc 4a 8e be dc 4e c2 be
       -0.06486582 0.019333217 -0.2779144 -0.3795079
0002e0 a5 66 5d be b7 f7 b1 be f7 77 c9 bc 90 4b 99 3e
       -0.21621187 -0.34759304 -0.024593337 0.29940462
0002f0 d5 d8 10 bc 2b b5 62 3e c8 5c 51 be 7b d5 0d be
       -0.008840759 0.22139423 -0.2044555 -0.13850968

blocks.0.attn.qkv.bias f4 [24]
000000 9b 31 31 3b 3d 64 99 bb b1 46 f8 bb cb 77 c5 3b
       0.0027037624 -0.004681139 -0.0075767864 0.0060262433
000010 a5 e9 ca bb f4 6e f9 ba 5b 9c d5 3b 94 7e c2 bb
       -0.0061924034 -0.0019030259 0.006518883 -0.0059354994
000020 7e 9a 50 38 25 74 5f 37 0b 2b 13 b8 0c 7e e0 36
       4.9734947e-05 1.3318878e-05 -3.5087618e-05 6.690394e-06
000030 fa 6d 0f 35 d3 00 b0 b6 b3 3a e0 b7 74 e7 8b b7
       5.343169e-07 -5.2453047e-06 -2.6730215e-05 -1.667787e-05
000040 fe ff 28 3b a8 3a 8f bb 69 d9 02 3c 90 60 f9 3a
       0.002578735 -0.004371006 0.007986405 0.001902597
000050 01 06 00 3c 7d 5b 2f ba 93 3d 40 3b e4 6b f1 bb
       0.007813931 -0.0006689353 0.0029333576 -0.007367598

blocks.0.attn.proj.weight f4 [8, 8]
000000 17 ca 43 be f9 b0 0f 3f 84 fe f7 3e f7 92 b0 3d
       -0.1912006 0.56129414 0.48436368 0.08621781
000010 a7 68 e3 3d c7 9a 92 3c 6a 64 ba be ce 31 15 bf
       0.11103945 0.01789607 -0.36404735 -0.5827912
000020 dd 65 92 be da c4 9b 3d 46 c4 b2 3c 6b 69 cb 3e
       -0.2859334 0.07605906 0.021822106 0.39728865
000030 c6 b0 68 bd 67 d3 57 be 1a e9 c0 be 09 20 14 bf
       -0.05680921 -0.21076737 -0.37677842 -0.5786138
000040 95 e7 e6 be 47 08 b4 3e c2 04 bf be 53 5f 1d be
       -0.45098558 0.35162565 -0.37308317 -0.15368395
000050 88 e8 85 be 3f 07 a5 3e 1a 17 f4 3e d3 db ca 3e
       -0.2615397 0.3223209 0.47673875 0.39620838
000060 e8 7b 0e be 86 c3 e4 be 3a 84 c8 3e 04 81 1e 3e
       -0.13914454 -0.44680423 0.3916338 0.15478903
000070 7d 47 86 bd e2 38 1b bd 77 36 d3 3e 8d 36 f9 be
       -0.06556604 -0.037896045 0.4125249 -0.4867443
000080 24 55 c4 bc ba 07 f2 3e 00 a1 83 be 84 54 ed 3e
       -0.02396638 0.4727152 -0.2570877 0.46353543
000090 88 ec 8f be e1 fe 1e be 20 a9 ea 3d 4f 68 c0 be
       -0.28110147 -0.15526916 0.11458039 -0.3757958
0000a0 00 a9 00 3f ba 90 af 3e 46 a4 a0 3e 0c 9a 8f be
       0.50257874 0.34290105 0.3137533 -0.28047216
0000b0 e9 33 8a 3e 99 4a 80 be a7 45 0c 3f 67 c2 f2 3e
       0.2699273 -0.25056913 0.5479378 0.47413942
0000c0 1d 91 de 3e df 24 19 bf 76 2d 98 be ae 43 19 bf
       0.43470088 -0.59821886 -0.29722184 -0.59868896
0000d0 f9 86 ed 3e 72 52 4f be 1f 2f 43 3d ea 99 df be
       0.46392038 -0.20246294 0.04765236 -0.43672115
0000e0 32 7d b0 bc b6 e0 20 3e 37 df 29 3e a7 8a f1 3c
       -0.021544073 0.1571072 0.16589056 0.02948506
0000f0 76 8c 15 3f 8b d2 2e 3e 0e ba f2 3e 08 1f c0 be
       0.5841745 0.17072503 0.47407573 -0.37523675

blocks.0.attn.proj.bias f4 [8]
000000 9b 8a 3c 3c f0 08 81 bc c5 65 47 bc be c1 95 3b
       0.0115076555 -0.015751332 -0.01217026 0.004570215
000010 cc 2c 96 3b 05 12 6e bb 78 37 45 b6 9d fe af 3b
       0.004582977 -0.0036326658 -2.9387575e-06 0.0053709284

blocks.0.norm2.weight f4 [8]
000000 c5 36 81 3f d9 70 81 3f 61 91 7d 3f 52 c3 7d 3f
       1.0094839 1.0112563 0.99049956 0.9912616
000010 ac 70 80 3f ba 4b 80 3f ce 72 7c 3f 14 32 80 3f
       1.0034385 1.002311 0.9861268 1.0015283

blocks.0.norm2.bias f4 [8]
000000 2c 12 41 3c b9 03 45 bc 58 18 f3 bb d6 ed a9 3b
       0.011784118 -0.012024813 -0.0074186735 0.005185823
000010 c7 cb 79 bb 8d 88 5a bb 4b 6a 0b bc 3f 8d 56 3b
       -0.0038115846 -0.003334555 -0.008509229 0.0032737998

blocks.0.mlp.fc1.weight f4 [32, 8]
000000 84 52 6a be a4 ff de 3d 7a 57 e9 3c 14 56 57 3e
       -0.2288304 0.10888603 0.028484095 0.2102893
000010 74 95 0e 3d 36 6e 92 3d cb e5 cc bc 43 30 c7 be
       0.0348105 0.07149927 -0.025011918 -0.38904008
000020 86 fb 6c be 1f 5c a2 bd b8 34 0e be 0e 8c 97 be
       -0.23142824 -0.07927727 -0.13887298 -0.2959904
000030 46 1a 13 be b0 86 81 3e ce 36 2a be 96 fe 98 bd
       -0.14365491 0.2529807 -0.16622469 -0.074704334
000040 aa 29 24 3e e6 b4 14 be 3b 33 ea 3a 4d f1 37 be
       0.16031519 -0.14522132 0.0017868051 -0.17963143
000050 56 e5 81 3e 15 af b6 bd 56 dc ea bc ec 0d 74 3e
       0.25370282 -0.08920113 -0.028669517 0.23833436
000060 00 6c 16 be 1d 18 c5 3d d8 6c a7 3e 33 30 7e 3d
       -0.14689636 0.0962374 0.3270023 0.062057685
000070 9f d4 d7 bd 1e 0f ac 3e 7f f8 8f 3d c6 c2 ad 3e
       -0.10538601 0.33605283 0.07029819 0.33937663
000080 19 0d a7 be 2b 4d 3e 3d 7a 45 92 be d3 02 81 3e
       -0.3262718 0.04646031 -0.2856863 0.25197467
000090 b7 96 c0 be 18 fb 8e 3e 35 36 90 3e 33 a5 94 3e
       -0.37614986 0.27925944 0.28166357 0.29032287
0000a0 52 75 9a 3e e2 54 a4 be 60 00 c3 3e a2 b7 ad be
       0.30167633 -0.3209601 0.38086224 -0.33929163
0000b0 25 00 0a 3e 7e c9 bd be b3 8c 54 be d7 06 b3 be
       0.13476618 -0.3706779 -0.20756797 -0.34966156
0000c0 e2 54 82 3d 41 a7 91 be 4c 08 28 3d f1 de 8d be
       0.06363846 -0.28447917 0.041023538 -0.27709153
0000d0 90 27 a7 3e 63 ac 1e 3e fc 7f 5a be 17 1b 4c 3e
       0.3264737 0.15495448 -0.21337885 0.19932209
0000e0 a5 b0 92 3d 59 52 b6 3e 65 20 bf bd 33 b4 ba 3e
       0.071625985 0.356097 -0.09332351 0.36465606
0000f0 28 d3 15 be 22 4c cb 3e 74 fe 3c 3e 36 4d b0 3e
       -0.14631331 0.39706522 0.18456441 0.34433907
000100 44 0a b6 bd cb 1b a5 3e 28 57 8e be b3 45 00 be
       -0.08888677 0.32247767 -0.2780087 -0.12526588
000110 4a 4a 6c 3e 92 ed 9d 3e 8e 2e 72 3e 73 02 76 bd
       0.23075214 0.30845314 0.23650572 -0.06006093
000120 4a c9 3d 3e 8d 8d ba be be 88 5a be b0 4d 23 bd
       0.18533817 -0.3643612 -0.21341226 -0.03986901
000130 60 fd a7 be bb c2 86 be e2 52 e9 bd 75 1f 8c be
       -0.32810497 -0.26320443 -0.11392762 -0.2736775
000140 3e 0f c2 bd 69 c6 27 bd 1c 9b e8 bd 71 a1 a0 3e
       -0.094755635 -0.040960703 -0.1135771 0.3137317
000150 32 4a 8c bd ed 81 5c 3b 74 a3 7b be 5c 14 05 3e
       -0.06850089 0.0033646778 -0.24574071 0.12996048
000160 fd ca 95 bd a2 d7 84 3e ad a4 a8 be 58 4f 30 bd
       -0.073141076 0.25945765 -0.32938138 -0.043044418
000170 8b d6 e6 bd 71 94 a6 3e b4 d7 a2 bd db fd 9c bd
       -0.112713896 0.32535127 -0.07951298 -0.076656066
000180 b8 ec 03 3e fa 7b 9b bd d7 df b9 bb 55 90 a0 be
       0.1288327 -0.07592006 -0.0056724357 -0.31360117
000190 6f ac bd be cc a4 21 3e 73 f6 8d be e6 57 16 be
       -0.3704562 0.15785521 -0.27727088 -0.14681968
0001a0 ba 39 88 bd 24 bb 67 3d 17 df ab be e8 b6 e3 bd
       -0.066516355 0.056574956 -0.33568642 -0.11118871
0001b0 dd bc 1c be ea 3f c1 3e b6 03 85 3d 4f 99 b2 3e
       -0.1530642 0.37744075 0.064948484 0.3488259
0001c0 b9 49 4d be 92 d0 01 be e1 48 c0 3e 0e 05 5a be
       -0.20047654 -0.1267722 0.37555602 -0.2129099
0001d0 ed 76 f1 3d 46 88 a5 be 57 43 b7 3d 4d ba be 3e
       0.117902614 -0.3233053 0.08948391 0.3725151
0001e0 d3 01 b4 bd 20 c1 24 3e e5 73 a9 3e 01 b4 be be
       -0.087894104 0.16089296 0.33096233 -0.37246707
0001f0 04 46 e1 3d d9 3c 2c 3e 66 d9 b0 3e 1c 21 17 3e
       0.109996825 0.16820087 0.34540862 0.14758724
000200 0e 04 bf 3e 57 65 d5 bd 88 0e 89 bd 04 e1 7e be
       0.3730778 -0.1041972 -0.06692225 -0.24890524
000210 39 e4 f9 bc a2 0a d4 3d 82 88 27 3e b1 e9 49 bc
       -0.030504333 0.103535905 0.16360667 -0.012323783
000220 d3 bd af 3c 6e 8e 39 bd ea a8 86 be 2e 68 bf be
       0.02145282 -0.045301847 -0.26300746 -0.3738417
000230 fc 99 8a 3e 15 e3 e0 bc 18 89 79 be 99 d0 e8 bb
       0.27070606 -0.027452031 -0.24368703 -0.007104945
000240 99 83 96 bd 70 31 c9 3d 82 09 b7 3d ee 5e 94 3e
       -0.07349319 0.098238826 0.0893736 0.28978676
000250 5c 13 25 bd 3a f1 bb 3e 40 2d 95 bd 6f 61 ac be
       -0.040301666 0.3670748 -0.072840214 -0.33668086
000260 71 1a 9f bd fb 49 17 3e a8 3d 10 be e7 c4 a4 3e
       -0.07768715 0.14774315 -0.1408602 0.32181475
000270 dd b7 8b 3e 22 44 2c bd e6 ea e1 bc 88 59 ad be
       0.27288714 -0.042057164 -0.027577829 -0.3385737
000280 1e 35 97 3e 50 2d 8e 3e 25 25 1e be f5 33 8d 3e
       0.29532713 0.27768946 -0.15443857 0.27578703
000290 ea 58 98 3e cd 62 b1 bd ed 10 bf be fd c1 90 3e
       0.29755336 -0.08661423 -0.373176 0.28273
0002a0 d9 5e 8e be b8 3e 92 be 65 5d 7b be 3e 0d ac 3e
       -0.27806738 -0.28563476 -0.24547346 0.33603853
0002b0 b4 89 3e be 97 fc 36 3e 13 4a 16 be 29 24 ab 3c
       -0.18607217 0.17869793 -0.14676695 0.020891266
0002c0 35 a7 94 bd fc 69 c6 be 79 dc 7b be 05 64 a3 3e
       -0.07258455 -0.38752735 -0.24595822 0.31912246
0002d0 a4 12 94 3e e6 c8 72 be 5a c5 af 3e 02 c3 a8 3e
       0.28920472 -0.23709449 0.34330255 0.3296128
0002e0 69 d9 b6 3e 17 ce 82 3d 2b bb c4 be 0f 4e dc bd
       0.35712746 0.06386965 -0.38424048 -0.10757076
0002f0 a5 dd 50 3e 3d d7 04 3e bf 7f bc 3e 0d 2d 62 be
       0.2039705 0.12972732 0.36816213 -0.22087498
000300 d6 de d7 bd 91 f2 c1 3e 28 10 b5 3e a5 d5 a8 be
       -0.105405495 0.37880376 0.3536389 -0.32975498
000310 4a 4e 93 be 7b 22 6f be 16 15 88 3e cc 6c 9e be
       -0.28770667 -0.23352997 0.26578587 -0.3094238
000320 dd 7a b5 be df e7 63 3e 5a 65 66 be b2 a4 ac be
       -0.354453 0.2225642 -0.224996 -0.33719403
000330 bf 21 92 bd d1 98 ce bc b3 02 1c be 2e 0b 9b 3e
       -0.07135343 -0.025219353 -0.15235405 0.30281967
000340 2c 74 22 3e 93 2d b0 3e 0c f9 eb bd 68 94 a7 3e
       0.15864629 0.3440977 -0.11522111 0.32730412
000350 df bf 65 3e 1e d5 29 be 9b 13 a2 be 25 2c 4f be
       0.22436474 -0.16585204 -0.31655583 -0.20231684
000360 cf 46 21 3e c7 4d 9e ba ea 51 1b be bc 9a 80 3e
       0.15749668 -0.0012077623 -0.15167966 0.25118053
000370 9e c3 1c 3d e8 50 57 3d 9f 90 35 be 50 ca 20 3e
       0.038272493 0.052567393 -0.1773095 0.15702176
000380 60 3d 43 3d 1d d4 08 3e a6 5f e5 bd 0f d5 ac 3e
       0.047665954 0.13362165 -0.11199884 0.337563
000390 e6 5a 35 3e a0 1b b3 bd fb 9d ad be c3 f2 ac 3e
       0.17710456 -0.087455034 -0.33909592 0.33778962
0003a0 6a c0 a7 bd 3e e9 57 3d cb 07 30 3e bb fd 01 3c
       -0.08190997 0.05271267 0.17190473 0.007934029
0003b0 08 c1 64 3e 82 b5 b6 be 81 ff 93 3d d7 ca ba be
       0.2233926 -0.35685354 0.07226468 -0.3648288
0003c0 5e 0d 63 be 2d b2 4c 3d f3 a0 b7 be 1e 7d 6e be
       -0.22173068 0.04997461 -0.35864982 -0.23289916
0003d0 2b 90 a4 3e c0 71 8f 3c 19 61 8b bd 60 bc b7 3d
       0.3214124 0.017510295 -0.06805629 0.089714766
0003e0 40 ba b4 3e 9f fa 48 3d 1b e7 9d 3e fc 49 98 bd
       0.35298347 0.049067136 0.30840382 -0.074359864
0003f0 40 25 9e be c5 5e a2 3e 4e 26 30 bb 3e 61 b9 3e
       -0.30887794 0.31712928 -0.00268783 0.36207002

blocks.0.mlp.fc1.bias f4 [32]
000000 82 d5 04 3c 4f 29 26 bc 42 97 9f 3b 51 61 0f bc
       0.008107545 -0.010141685 0.0048703263 -0.008751229
000010 d5 df 11 bc b7 f9 b5 bb 11 56 ae ba d7 86 e2 bb
       -0.008903463 -0.00555345 -0.0013300796 -0.006913047
000020 42 b8 d4 3a b0 49 bb 3b e8 b5 b4 ba ff 18 a5 bb
       0.001622923 0.0057155713 -0.0013787122 -0.00503838
000030 df 2d 6e 3c ce cb d5 bb 32 71 47 bb 63 77 47 bc
       0.014537304 -0.0065245396 -0.003043246 -0.01217446
000040 9f c3 75 ba b5 e0 42 3a f3 4f 9b 3b 48 64 cf bb
       -0.0009375158 0.00074339967 0.0047397553 -0.006329093
000050 12 8a d6 bb ed e3 10 bc 09 2d 08 3c 02 80 00 3b
       -0.006547221 -0.008843404 0.0083115185 0.0019607549
000060 94 a9 fd bb 9d 2d 24 bc b9 de 1e bc b0 81 92 ba
       -0.0077411626 -0.010020641 -0.009696656 -0.0011177566
000070 ed 20 bd 3b cb 9e 22 ba 26 86 2a 3c fe 97 44 3c
       0.0057717473 -0.00062034716 0.01040796 0.011999128

blocks.0.mlp.fc2.weight f4 [8, 32]
000000 3f 33 82 3d 4f 6e 4e be 0a c4 75 bd c8 0f fe bd
       0.06357431 -0.20159267 -0.06000141 -0.12405354
000010 3e 8f 17 3e 2e 77 e6 3b 50 05 95 3e 00 b9 34 3e
       0.14800736 0.0070332503 0.29105616 0.17648697
000020 6a 7d 3a be d1 17 72 3d 8c e7 1c be fe e5 c2 be
       -0.18211904 0.059104744 -0.15322703 -0.38066095
000030 95 03 31 be 65 e1 95 3e ed a7 b8 3e ff 6d ba 3e
       -0.17286523 0.29273525 0.36065617 0.36412045
000040 42 10 fc ba aa 6e 67 bd fc e5 a4 bc 50 47 41 be
       -0.001923092 -0.05650202 -0.020129196 -0.1887486
000050 03 69 a9 bc e7 db 9c 3e 1d f6 9b be 08 aa 54 be
       -0.020679956 0.30636522 -0.30461207 -0.20767987
000060 8a 3d 9b 3e f8 b8 dd 3d 83 6e bc be 3b 09 8d 3d
       0.30320388 0.108262956 -0.36803064 0.06886526
000070 84 4c a2 be 37 09 94 3d 4b 69 69 bd d9 40 fa bd
       -0.31699002 0.0722832 -0.05698518 -0.122194
000080 ec 7a 79 3d ee e6 93 be 6f c0 41 3e 90 29 88 be
       0.060908243 -0.28887123 0.18921064 -0.2659421
000090 25 ff 0e be 30 93 5a bd b0 38 1e be 8d e4 fd 3c
       -0.13964517 -0.053363025 -0.15451312 0.03099277
0000a0 14 94 ac be f3 1b 92 3e 4d 5a e6 3d 5d fd f3 3d
       -0.33706725 0.2853695 0.11247692 0.119135596
0000b0 dc 98 4d 3d d3 ec 3f be 31 95 82 3e 71 ba a6 be
       0.050194606 -0.18742685 0.2550445 -0.32564119
0000c0 e9 49 6b be 6c 71 c2 be ae c9 76 be 44 ee cb 3d
       -0.22977413 -0.3797716 -0.24100372 0.09957555
0000d0 9c 63 8c 3e b7 ba d2 bd 18 ae b8 3e 41 5b 51 3e
       0.27419746 -0.10289519 0.36070323 0.20444967
0000e0 5a fc d9 bd 31 8d b2 be a5 78 b9 3e ac da ae 3c
       -0.10643835 -0.34873345 0.36224857 0.021344505
0000f0 e6 94 37 be c5 44 96 be 07 c9 68 be a2 f2 09 be
       -0.17927894 -0.29349342 -0.22732936 -0.13471463
000100 d0 83 fd bd 41 4c 9b 3e 61 59 a9 bd da c6 89 3e
       -0.12378657 0.30331615 -0.08269001 0.26909524
000110 02 d8 c4 bd 19 90 1d ba 1f 63 63 be 56 94 b3 3e
       -0.09611513 -0.0006010547 -0.2220578 0.3507411
000120 fb 91 af be d1 f1 66 bd 70 56 06 3d 01 98 8a 3e
       -0.34291062 -0.056382958 0.032797277 0.27069095
000130 af d0 5d be f1 bb 50 be 56 ce 30 3e 43 8a 5f 3e
       -0.21661638 -0.20384194 0.17266211 0.21830086
000140 ed 8e 8d be ed 49 68 be 52 40 f2 bd 0d 68 17 3e
       -0.27648106 -0.2268445 -0.118286744 0.14785786
000150 3f 4d b0 3e 81 6a fd 3d 5f c7 43 3e 63 1b b4 3e
       0.34433934 0.1237383 0.19119023 0.35177144
000160 be 2e b7 bd 1f be 8c 3e af b0 6a 3e ec e5 88 be
       -0.08944462 0.274888 0.22918962 -0.26737916
000170 91 24 f4 bd ef 61 b7 be 50 b5 bc 3d 35 a7 2f be
       -0.11921037 -0.35816905 0.0921427 -0.17153628
000180 30 67 73 3e 2c c7 a7 3d dd b6 73 be 69 3b b4 3d
       0.23769832 0.08192286 -0.23800226 0.08800394
000190 fd 38 0d bd 2a 00 12 be a9 f7 b9 3e 09 e8 c6 3e
       -0.034478176 -0.14257875 0.36321762 0.38848904
0001a0 d1 a1 9d 3c 47 4f 3c bd b9 58 4c 3e 80 c8 1c be
       0.0192422 -0.045974042 0.1995572 -0.1531086
0001b0 c1 f5 2a be 58 06 b6 3e e9 a2 2e bc 05 af 04 3d
       -0.1669531 0.35551715 -0.010658958 0.032393474
0001c0 38 8d 12 be 75 06 4f 3e 24 43 75 3e ae 2c 81 ba
       -0.14311683 0.20217307 0.23951393 -0.0009855235
0001d0 6a 63 c3 3e e1 be bc 3e 3d c4 91 be 92 27 0d be
       0.38161784 0.3686438 -0.2847003 -0.13784626
0001e0 65 bb 44 3e 5d 2e 90 be e0 10 92 be fe c7 4d 3e
       0.1921211 -0.28160372 -0.285285 0.20095822
0001f0 e3 09 a8 3e 08 e5 e6 3d 5e 9d 05 be ed d8 3e be
       0.32820043 0.11274153 -0.13048312 -0.18637438
000200 42 b2 94 3e c2 ba 97 be f2 76 80 be 08 0c cf bc
       0.2904225 -0.29634672 -0.25090748 -0.025274292
000210 61 25 ea bc 2e 9d 24 3d 13 31 89 3e 9a 8b c4 bc
       -0.028582277 0.04018896 0.26795253 -0.023992348
000220 d4 46 bb be 46 8e 2a be 82 69 3d be c3 56 9c 3e
       -0.36577475 -0.16655836 -0.1849728 0.30534944
000230 ae ee f6 3d c8 2d 44 3d b5 12 8d 3e 14 12 90 be
       0.12057243 0.047895223 0.27553335 -0.28138793
000240 03 25 b6 ba 03 fe 33 3c 95 94 0a 3e bf da 89 bd
       -0.0013896528 0.010985854 0.13533242 -0.06731176
000250 1a 49 08 3e 4b e2 a8 be b6 ff 93 3e 83 57 7b bd
       0.13309136 -0.32985148 0.2890603 -0.061362755
000260 f5 8b 28 be 7a 69 8b 3d 60 cb a3 bd ef 23 7c be
       -0.1645964 0.068072274 -0.07997775 -0.24623083
000270 6f 6b cb 3c 25 81 c1 3e ce c2 14 be 3a af 3e 3e
       0.024831502 0.37793842 -0.14527437 0.18621531
000280 1e 5b 9a 3c 3a ad c7 3b 47 0a 39 be f7 7e 94 be
       0.018842276 0.0060936483 -0.18070327 -0.29003116
000290 58 8c 68 3e 8f 82 d8 bc 37 8b 03 be ea 7f 81 bd
       0.22709787 -0.026429443 -0.12846075 -0.06323226
0002a0 b1 c7 99 3d 19 fb 34 be 75 2a d8 3d b1 ae 77 3e
       0.07508791 -0.17673911 0.10554973 0.24187733
0002b0 ed 91 93 3d ae 82 81 3e 1f 54 44 3e 66 61 6a 3e
       0.072055675 0.25295013 0.19172715 0.22888717
0002c0 38 59 6c be eb 59 52 be 68 2f 8d 3e 25 e3 5b be
       -0.23080909 -0.20542113 0.2757523 -0.21473368
0002d0 6b 75 11 be af 20 69 3e 16 7b 02 be cd 6d bf bd
       -0.14204948 0.22766374 -0.12742266 -0.09347115
0002e0 05 19 68 3e 25 27 c9 3d 57 66 a7 be 13 84 8a be
       0.22665794 0.09821919 -0.32695267 -0.2705389
0002f0 f4 08 1a 3d 27 e1 f5 3c 27 6e 36 3c 0e 15 55 be
       0.037606195 0.030014588 0.011134661 -0.20808813
000300 a4 4b 17 3e 90 4c 1d bd 8b 91 4d 3e ee 9a 9c be
       0.14774948 -0.038403094 0.20075051 -0.30586952
000310 64 37 08 be e9 4f 81 be b6 88 45 3e ce a9 a8 be
       -0.1330238 -0.2525628 0.19290432 -0.3294205
000320 36 7c 17 be 2c de 5d 3e 94 df 85 3e 4a 27 bd be
       -0.14793476 0.21666783 0.2614714 -0.36944038
000330 b6 8b 70 3e 6f a0 99 be 28 16 67 be 2e 98 0f 3d
       0.23490795 -0.30005214 -0.22567046 0.03505724
000340 df d3 06 3d 7c cb f8 bd fb b7 fc bc 50 40 42 3e
       0.0329169 -0.121481866 -0.030849447 0.18969846
000350 61 fa df bc 9a 56 21 3e 0e 1b 1a 3e f7 07 2b be
       -0.02734107 0.15755692 0.15049383 -0.16702257
000360 ee 67 83 3e fb 2f 72 be 43 2a de bd d6 84 df bd
       0.2566523 -0.23651116 -0.108479045 -0.10914008
000370 15 16 96 3e 53 cf a3 be b3 5b 02 be 6c ec 91 3e
       0.29313722 -0.31994113 -0.12730293 0.28500688
000380 d6 62 0a 3e 94 f6 a8 bd 4d 5c 9c 3d 87 aa 7f be
       0.13514265 -0.08250156 0.076347925 -0.24967395
000390 41 58 05 be 79 4e bf 3d 95 98 18 bc bd eb c0 3e
       -0.13021947 0.09341139 -0.009313722 0.37679854
0003a0 ff 62 f5 3d 66 d2 f1 bd 9b 89 57 3e f6 05 22 3d
       0.11981773 -0.118077084 0.21048586 0.039556466
0003b0 56 d5 62 be 9a 64 44 3e a0 40 be be be 0f 1a be
       -0.22151694 0.19179001 -0.3715868 -0.15045068
0003c0 d6 ff 2c 3c 36 7d 67 3e d0 8b a4 be dc e8 8d be
       0.010559043 0.22606358 -0.32137918 -0.2771672
0003d0 3b 73 c8 bc ad 85 b1 3e c9 57 b5 3e ac 3d 0a 3e
       -0.024469009 0.346723 0.35418537 0.13500088
0003e0 e6 de 1f 3d bd 07 c5 3e 43 53 5c 3e 15 15 6e bd
       0.039030932 0.38482466 0.21516137 -0.058125574
0003f0 b3 a4 75 be c5 a9 02 be 42 62 b7 3d 07 d7 96 3e
       -0.23988609 -0.12760074 0.08954288 0.29460928

blocks.0.mlp.fc2.bias f4 [8]
000000 20 8f fe bb 2d 3c ec 3b e1 7f 86 bb 9b a2 2b bb
       -0.0077685267 0.007209322 -0.0041046 -0.002618945
000010 36 b5 30 3c fe 82 85 bb 4c 94 b5 3b 5c e3 19 3b
       0.010785392 -0.0040744534 0.00554136 0.0023481464

blocks.1.norm1.weight f4 [8]
000000 c9 08 81 3f 45 24 7c 3f c0 eb 80 3f cf 2d 7f 3f
       1.0080806 0.9849284 1.0071945 0.99679273
000010 bd 51 80 3f 81 1e 7e 3f 48 a3 7e 3f b7 3a 80 3f
       1.0024945 0.99265295 0.994679 1.0017918

blocks.1.norm1.bias f4 [8]
000000 62 0f 2a 3c 7e bb 21 ba 87 0a 80 3b 15 7d ae 3b
       0.010379644 -0.0006169601 0.003907505 0.0053249695
000010 1f ad d0 3b 09 92 8f bb ba fc 77 3c 0a d2 ea bb
       0.006368294 -0.0043814224 0.015135938 -0.007166152

blocks.1.attn.qkv.weight f4 [24, 8]
000000 a8 1c 2b be 65 13 97 bd 4e 65 29 be 4c c8 84 3e
       -0.1671015 -0.07376746 -0.16542551 0.25934064
000010 d7 e4 29 3e 37 2b e3 bd 19 61 45 3e f8 ae af be
       0.16591202 -0.11092227 0.19275321 -0.34313178
000020 e4 c2 e1 3c 29 c8 0b 3e 76 61 f3 bb 5e 93 96 3e
       0.027558751 0.13650574 -0.0074273897 0.29409307
000030 b6 d4 39 be 47 da 84 3d 46 e4 a4 be cf 5a 41 3e
       -0.18147549 0.064869456 -0.3220541 0.18882297
000040 b4 be b8 3d c0 32 a3 3e f2 1c d2 be 86 5a c1 be
       0.09020749 0.31874657 -0.4103771 -0.37764376
000050 bb 66 40 be 9a 0c 92 3e b7 40 98 be ba ea d2 be
       -0.18789189 0.2852524 -0.29736874 -0.41194707
000060 fd 8c c2 3e 6d c5 32 be da 6f c0 be 93 52 0f 3e
       0.3799819 -0.17458124 -0.37585336 0.13996343
000070 a8 6f 6a 3e ce 44 be 3d 9b 5e ff 3d c2 3b d6 3e
       0.22894156 0.09290467 0.124692164 0.41842467
000080 30 db c4 3e f3 d5 c5 3e e5 19 af 3e c4 47 a1 3e
       0.38448477 0.38639793 0.34199443 0.31500065
000090 5d 49 b1 3e 8e c1 4a bd 62 c2 d8 3d e7 e7 ac bd
       0.34626284 -0.049500994 0.105839506 -0.08442669
0000a0 77 d9 c3 3e a1 07 7c 3e fc 03 25 be 55 1e 0a be
       0.3825185 0.24612285 -0.16114801 -0.13488133
0000b0 18 3d 0c be 8b 41 16 3e 18 6a 99 3e 0b 2c 4a 3e
       -0.1369518 0.1467344 0.29963756 0.19743364
0000c0 14 0c 57 3e a1 19 00 3d 6d cd 2e 3c 1d cc ae be
       0.21000701 0.03127444 0.0106690945 -0.341401
0000d0 14 a3 1b 3e de 09 88 3e 33 cb 10 be a7 29 ba 3e
       0.15198928 0.26570028 -0.14140014 0.36359903
0000e0 2f 9d a3 be 6c dd 98 3e be 07 9e 3e 15 72 b2 bd
       -0.3195586 0.2985643 0.30865282 -0.08713166
0000f0 9a 96 5c be c5 89 74 be 69 e6 9f be fc 3d a7 be
       -0.21541825 -0.2388068 -0.31230476 -0.32664478
000100 35 68 81 bd 61 67 64 be 0b d1 dd bd 3e d7 85 3e
       -0.06318704 -0.22305061 -0.108308874 0.2614078
000110 9e 2f d6 3d 48 de 66 3c 2f 42 c0 3e 40 fc ab 3e
       0.10458301 0.014091082 0.37550494 0.3359089
000120 42 7c 6c 3e 2c 02 08 be 3c fa c8 be 00 05 b5 3e
       0.23094276 -0.13282079 -0.39253414 0.35355377
000130 55 87 64 be 1a aa 81 be 09 1d bc be 6f 01 57 be
       -0.2231725 -0.2532509 -0.36740902 -0.2099664
000140 ed 75 02 3e 5a c7 d4 3e fd a4 db 3e d8 f2 5b be
       0.12740298 0.41558343 0.42899314 -0.21479356
000150 ab c8 de be 77 52 60 bd 66 41 06 3d 9d 61 d3 be
       -0.43512473 -0.054766145 0.032777213 -0.4128541
000160 dc e4 88 be e8 ef d6 3d 62 9d 9c be 33 e7 be 3e
       -0.26737106 0.10494977 -0.30588824 0.37285766
000170 a7 e7 c7 3c f2 d9 92 3e 15 b8 f4 bd 84 40 ad 3d
       0.024402453 0.28681904 -0.11949173 0.08459571
000180 c6 db 26 3e f1 34 bb bd 5c c7 01 be 80 09 a8 3e
       0.16294774 -0.09140957 -0.12673706 0.32819748
000190 11 22 3d bd 7d 73 6b 3d 7b 41 16 be 3a d3 d1 3e
       -0.046175066 0.057483185 -0.14673416 0.40981466
0001a0 f0 3c 21 bd 30 e3 dc 3d e3 38 8e be f5 dc 19 3d
       -0.039364755 0.1078552 -0.27777776 0.037564237
0001b0 35 66 32 be a6 4d a9 bb 00 be 83 be e5 f3 51 3e
       -0.17421801 -0.005166727 -0.25730896 0.20503195
0001c0 e3 f5 69 bd 2b b0 d1 be eb 59 38 bd 27 3b d6 be
       -0.05711926 -0.40954718 -0.045007627 -0.41842005
0001d0 5e f5 9e 3e 21 d5 84 3e c7 5b 90 be f9 d3 97 bc
       0.31046575 0.25943854 -0.2819502 -0.018533694
0001e0 ab 04 8e be 62 94 41 bd 9b 58 49 3e 5b 41 85 3b
       -0.27737936 -0.04726065 0.19662707 0.004066629
0001f0 80 b6 26 3e 4c 12 2b bd 97 1b a0 3e 7e e6 a8 bd
       0.16280556 -0.041765496 0.3127105 -0.08247088
000200 68 6d 9e be c6 11 b6 be e6 78 ac be 9f 11 97 3e
       -0.30942845 -0.35560435 -0.33685988 0.2950563
000210 02 5b 1b be 82 d2 05 3e 7c 30 29 3e cc 53 e0 3e
       -0.15171435 0.13068584 0.16522402 0.43813932
000220 50 16 7c 3e 98 c8 7d 3e 78 4d 44 be e4 a9 7d 3b
       0.24617887 0.24783552 -0.19170177 0.0038706
000230 1c 5d 8a 3d 80 a7 14 be eb 0f d3 be 55 95 4f be
       0.067560405 -0.14517021 -0.41223082 -0.2027181
000240 6b fc d8 3e cf a1 05 3e 31 4e ac 3c d3 54 e7 3d
       0.4238008 0.13050006 0.021033378 0.11295476
000250 40 db c1 3d 20 0d c4 3d a1 53 cf bb fd 77 fd bd
       0.09465647 0.09572816 -0.006327108 -0.123764016
000260 77 d6 cd be df 36 b0 be c2 48 b4 be 6b f8 84 3d
       -0.40202686 -0.34416863 -0.3521176 0.064926945
000270 ed 83 aa be 0c c2 42 3e dc 92 73 3e 43 d8 06 3e
       -0.33303776 0.19019336 0.23786491 0.13168435
000280 21 c9 4a 3e 26 4c 55 be f3 ab ac 3e 11 d5 cb 3e
       0.19803287 -0.2082983 0.33724937 0.39810994
000290 e3 23 b2 3e 9c 1d dd be 32 b1 99 3d 38 a0 2f 3e
       0.34793004 -0.43186653 0.075045004 0.17150962
0002a0 36 78 8b bd dc ef 8a be c2 1e c4 3e de 5a 36 be
       -0.06810038 -0.27136123 0.38304716 -0.178081
0002b0 7d 66 95 3e eb b4 f4 bd 1a 7e 1f be 92 a4 c5 3e
       0.29179755 -0.1194857 -0.15575448 0.3860212
0002c0 2d 51 3c 3e f6 05 bb be 3a 05 b2 be 64 0e b2 3e
       0.18390341 -0.36527985 -0.34769613 0.34776604
0002d0 d2 18 25 be 2b 1d 17 be e8 be 47 be 09 ff a9 3d
       -0.1612275 -0.1475722 -0.19506419 0.08300597
0002e0 8a 4f 47 3e 80 32 98 be 89 3d 3b be 97 c2 cf 3d
       0.19463935 -0.29726028 -0.18285193 0.10144537
0002f0 f2 02 ad 3e 7e f2 af 3e 12 ed 6c be 10 90 08 3e
       0.3379131 0.34364694 -0.2313731 0.13336205

blocks.1.attn.qkv.bias f4 [24]
000000 b1 38 5b bc 07 e7 ae 3b 30 fd 2c bc 7f 18 34 3c
       -0.0133802155 0.005337599 -0.0105584115 0.010992168
000010 e1 d0 08 bc 97 9a 01 bc 52 b6 7d 3b bf 9d 8f 3b
       -0.008350582 -0.007910392 0.0038713408 0.0043828185
000020 78 53 3a b7 79 52 3e b7 db 66 09 b4 82 78 ad 35
       -1.1105898e-05 -1.1344085e-05 -1.2796538e-07 1.2924577e-06
000030 b0 16 b0 36 06 7d ff 36 35 35 57 35 c1 0a 5f b6
       5.24785e-06 7.614147e-06 8.017117e-07 -3.323585e-06
000040 00 76 59 bc 74 96 bd bb cf 21 21 3c 7d b1 31 3c
       -0.013272762 -0.0057857577 0.009834721 0.010845539
000050 53 41 1b 3c 5b 6f 56 bc d1 fa 40 b9 38 95 91 3a
       0.009476024 -0.013088073 -0.00018403983 0.0011107093

blocks.1.attn.proj.weight f4 [8, 8]
000000 ac 80 f0 3e 6d 10 50 3c cb 77 02 3f a8 c1 18 bf
       0.4697317 0.012699229 0.5096404 -0.59670496
000010 49 d3 a4 be 23 ca 33 bd 3d 2d c7 3e e2 41 6e be
       -0.32192448 -0.043893944 0.38901702 -0.2326732
000020 e9 4c ea bc 32 12 0c bd 05 f5 17 3f 08 8b 89 be
       -0.028601127 -0.03419704 0.59358245 -0.26863885
000030 4d 18 07 3f b4 b4 11 bf c7 56 a7 3d 26 94 5f bd
       0.52771455 -0.56916356 0.08170848 -0.054584645
000040 b4 ad 92 3c c3 c3 2c bd 61 ae 0f bf 3d e3 98 be
       0.017905094 -0.04217888 -0.56125456 -0.2986087
000050 1d 5b f5 be 33 bd bf be 9a 0d 0b 3f 6f b4 19 3f
       -0.47921076 -0.37449035 0.5431763 0.60040945
000060 2e 74 de 3e 65 77 18 3f 52 5a bd bb 27 5e f5 be
       0.43448013 0.5955718 -0.0057785893 -0.47923395
000070 82 57 a5 3e b5 2e 90 be b9 70 09 be 01 e8 e8 be
       0.32293326 -0.28160635 -0.13421907 -0.45489505
000080 9e 5c bf be ac 50 8c 3e 5c a2 f5 3e 5a f7 d5 3e
       -0.3737535 0.27405298 0.47975433 0.41790277
000090 4d b9 d1 3e 72 e1 f4 be a8 8b bd 3e 88 cc 08 bf
       0.40961686 -0.4782825 0.37020612 -0.5343709
0000a0 25 dc e7 3c 24 17 83 3e da 5b 68 3e f5 ec 9a bd
       0.028303215 0.25603592 0.22691289 -0.07564727
0000b0 03 32 08 3f 39 26 1d be f3 f7 15 3f b6 42 a3 3e
       0.5320131 -0.15346612 0.58581465 0.31886834
0000c0 5a 17 0e 3f 5d 81 9c 3c 28 b4 1a 3f eb c3 8b be
       0.5550438 0.019104654 0.60431147 -0.2729791
0000d0 21 52 e7 bd af 9e fe be 1e ee 13 3f 7d bd 10 3f
       -0.11294962 -0.4973044 0.57785213 0.56539136
0000e0 72 cc 03 bf 30 6c 96 be 6b 72 ce 3e 50 07 09 bf
       -0.51483834 -0.29379416 0.4032167 -0.53526783
0000f0 23 9c 14 bf af 73 a5 3e 8f c4 d6 3e bd 1a 62 be
       -0.58050746 0.32314822 0.41946837 -0.22080512

blocks.1.attn.proj.bias f4 [8]
000000 44 30 5a bc 99 63 55 3c 8c 51 d8 bb cc 00 0a bc
       -0.0133171715 0.013024234 -0.006601518 -0.008423042
000010 95 11 4a 3c d1 ce a7 39 3e 2b ae 3b d3 47 ba 3b
       0.012333293 0.00032006812 0.0053152135 0.0056848316

blocks.1.norm2.weight f4 [8]
000000 b0 01 81 3f 76 88 80 3f ee 94 7d 3f 62 d7 81 3f
       1.007864 1.0041645 0.99055374 1.0143855
000010 93 66 80 3f 67 34 81 3f c4 72 80 3f e4 01 81 3f
       1.0031303 1.0094117 1.0035024 1.0078702

blocks.1.norm2.bias f4 [8]
000000 3f d0 2e 3c 88 e7 57 3c 6f 52 b9 3b c5 8c 5e bc
       0.010669767 0.01317776 0.005655579 -0.013583367
000010 1e 8c 34 bc d3 6b 30 bc b8 09 d6 bb c5 8c d6 3b
       -0.011019735 -0.010767895 -0.0065319203 0.0065475428

blocks.1.mlp.fc1.weight f4 [32, 8]
000000 1a 6d 08 3e 94 c0 b9 3e 9d 7c f2 3d 7b 3b 9d be
       0.13322869 0.36279738 0.11840174 -0.30709442
000010 da 97 7c be e9 f3 07 be f5 21 8c be e2 63 9d 3e
       -0.24667302 -0.13276638 -0.27369657 0.30740267
000020 34 86 77 3e 3a f7 0a 3e 3c 80 d7 3d 2b 54 a2 be
       0.24172288 0.13570872 0.10522506 -0.3170484
000030 61 69 b5 be b0 03 0f 3e 12 7a 9f 3d b4 3f b3 3d
       -0.3543196 0.1396625 0.07786955 0.08752385
000040 e4 20 96 be 90 8b 51 3e d5 79 53 bb 01 54 bf 3e
       -0.2932197 0.20463395 -0.0032268662 0.37368777
000050 79 1d 0e be af f5 af be 83 93 af 3e f9 e4 a6 be
       -0.1387843 -0.3436713 0.3429223 -0.32596567
000060 79 46 ad 3e 34 9f be 3e 4b 38 b1 be 64 30 82 be
       0.3384283 0.37230837 -0.3461326 -0.25427544
000070 2f e5 b9 be b1 93 95 3d 07 e5 8f 3e 64 64 80 bd
       -0.36307666 0.073035605 0.28104421 -0.06269148
000080 c3 4e 2d 3e b6 7d 24 3d e1 e2 6c 3e 52 2c 80 bd
       0.16924576 0.04015895 0.23133422 -0.062584534
000090 64 df 10 be a5 b0 87 3d 54 ca 89 3e 0a 86 6e 3e
       -0.14147717 0.06625489 0.26912177 0.2329332
0000a0 0a 11 d4 bd 50 93 61 3e 1c c4 65 3e 87 41 58 be
       -0.103548124 0.22028852 0.22438091 -0.21118747
0000b0 5d ae 61 3e f9 db 4d 3e c0 ac 5c 3e 2a 8c 8c 3d
       0.2203917 0.20103444 0.21550274 0.06862672
0000c0 96 c0 be be 60 a3 85 3e 2b bc 26 be 34 84 54 be
       -0.37256306 0.26101208 -0.16282718 -0.20753556
0000d0 1f 56 24 3e f6 dd 68 be 14 49 4f 3e 18 1a ad 3e
       0.16048478 -0.22740921 0.20242721 0.3380897
0000e0 1d cd 4b 3e 3e 51 8e 3e 0e 4a 57 3e fb d1 09 be
       0.19902463 0.27796358 0.21024343 -0.13459007
0000f0 bd 8e aa be 1b e9 3a be 13 dc be 3e 5c 13 1f be
       -0.33312026 -0.18252985 0.37277278 -0.15534729
000100 ec 87 42 be b2 bb ea 3d 80 dd 44 3d 1c c2 bb be
       -0.18997163 0.11461581 0.0480628 -0.3667153
000110 e0 f4 a6 3e 8f 12 00 3e 37 7f a5 be 7f 4c a4 be
       0.326087 0.1250708 -0.3232362 -0.32089612
000120 f3 07 5c 3e 6e 82 b9 bd c3 08 d5 bd 5e c3 ae bd
       0.21487407 -0.090580806 -0.10402062 -0.08533357
000130 a4 da 65 3d 17 0f 0c 3e 17 ef c9 3d 7b 96 4e be
       0.056116715 0.13677631 0.09860056 -0.20174591
000140 06 64 24 3d ee 5a 29 be 38 44 b7 bd 1e 96 e9 3d
       0.040134452 -0.16538593 -0.089485586 0.11405586
000150 77 3e f9 bc 57 2e 1f 3e 9a 78 ff bd 4b cb 05 3d
       -0.030425293 0.15545021 -0.12474175 0.03266458
000160 44 a8 fb bb 7b 16 92 3d d4 fe c7 be cd 51 00 be
       -0.007679971 0.07133194 -0.39061606 -0.12531205
000170 19 ef a0 3e ad f4 94 3e 96 90 09 be 76 4e e5 3d
       0.31432417 0.29092923 -0.13434061 0.11196606
000180 6b 23 52 3e 57 ad 18 bd 98 7c 94 be b0 31 a2 be
       0.20521323 -0.037274685 -0.29001307 -0.31678534
000190 80 bb 46 be 2b b1 bb be df 45 5c 39 15 0b 90 3e
       -0.19407463 -0.36658606 0.00021006864 0.28133455
0001a0 86 8f 94 be 70 06 d2 3d ce 3a 71 3e e9 cf b8 be
       -0.2901575 0.10255134 0.23557588 -0.36096123
0001b0 6c 4d 45 3b ff b8 2f 3d 4e c5 67 be e6 60 68 be
       0.0030105961 0.042901035 -0.2263386 -0.22693214
0001c0 d0 8d 64 be 34 6e 8f bd 15 d9 4b be 09 37 52 bd
       -0.22319722 -0.070034415 -0.19907029 -0.051322017
0001d0 1a 29 89 3d ad 48 b6 3d b7 83 ba 3e 74 a8 92 3e
       0.066972926 0.089005806 0.36428615 0.28644145
0001e0 ff 18 85 bd 02 dc 95 3c f5 88 96 3e 1e 49 87 3e
       -0.06498908 0.018293384 0.29401365 0.2642297
0001f0 5b 23 32 3c b8 0c bb 3e 2d 98 0f be 02 7c bd be
       0.010872687 0.3653314 -0.14022894 -0.37008673
000200 31 7d 6d 3e 26 23 cc bc 5d 2a 68 3e 07 42 c8 3e
       0.23192288 -0.024919104 0.2267241 0.39112875
000210 ad 7d 9d 3e a7 87 6f be 11 22 a3 be de 85 11 3e
       0.30759946 -0.23391591 -0.31861928 0.14211223
000220 22 f3 6a be 75 07 2b bd 4b ea 8f be fa 8f b9 be
       -0.2294431 -0.04175516 -0.2810844 -0.36242658
000230 fa a2 a3 3e 04 d3 99 be 3d 91 24 bd b2 c1 9d be
       0.3196028 -0.30043805 -0.040177573 -0.3081184
000240 0c 26 34 bd 7c 91 1c be f9 70 b6 3e 65 55 99 3d
       -0.043981597 -0.15289873 0.35633066 0.07486991
000250 b3 b7 67 3e 19 de ce 3c 67 17 57 be 3c b2 8c 3e
       0.2262867 0.025252389 -0.21005021 0.27479732
000260 89 f7 aa be 1b b4 65 be cf 40 b5 be bd 89 4a be
       -0.3339198 -0.22431986 -0.35401008 -0.19779105
000270 3f d8 2c bd a7 53 35 3d 08 e7 95 be 04 37 82 3e
       -0.042198416 0.04426923 -0.29277825 0.254326
000280 07 04 4e 3e b7 87 ca 3d 4c fc 7e 3e cf 05 3d bc
       0.20118724 0.09889167 0.24900931 -0.011537029
000290 a2 e4 ed bc bc 18 bc be 72 68 c3 3e 43 22 9b 3e
       -0.029039685 -0.3673762 0.38165623 0.30299577
0002a0 bf 1c da 3d c3 54 a8 3e e5 6b 46 3e 09 2f 4d bd
       0.10650014 0.32877168 0.19377096 -0.050093684
0002b0 81 72 32 be 15 f0 8e be 5a c2 03 3e d4 ea b8 be
       -0.17426492 -0.27917543 0.12867108 -0.3611666
0002c0 37 c9 1a be 22 3f 78 3e 05 be 7a 3e 57 53 23 be
       -0.1511582 0.24242833 0.24486549 -0.1594976
0002d0 b0 b6 64 3e c9 4b 09 bc 7f 40 ec bc 6b f7 31 3e
       0.22335315 -0.008379885 -0.028839348 0.17379539
0002e0 e7 7a 21 3e 4a f5 51 3e 4c 0f f4 3d 48 cc f0 3c
       0.1576954 0.20503727 0.1191698 0.029394284
0002f0 af 69 18 bd d8 90 c4 be 72 88 b6 be 60 b1 7d 3e
       -0.037210163 -0.38391757 -0.35650975 0.24774694
000300 72 70 b0 be 9d a1 9f 3e f9 7e c3 bd 2b 5b 5c be
       -0.3446079 0.3117799 -0.095457025 -0.21519153
000310 7c fc ad 3e 8d 63 09 be 2c 2d cf bd bc b9 95 be
       0.33981693 -0.13416882 -0.10116038 -0.29243267
000320 ad da b7 3e ae 60 47 be 65 b1 42 3c de 21 1b be
       0.35909024 -0.19470474 0.011883114 -0.15149638
000330 e4 62 b7 3c b1 44 ba 3e 36 7e 95 be 05 5a 04 be
       0.022386022 0.36380532 -0.29197854 -0.12924965
000340 44 fc eb 3c 83 f4 35 3e a9 f2 86 3d 66 51 b7 be
       0.028806813 0.17769055 0.065892525 -0.3580429
000350 9d 1a be be 1f 48 c5 be 87 fd b7 be a9 22 2a bd
       -0.3712968 -0.38531587 -0.35935614 -0.04153696
000360 f2 20 9a 3e 7f f2 2e 3e 78 1d a4 be 1b 62 a3 bd
       0.3010326 0.17084692 -0.32053733 -0.079776965
000370 df 98 9b 3e 24 88 51 be 74 83 94 be bd c0 43 3e
       0.3039007 -0.2046209 -0.2900654 0.19116493
000380 c9 39 93 be ee b4 bf 3e 58 0d a6 be 6d 9a 67 3e
       -0.28755024 0.37442726 -0.32432055 0.22617503
000390 a6 fd 93 be a2 46 2f 3e 74 f7 30 3e b4 25 73 be
       -0.28904456 0.17116788 0.17281896 -0.23744851
0003a0 b2 ee 32 3e de 15 75 be d8 d5 c5 be c7 2b a6 3e
       0.17473868 -0.23934123 -0.38639712 0.32455274
0003b0 13 22 b1 be 2f 2e b4 3e d7 22 40 be 6b 79 95 be
       -0.3459631 0.35191485 -0.1876329 -0.29194197
0003c0 1e 07 75 3c 25 e5 83 3e a0 ba 46 bc 6d a7 99 bd
       0.01495531 0.2576076 -0.012129456 -0.07502637
0003d0 fd 51 b3 be 51 48 84 be bf b9 b5 be 30 ce 87 3d
       -0.3502349 -0.25836423 -0.35493276 0.06631124
0003e0 fc a7 8c bd 92 c0 94 be 8b ee a1 be 83 48 ae 3e
       -0.06867978 -0.2905317 -0.31627306 0.34039697
0003f0 4b 81 4e 3e 77 e3 c9 3e 4c 3f 96 be eb a9 46 3e
       0.20166509 0.39431354 -0.29345167 0.19400756

blocks.1.mlp.fc1.bias f4 [32]
000000 de df 51 3c 4f f9 d3 3b 34 26 56 ba ac cb 24 3c
       0.012809722 0.006468929 -0.0008169145 0.010058325
000010 43 ea 0a 3c 43 9a 75 3c 64 a2 4c 3c e6 c7 40 3c
       0.008478704 0.014990392 0.012489889 0.0117664095
000020 f1 d2 07 bb 52 8b 47 3c 10 02 12 bc af 1c ff bb
       -0.0020725096 0.012179213 -0.008911625 -0.007785402
000030 0f 47 47 3c 8d e2 e5 3b 8d 74 04 3c c2 93 43 bc
       0.012162938 0.0070155323 0.0080844285 -0.011937084
000040 ea 78 0a bb 84 e9 58 3c c6 32 57 3c ef b6 55 bc
       -0.00211292 0.013239268 0.013134664 -0.013044103
000050 d9 36 69 bc 13 82 4f 3c 7f ad 4a bc 40 c6 26 3c
       -0.014234268 0.012665289 -0.012370466 0.010179102
000060 b9 a4 da 3b a6 bd a6 bb 49 1d 50 3c ca 2f f5 bb
       0.0066724685 -0.005088526 0.012702295 -0.0074825035
000070 05 4e 54 3b b0 03 69 3c 35 4d fa bb c5 98 e2 bb
       0.0032395136 0.014222071 -0.0076385983 -0.006915184

blocks.1.mlp.fc2.weight f4 [8, 32]
000000 1a 7b 8f bd 73 d2 9d 3e bc 2d 04 be 32 16 97 be
       -0.07005902 0.30824623 -0.12908071 -0.2950912
000010 e1 1d 23 3e 0e 5a ef bc 1b d2 5b 3e de 03 9d 3e
       0.15929367 -0.029217746 0.21466868 0.30667013
000020 0f 92 b3 3e 71 8e 0f be 65 8e 36 bc a3 9f ac 3d
       0.3507237 -0.14019181 -0.011142348 0.08428886
000030 2e 12 95 be 07 62 39 be 0b 07 c4 3e 66 4b 12 3e
       -0.29115433 -0.181038 0.38286623 0.14286575
000040 b9 ca 91 3e 7c 49 17 be 3c 3e 0e be d2 7f 84 3e
       0.28474978 -0.14774126 -0.13890928 0.2587877
000050 cb 2b 10 bd ed 6b 23 3e 52 9b ad 3e 02 90 b1 be
       -0.035198014 0.15959139 0.33907562 -0.34680182
000060 c7 50 80 be 07 34 9a bd bf 08 bd be 84 4c 5e be
       -0.25061628 -0.07529455 -0.36920735 -0.21708876
000070 83 65 7b be 66 91 93 3e 9f 6a 53 3e d6 e2 a7 be
       -0.24550442 0.28821868 0.20646141 -0.3279025
000080 f4 4f 10 3e 9e 81 a1 be ea 48 ae 3e 34 96 3f 3e
       0.14093 -0.31544203 0.34040004 0.18709642
000090 7b b8 19 3c d0 41 16 bd c2 cd 83 3e 86 c9 b3 be
       0.0093823625 -0.036683857 0.25742918 -0.35114688
0000a0 37 e5 0c bd ff 43 3e be 99 a9 23 3d a9 b4 e1 3d
       -0.034398284 -0.18580626 0.039956663 0.11020786
0000b0 70 00 0f be e0 ae 92 3d a7 55 2a 3e 77 8c a1 be
       -0.1396501 0.07162261 0.16634236 -0.3155248
0000c0 74 20 c5 be e4 c3 8a 3d 5e 12 29 3e 62 a9 2f 3e
       -0.38501322 0.067756444 0.16510913 0.17154458
0000d0 4b b0 8e bc 89 0e cf bd 66 2c fe 3c db 9e 28 be
       -0.017418047 -0.10110194 0.03102703 -0.16466849
0000e0 88 70 23 3e cb b9 2d 3e d2 b2 2d be 37 7b c1 3e
       0.15960896 0.16965406 -0.16962746 0.37789318
0000f0 c3 00 9a be 06 2f c0 bd 6b e0 7d be 14 b3 86 be
       -0.30078706 -0.09383969 -0.2479264 -0.263085
000100 f2 5a 57 be 6b 22 a8 be 89 53 b6 3e ab 64 ba 3d
       -0.21030787 -0.3283876 0.35610607 0.09101232
000110 92 01 0a 3e d3 8c b1 bd eb 9a b9 be a9 8e bd be
       0.13477162 -0.08669438 -0.36251006 -0.37022904
000120 3e 59 11 bd 3c 08 89 3e 82 21 52 3d fc 78 0a 3e
       -0.0354855 0.26764095 0.051301487 0.13522714
000130 b7 7c 57 bd a2 23 bc 3c 46 1b 84 be 21 a1 17 be
       -0.05260917 0.02296621 -0.25802058 -0.1480756
000140 b6 74 3e 3e 29 2d 67 be fa b2 1d bd 0b 2a 1d 3e
       0.18599209 -0.22575821 -0.038500763 0.1534807
000150 d2 de 1c 3e f7 46 22 3d 0b 2f f2 bc d0 09 bd bd
       0.15319374 0.03961846 -0.029563447 -0.09230387
000160 75 c4 0c be 2b 82 43 bd 8b 74 1b bc 1e 7d b0 be
       -0.13746817 -0.04773156 -0.009488235 -0.34470457
000170 65 13 cb bd ca 53 4c 3e 6c e6 b3 3e 06 0c 7e be
       -0.099158086 0.19953838 0.35136735 -0.24809274
000180 c3 da 80 3e f8 0b 92 be 83 57 ad be bf b7 1a 3e
       0.25166902 -0.28524756 -0.3385583 0.15109156
000190 b6 df 86 3d 84 1f 9b be e1 7e 75 3e 89 f3 8a 3d
       0.06585638 -0.30297482 0.23974182 0.06784732
0001a0 23 63 04 3d 53 72 52 bd 8f e0 60 3e 75 1a b4 be
       0.032321107 -0.05137856 0.21960662 -0.35176435
0001b0 3a 55 41 bd 86 c1 14 be 28 e4 2c 3e d9 3c 11 3e
       -0.04720042 -0.14526948 0.1688391 0.14183368
0001c0 dd fc 85 be e0 4c c6 3d c5 a8 37 3e 58 17 34 3e
       -0.26169482 0.096826315 0.17935474 0.1758703
0001d0 1b df c1 3e a9 cc 20 be 23 ef 6f be e7 31 a3 be
       0.37865528 -0.15703072 -0.23431067 -0.3187401
0001e0 27 e3 2c 3d 41 44 4e 3e 1d f4 f3 bd ce 46 ad bd
       0.042208817 0.20143224 -0.11911795 -0.084607705
0001f0 aa 96 99 be d8 b0 45 3b cb 94 10 be 4c b4 ed bc
       -0.2999776 0.0030165222 -0.1411926 -0.029016636
000200 94 64 c3 3e 0a 45 ff 3c ca a0 d5 3d 28 fb 41 3c
       0.38162673 0.03116085 0.10431059 0.0118396655
000210 d8 2c b6 3d 2e 1f 88 3e bd 35 9d 3d a0 ca 9d 3e
       0.08895272 0.26586288 0.076762654 0.30818653
000220 ee e1 b5 3c 85 f6 88 3e 6a 9b 80 bd 45 2f 58 bc
       0.022202458 0.2675058 -0.06279643 -0.013194864
000230 9c ad 51 3e 9c 79 d1 bd 3d fe 15 3e 0c 3f a7 3e
       0.20476383 -0.10228273 0.14647765 0.32665288
000240 46 2b 3c 3e 48 2e 5c 3e dd 74 92 3e 24 98 27 be
       0.18375883 0.2150203 0.28604785 -0.16366631
000250 c2 f6 0d be 4c 22 71 3e dc c2 78 3d aa d3 88 3d
       -0.13863662 0.2354824 0.060732707 0.06680997
000260 d2 5c 7e 3d f8 73 ec bb 01 51 87 3e a9 17 ba be
       0.06210024 -0.007215973 0.2642899 -0.36346176
000270 38 9d 82 be c1 b1 1a 3e 88 6c a8 3e 5c 22 c1 be
       -0.25510573 0.1510687 0.32895303 -0.37721527
000280 b4 77 b6 bc 5a 5f e9 3d 57 95 9d 3e d4 d8 01 3e
       -0.022273876 0.1139514 0.30778 0.1268037
000290 75 7e a2 3e 4b 9e fe 3d 20 03 c3 3e 06 17 60 be
       0.31737104 0.12432536 0.38088322 -0.21883783
0002a0 92 e6 8c 3e 49 71 56 3d 81 87 e4 3d 8d c8 ff 3c
       0.2751966 0.05235413 0.11158658 0.03122356
0002b0 f2 b2 12 bd 0f 84 e9 3d 10 96 bb be a3 9f 20 3e
       -0.035815187 0.11402141 -0.36637926 0.15685897
0002c0 47 2c 4b be 9b 05 8a bd f0 7f ac bd a1 36 2f 3b
       -0.19841109 -0.067393504 -0.0842284 0.0026735442
0002d0 72 7f e4 3d 26 de 25 3e 46 cb a2 be 98 b4 af be
       0.11157121 0.16198024 -0.3179571 -0.3431747
0002e0 4f db ab be db 44 ba be 03 6e 6c bb fe 51 62 bd
       -0.33565757 -0.36380658 -0.0036076314 -0.055253975
0002f0 e1 ef b6 3e 1d 66 15 bd 9b 93 bf be b1 76 a6 be
       0.35729888 -0.036474336 -0.37417302 -0.3251243
000300 ea 45 22 3e 4a 0c 72 3e e4 40 fe bd 22 3f ff 3c
       0.15846983 0.236375 -0.12414721 0.031158034
000310 88 7a 24 be e5 96 76 3b f6 ee 9b 3d be 00 2e 3e
       -0.16062367 0.0037626561 0.076139376 0.1699247
000320 ae 62 8d 3d 9e 67 5d be 98 5b 0c be 9c 7d c4 3e
       0.06903587 -0.21621558 -0.13706815 0.38377082
000330 8c 87 88 3e dc 01 b2 3d 7e 4d c2 be 71 84 06 3e
       0.26665914 0.08691761 -0.37949747 0.1313646
000340 4a 93 e0 bc 83 fe e8 3d 93 20 96 bd 00 13 bf be
       -0.027413983 0.11376669 -0.07330432 -0.37319183
000350 92 00 35 3e 47 7e 10 3e c5 c2 b0 3e 5b c7 7b bb
       0.17675999 0.14110671 0.34523597 -0.0038418386
000360 76 98 9e be ed 2f a3 be f1 a4 97 3d 3e 47 18 3e
       -0.30975693 -0.31872502 0.07404507 0.14870927
000370 32 07 c1 3e 6c 6c 2d 3b d4 10 7d 3e 93 83 ad 3e
       0.37700802 0.002646233 0.2471345 0.33889446
000380 32 1b bb 3e b5 42 03 3e 47 f6 4b bd 46 93 31 3e
       0.36544186 0.12818415 -0.049795415 0.17341337
000390 43 20 41 3e db 6d db 3d 55 bb 20 3e d9 af aa 3e
       0.18859963 0.10714313 0.15696461 0.33337286
0003a0 37 d9 72 3e 16 41 76 3e ce 48 92 be 3a b3 99 be
       0.23715673 0.24048266 -0.2857117 -0.30019552
0003b0 52 bc 90 3e b7 e6 57 3e 2a 4b 8f 3e ca ab 27 3e
       0.28268677 0.21084104 0.27987033 0.16374126
0003c0 b6 ca 20 be 59 97 a7 3e 04 0f a9 bd 21 48 7d 3e
       -0.15702328 0.32732657 -0.08254817 0.24734546
0003d0 6f 55 06 be 82 73 6e 3e 62 0b 98 3d 0f b6 4b 3d
       -0.13118528 0.2328625 0.07424046 0.04973417
0003e0 66 55 3b 3e 4e 25 8f be 50 7c b9 3e f4 60 a0 bd
       0.18294296 -0.2795815 0.36227655 -0.07830992
0003f0 20 20 96 be e8 22 28 3e 9f 8b b1 be e3 3a 9b be
       -0.29321384 0.16419566 -0.34676835 -0.30318365

blocks.1.mlp.fc2.bias f4 [8]
000000 b8 95 52 bc 76 5f b2 bb 0a d3 90 bc 56 f3 51 bb
       -0.012853079 -0.0054435087 -0.017678756 -0.0032035909
000010 59 4b 70 3c 7b ce 94 3b 89 f3 f6 bb ee 90 10 3c
       0.014666402 0.004541216 -0.007536356 0.008823616

blocks.2.norm1.weight f4 [8]
000000 98 6a 80 3f 00 b4 7d 3f 27 ac 7b 3f c4 61 7f 3f
       1.003253 0.99102783 0.9830956 0.99758554
000010 9a fe 7c 3f 36 2e 7c 3f c1 41 7d 3f 1b 65 7d 3f
       0.9882599 0.9850801 0.9892846 0.989824

blocks.2.norm1.bias f4 [8]
000000 47 e5 76 bc 28 a1 91 3c dc 1e 76 3c 2d 3c 32 3b
       -0.015069312 0.01777704 0.015022006 0.0027196512
000010 8e 43 e5 bb c8 d9 70 3c 17 b4 bb bb f6 64 1a bc
       -0.0069965785 0.014700361 -0.0057282555 -0.009423485
